{"format": "graph-model", "generatedBy": "2.16.1", "convertedBy": "TensorFlow.js Converter v4.22.0", "signature": {"inputs": {"x": {"name": "x:0", "dtype": "DT_FLOAT", "tensorShape": {"dim": [{"size": "1"}, {"size": "640"}, {"size": "640"}, {"size": "3"}]}}}, "outputs": {"classes": {"name": "Identity_1:0", "dtype": "DT_FLOAT", "tensorShape": {"dim": [{"size": "1"}, {"size": "8400"}, {"size": "1"}]}}, "boxes": {"name": "Identity:0", "dtype": "DT_FLOAT", "tensorShape": {"dim": [{"size": "1"}, {"size": "8400"}, {"size": "64"}]}}}}, "modelTopology": {"node": [{"name": "StatefulPartitionedCall/yolov8_detector_1/strided_slice_1/stack", "op": "Const", "attr": {"value": {"tensor": {"dtype": "DT_INT32", "tensorShape": {"dim": [{"size": "3"}]}}}, "dtype": {"type": "DT_INT32"}}}, {"name": "StatefulPartitionedCall/yolov8_detector_1/strided_slice_1/stack_1", "op": "Const", "attr": {"dtype": {"type": "DT_INT32"}, "value": {"tensor": {"dtype": "DT_INT32", "tensorShape": {"dim": [{"size": "3"}]}}}}}, {"name": "StatefulPartitionedCall/yolov8_detector_1/strided_slice_1/stack_2", "op": "Const", "attr": {"value": {"tensor": {"dtype": "DT_INT32", "tensorShape": {"dim": [{"size": "3"}]}}}, "dtype": {"type": "DT_INT32"}}}, {"name": "StatefulPartitionedCall/yolov8_detector_1/yolo_v8_head_1_box_1_pad_1/Const", "op": "Const", "attr": {"dtype": {"type": "DT_INT32"}, "value": {"tensor": {"dtype": "DT_INT32", "tensorShape": {"dim": [{"size": "4"}, {"size": "2"}]}}}}}, {"name": "StatefulPartitionedCall/yolov8_detector_1/yolo_v8_head_1_box_1_conv_1/convolution/merged_input", "op": "Const", "attr": {"dtype": {"type": "DT_FLOAT"}, "value": {"tensor": {"dtype": "DT_FLOAT", "tensorShape": {"dim": [{"size": "3"}, {"size": "3"}, {"size": "128"}, {"size": "64"}]}}}}}, {"name": "StatefulPartitionedCall/yolov8_detector_1/yolo_v8_head_1_box_1_bn_1/batchnorm/sub", "op": "Const", "attr": {"value": {"tensor": {"dtype": "DT_FLOAT", "tensorShape": {"dim": [{"size": "64"}]}}}, "dtype": {"type": "DT_FLOAT"}}}, {"name": "StatefulPartitionedCall/yolov8_detector_1/yolo_v8_head_1_box_2_pad_1/Const", "op": "Const", "attr": {"dtype": {"type": "DT_INT32"}, "value": {"tensor": {"dtype": "DT_INT32", "tensorShape": {"dim": [{"size": "4"}, {"size": "2"}]}}}}}, {"name": "StatefulPartitionedCall/yolov8_detector_1/yolo_v8_head_1_box_2_conv_1/convolution/merged_input", "op": "Const", "attr": {"value": {"tensor": {"dtype": "DT_FLOAT", "tensorShape": {"dim": [{"size": "3"}, {"size": "3"}, {"size": "64"}, {"size": "64"}]}}}, "dtype": {"type": "DT_FLOAT"}}}, {"name": "StatefulPartitionedCall/yolov8_detector_1/yolo_v8_head_1_box_2_bn_1/batchnorm/sub", "op": "Const", "attr": {"dtype": {"type": "DT_FLOAT"}, "value": {"tensor": {"dtype": "DT_FLOAT", "tensorShape": {"dim": [{"size": "64"}]}}}}}, {"name": "StatefulPartitionedCall/yolov8_detector_1/yolo_v8_head_1_box_3_conv_1/convolution/ReadVariableOp", "op": "Const", "attr": {"value": {"tensor": {"dtype": "DT_FLOAT", "tensorShape": {"dim": [{"size": "1"}, {"size": "1"}, {"size": "64"}, {"size": "64"}]}}}, "dtype": {"type": "DT_FLOAT"}}}, {"name": "StatefulPartitionedCall/yolov8_detector_1/yolo_v8_head_1_box_3_conv_1/Squeeze", "op": "Const", "attr": {"value": {"tensor": {"dtype": "DT_FLOAT", "tensorShape": {"dim": [{"size": "64"}]}}}, "dtype": {"type": "DT_FLOAT"}}}, {"name": "StatefulPartitionedCall/yolov8_detector_1/yolo_v8_head_1_class_1_pad_1/Const", "op": "Const", "attr": {"dtype": {"type": "DT_INT32"}, "value": {"tensor": {"dtype": "DT_INT32", "tensorShape": {"dim": [{"size": "4"}, {"size": "2"}]}}}}}, {"name": "StatefulPartitionedCall/yolov8_detector_1/yolo_v8_head_1_class_1_conv_1/convolution/merged_input", "op": "Const", "attr": {"dtype": {"type": "DT_FLOAT"}, "value": {"tensor": {"dtype": "DT_FLOAT", "tensorShape": {"dim": [{"size": "3"}, {"size": "3"}, {"size": "128"}, {"size": "128"}]}}}}}, {"name": "StatefulPartitionedCall/yolov8_detector_1/yolo_v8_head_1_class_1_bn_1/batchnorm/sub", "op": "Const", "attr": {"value": {"tensor": {"dtype": "DT_FLOAT", "tensorShape": {"dim": [{"size": "128"}]}}}, "dtype": {"type": "DT_FLOAT"}}}, {"name": "StatefulPartitionedCall/yolov8_detector_1/yolo_v8_head_1_class_2_pad_1/Const", "op": "Const", "attr": {"dtype": {"type": "DT_INT32"}, "value": {"tensor": {"dtype": "DT_INT32", "tensorShape": {"dim": [{"size": "4"}, {"size": "2"}]}}}}}, {"name": "StatefulPartitionedCall/yolov8_detector_1/yolo_v8_head_1_class_2_conv_1/convolution/merged_input", "op": "Const", "attr": {"dtype": {"type": "DT_FLOAT"}, "value": {"tensor": {"dtype": "DT_FLOAT", "tensorShape": {"dim": [{"size": "3"}, {"size": "3"}, {"size": "128"}, {"size": "128"}]}}}}}, {"name": "StatefulPartitionedCall/yolov8_detector_1/yolo_v8_head_1_class_2_bn_1/batchnorm/sub", "op": "Const", "attr": {"dtype": {"type": "DT_FLOAT"}, "value": {"tensor": {"dtype": "DT_FLOAT", "tensorShape": {"dim": [{"size": "128"}]}}}}}, {"name": "StatefulPartitionedCall/yolov8_detector_1/yolo_v8_head_1_class_3_conv_1/convolution/ReadVariableOp", "op": "Const", "attr": {"dtype": {"type": "DT_FLOAT"}, "value": {"tensor": {"dtype": "DT_FLOAT", "tensorShape": {"dim": [{"size": "1"}, {"size": "1"}, {"size": "128"}, {"size": "1"}]}}}}}, {"name": "StatefulPartitionedCall/yolov8_detector_1/yolo_v8_head_1_class_3_conv_1/Reshape", "op": "Const", "attr": {"value": {"tensor": {"dtype": "DT_FLOAT", "tensorShape": {"dim": [{"size": "1"}, {"size": "1"}, {"size": "1"}, {"size": "1"}]}}}, "dtype": {"type": "DT_FLOAT"}}}, {"name": "StatefulPartitionedCall/yolov8_detector_1/concat_10/axis", "op": "Const", "attr": {"dtype": {"type": "DT_INT32"}, "value": {"tensor": {"dtype": "DT_INT32", "tensorShape": {}}}}}, {"name": "StatefulPartitionedCall/yolov8_detector_1/yolo_v8_head_1_output_reshape_1/Reshape/shape", "op": "Const", "attr": {"value": {"tensor": {"dtype": "DT_INT32", "tensorShape": {"dim": [{"size": "3"}]}}}, "dtype": {"type": "DT_INT32"}}}, {"name": "StatefulPartitionedCall/yolov8_detector_1/yolo_v8_head_2_box_1_pad_1/Const", "op": "Const", "attr": {"dtype": {"type": "DT_INT32"}, "value": {"tensor": {"dtype": "DT_INT32", "tensorShape": {"dim": [{"size": "4"}, {"size": "2"}]}}}}}, {"name": "StatefulPartitionedCall/yolov8_detector_1/yolo_v8_head_2_box_1_conv_1/convolution/merged_input", "op": "Const", "attr": {"value": {"tensor": {"dtype": "DT_FLOAT", "tensorShape": {"dim": [{"size": "3"}, {"size": "3"}, {"size": "256"}, {"size": "64"}]}}}, "dtype": {"type": "DT_FLOAT"}}}, {"name": "StatefulPartitionedCall/yolov8_detector_1/yolo_v8_head_2_box_1_bn_1/batchnorm/sub", "op": "Const", "attr": {"dtype": {"type": "DT_FLOAT"}, "value": {"tensor": {"dtype": "DT_FLOAT", "tensorShape": {"dim": [{"size": "64"}]}}}}}, {"name": "StatefulPartitionedCall/yolov8_detector_1/yolo_v8_head_2_box_2_pad_1/Const", "op": "Const", "attr": {"value": {"tensor": {"dtype": "DT_INT32", "tensorShape": {"dim": [{"size": "4"}, {"size": "2"}]}}}, "dtype": {"type": "DT_INT32"}}}, {"name": "StatefulPartitionedCall/yolov8_detector_1/yolo_v8_head_2_box_2_conv_1/convolution/merged_input", "op": "Const", "attr": {"dtype": {"type": "DT_FLOAT"}, "value": {"tensor": {"dtype": "DT_FLOAT", "tensorShape": {"dim": [{"size": "3"}, {"size": "3"}, {"size": "64"}, {"size": "64"}]}}}}}, {"name": "StatefulPartitionedCall/yolov8_detector_1/yolo_v8_head_2_box_2_bn_1/batchnorm/sub", "op": "Const", "attr": {"value": {"tensor": {"dtype": "DT_FLOAT", "tensorShape": {"dim": [{"size": "64"}]}}}, "dtype": {"type": "DT_FLOAT"}}}, {"name": "StatefulPartitionedCall/yolov8_detector_1/yolo_v8_head_2_box_3_conv_1/convolution/ReadVariableOp", "op": "Const", "attr": {"dtype": {"type": "DT_FLOAT"}, "value": {"tensor": {"dtype": "DT_FLOAT", "tensorShape": {"dim": [{"size": "1"}, {"size": "1"}, {"size": "64"}, {"size": "64"}]}}}}}, {"name": "StatefulPartitionedCall/yolov8_detector_1/yolo_v8_head_2_box_3_conv_1/Squeeze", "op": "Const", "attr": {"value": {"tensor": {"dtype": "DT_FLOAT", "tensorShape": {"dim": [{"size": "64"}]}}}, "dtype": {"type": "DT_FLOAT"}}}, {"name": "StatefulPartitionedCall/yolov8_detector_1/yolo_v8_head_2_class_1_pad_1/Const", "op": "Const", "attr": {"dtype": {"type": "DT_INT32"}, "value": {"tensor": {"dtype": "DT_INT32", "tensorShape": {"dim": [{"size": "4"}, {"size": "2"}]}}}}}, {"name": "StatefulPartitionedCall/yolov8_detector_1/yolo_v8_head_2_class_1_conv_1/convolution/merged_input", "op": "Const", "attr": {"dtype": {"type": "DT_FLOAT"}, "value": {"tensor": {"dtype": "DT_FLOAT", "tensorShape": {"dim": [{"size": "3"}, {"size": "3"}, {"size": "256"}, {"size": "128"}]}}}}}, {"name": "StatefulPartitionedCall/yolov8_detector_1/yolo_v8_head_2_class_1_bn_1/batchnorm/sub", "op": "Const", "attr": {"dtype": {"type": "DT_FLOAT"}, "value": {"tensor": {"dtype": "DT_FLOAT", "tensorShape": {"dim": [{"size": "128"}]}}}}}, {"name": "StatefulPartitionedCall/yolov8_detector_1/yolo_v8_head_2_class_2_pad_1/Const", "op": "Const", "attr": {"dtype": {"type": "DT_INT32"}, "value": {"tensor": {"dtype": "DT_INT32", "tensorShape": {"dim": [{"size": "4"}, {"size": "2"}]}}}}}, {"name": "StatefulPartitionedCall/yolov8_detector_1/yolo_v8_head_2_class_2_conv_1/convolution/merged_input", "op": "Const", "attr": {"value": {"tensor": {"dtype": "DT_FLOAT", "tensorShape": {"dim": [{"size": "3"}, {"size": "3"}, {"size": "128"}, {"size": "128"}]}}}, "dtype": {"type": "DT_FLOAT"}}}, {"name": "StatefulPartitionedCall/yolov8_detector_1/yolo_v8_head_2_class_2_bn_1/batchnorm/sub", "op": "Const", "attr": {"dtype": {"type": "DT_FLOAT"}, "value": {"tensor": {"dtype": "DT_FLOAT", "tensorShape": {"dim": [{"size": "128"}]}}}}}, {"name": "StatefulPartitionedCall/yolov8_detector_1/yolo_v8_head_2_class_3_conv_1/convolution/ReadVariableOp", "op": "Const", "attr": {"dtype": {"type": "DT_FLOAT"}, "value": {"tensor": {"dtype": "DT_FLOAT", "tensorShape": {"dim": [{"size": "1"}, {"size": "1"}, {"size": "128"}, {"size": "1"}]}}}}}, {"name": "StatefulPartitionedCall/yolov8_detector_1/yolo_v8_head_2_class_3_conv_1/Reshape", "op": "Const", "attr": {"dtype": {"type": "DT_FLOAT"}, "value": {"tensor": {"dtype": "DT_FLOAT", "tensorShape": {"dim": [{"size": "1"}, {"size": "1"}, {"size": "1"}, {"size": "1"}]}}}}}, {"name": "StatefulPartitionedCall/yolov8_detector_1/concat_9/axis", "op": "Const", "attr": {"dtype": {"type": "DT_INT32"}, "value": {"tensor": {"dtype": "DT_INT32", "tensorShape": {}}}}}, {"name": "StatefulPartitionedCall/yolov8_detector_1/yolo_v8_head_2_output_reshape_1/Reshape/shape", "op": "Const", "attr": {"dtype": {"type": "DT_INT32"}, "value": {"tensor": {"dtype": "DT_INT32", "tensorShape": {"dim": [{"size": "3"}]}}}}}, {"name": "StatefulPartitionedCall/yolov8_detector_1/yolo_v8_head_3_box_1_pad_1/Const", "op": "Const", "attr": {"value": {"tensor": {"dtype": "DT_INT32", "tensorShape": {"dim": [{"size": "4"}, {"size": "2"}]}}}, "dtype": {"type": "DT_INT32"}}}, {"name": "StatefulPartitionedCall/yolov8_detector_1/yolo_v8_head_3_box_1_conv_1/convolution/merged_input", "op": "Const", "attr": {"dtype": {"type": "DT_FLOAT"}, "value": {"tensor": {"dtype": "DT_FLOAT", "tensorShape": {"dim": [{"size": "3"}, {"size": "3"}, {"size": "512"}, {"size": "64"}]}}}}}, {"name": "StatefulPartitionedCall/yolov8_detector_1/yolo_v8_head_3_box_1_bn_1/batchnorm/sub", "op": "Const", "attr": {"dtype": {"type": "DT_FLOAT"}, "value": {"tensor": {"dtype": "DT_FLOAT", "tensorShape": {"dim": [{"size": "64"}]}}}}}, {"name": "StatefulPartitionedCall/yolov8_detector_1/yolo_v8_head_3_box_2_pad_1/Const", "op": "Const", "attr": {"value": {"tensor": {"dtype": "DT_INT32", "tensorShape": {"dim": [{"size": "4"}, {"size": "2"}]}}}, "dtype": {"type": "DT_INT32"}}}, {"name": "StatefulPartitionedCall/yolov8_detector_1/yolo_v8_head_3_box_2_conv_1/convolution/merged_input", "op": "Const", "attr": {"dtype": {"type": "DT_FLOAT"}, "value": {"tensor": {"dtype": "DT_FLOAT", "tensorShape": {"dim": [{"size": "3"}, {"size": "3"}, {"size": "64"}, {"size": "64"}]}}}}}, {"name": "StatefulPartitionedCall/yolov8_detector_1/yolo_v8_head_3_box_2_bn_1/batchnorm/sub", "op": "Const", "attr": {"value": {"tensor": {"dtype": "DT_FLOAT", "tensorShape": {"dim": [{"size": "64"}]}}}, "dtype": {"type": "DT_FLOAT"}}}, {"name": "StatefulPartitionedCall/yolov8_detector_1/yolo_v8_head_3_box_3_conv_1/convolution/ReadVariableOp", "op": "Const", "attr": {"value": {"tensor": {"dtype": "DT_FLOAT", "tensorShape": {"dim": [{"size": "1"}, {"size": "1"}, {"size": "64"}, {"size": "64"}]}}}, "dtype": {"type": "DT_FLOAT"}}}, {"name": "StatefulPartitionedCall/yolov8_detector_1/yolo_v8_head_3_box_3_conv_1/Squeeze", "op": "Const", "attr": {"dtype": {"type": "DT_FLOAT"}, "value": {"tensor": {"dtype": "DT_FLOAT", "tensorShape": {"dim": [{"size": "64"}]}}}}}, {"name": "StatefulPartitionedCall/yolov8_detector_1/split_3/split_dim", "op": "Const", "attr": {"dtype": {"type": "DT_INT32"}, "value": {"tensor": {"dtype": "DT_INT32", "tensorShape": {}}}}}, {"name": "StatefulPartitionedCall/yolov8_detector_1/split_2/split_dim", "op": "Const", "attr": {"dtype": {"type": "DT_INT32"}, "value": {"tensor": {"dtype": "DT_INT32", "tensorShape": {}}}}}, {"name": "StatefulPartitionedCall/yolov8_detector_1/split_1/split_dim", "op": "Const", "attr": {"value": {"tensor": {"dtype": "DT_INT32", "tensorShape": {}}}, "dtype": {"type": "DT_INT32"}}}, {"name": "StatefulPartitionedCall/yolov8_detector_1/Repeat_2/ExpandDims/dim", "op": "Const", "attr": {"dtype": {"type": "DT_INT32"}, "value": {"tensor": {"dtype": "DT_INT32", "tensorShape": {}}}}}, {"name": "StatefulPartitionedCall/yolov8_detector_1/Repeat_2/Tile/multiples", "op": "Const", "attr": {"value": {"tensor": {"dtype": "DT_INT32", "tensorShape": {"dim": [{"size": "5"}]}}}, "dtype": {"type": "DT_INT32"}}}, {"name": "StatefulPartitionedCall/yolov8_detector_1/Repeat_2/concat", "op": "Const", "attr": {"dtype": {"type": "DT_INT32"}, "value": {"tensor": {"dtype": "DT_INT32", "tensorShape": {"dim": [{"size": "4"}]}}}}}, {"name": "StatefulPartitionedCall/yolov8_detector_1/Repeat_3/ExpandDims/dim", "op": "Const", "attr": {"value": {"tensor": {"dtype": "DT_INT32", "tensorShape": {}}}, "dtype": {"type": "DT_INT32"}}}, {"name": "StatefulPartitionedCall/yolov8_detector_1/Repeat_3/Tile/multiples", "op": "Const", "attr": {"dtype": {"type": "DT_INT32"}, "value": {"tensor": {"dtype": "DT_INT32", "tensorShape": {"dim": [{"size": "5"}]}}}}}, {"name": "StatefulPartitionedCall/yolov8_detector_1/Repeat_3/concat", "op": "Const", "attr": {"dtype": {"type": "DT_INT32"}, "value": {"tensor": {"dtype": "DT_INT32", "tensorShape": {"dim": [{"size": "4"}]}}}}}, {"name": "StatefulPartitionedCall/yolov8_detector_1/concat_2/axis", "op": "Const", "attr": {"value": {"tensor": {"dtype": "DT_INT32", "tensorShape": {}}}, "dtype": {"type": "DT_INT32"}}}, {"name": "StatefulPartitionedCall/yolov8_detector_1/pa_fpn_p3p4p5_pre_conv_1/convolution/merged_input", "op": "Const", "attr": {"value": {"tensor": {"dtype": "DT_FLOAT", "tensorShape": {"dim": [{"size": "1"}, {"size": "1"}, {"size": "384"}, {"size": "128"}]}}}, "dtype": {"type": "DT_FLOAT"}}}, {"name": "StatefulPartitionedCall/yolov8_detector_1/pa_fpn_p3p4p5_pre_bn_1/batchnorm/sub", "op": "Const", "attr": {"dtype": {"type": "DT_FLOAT"}, "value": {"tensor": {"dtype": "DT_FLOAT", "tensorShape": {"dim": [{"size": "128"}]}}}}}, {"name": "StatefulPartitionedCall/yolov8_detector_1/pa_fpn_p3p4p5_pre_0_1_pad_1/Const", "op": "Const", "attr": {"value": {"tensor": {"dtype": "DT_INT32", "tensorShape": {"dim": [{"size": "4"}, {"size": "2"}]}}}, "dtype": {"type": "DT_INT32"}}}, {"name": "StatefulPartitionedCall/yolov8_detector_1/pa_fpn_p3p4p5_pre_0_1_conv_1/convolution/merged_input", "op": "Const", "attr": {"value": {"tensor": {"dtype": "DT_FLOAT", "tensorShape": {"dim": [{"size": "3"}, {"size": "3"}, {"size": "64"}, {"size": "64"}]}}}, "dtype": {"type": "DT_FLOAT"}}}, {"name": "StatefulPartitionedCall/yolov8_detector_1/pa_fpn_p3p4p5_pre_0_1_bn_1/batchnorm/sub", "op": "Const", "attr": {"dtype": {"type": "DT_FLOAT"}, "value": {"tensor": {"dtype": "DT_FLOAT", "tensorShape": {"dim": [{"size": "64"}]}}}}}, {"name": "StatefulPartitionedCall/yolov8_detector_1/pa_fpn_p3p4p5_pre_0_2_pad_1/Const", "op": "Const", "attr": {"dtype": {"type": "DT_INT32"}, "value": {"tensor": {"dtype": "DT_INT32", "tensorShape": {"dim": [{"size": "4"}, {"size": "2"}]}}}}}, {"name": "StatefulPartitionedCall/yolov8_detector_1/pa_fpn_p3p4p5_pre_0_2_conv_1/convolution/merged_input", "op": "Const", "attr": {"dtype": {"type": "DT_FLOAT"}, "value": {"tensor": {"dtype": "DT_FLOAT", "tensorShape": {"dim": [{"size": "3"}, {"size": "3"}, {"size": "64"}, {"size": "64"}]}}}}}, {"name": "StatefulPartitionedCall/yolov8_detector_1/pa_fpn_p3p4p5_pre_0_2_bn_1/batchnorm/sub", "op": "Const", "attr": {"dtype": {"type": "DT_FLOAT"}, "value": {"tensor": {"dtype": "DT_FLOAT", "tensorShape": {"dim": [{"size": "64"}]}}}}}, {"name": "StatefulPartitionedCall/yolov8_detector_1/concat_3/axis", "op": "Const", "attr": {"dtype": {"type": "DT_INT32"}, "value": {"tensor": {"dtype": "DT_INT32", "tensorShape": {}}}}}, {"name": "StatefulPartitionedCall/yolov8_detector_1/pa_fpn_p3p4p5_output_conv_1/convolution/merged_input", "op": "Const", "attr": {"value": {"tensor": {"dtype": "DT_FLOAT", "tensorShape": {"dim": [{"size": "1"}, {"size": "1"}, {"size": "192"}, {"size": "128"}]}}}, "dtype": {"type": "DT_FLOAT"}}}, {"name": "StatefulPartitionedCall/yolov8_detector_1/pa_fpn_p3p4p5_output_bn_1/batchnorm/sub", "op": "Const", "attr": {"value": {"tensor": {"dtype": "DT_FLOAT", "tensorShape": {"dim": [{"size": "128"}]}}}, "dtype": {"type": "DT_FLOAT"}}}, {"name": "StatefulPartitionedCall/yolov8_detector_1/pa_fpn_p3p4p5_downsample1_pad_1/Const", "op": "Const", "attr": {"dtype": {"type": "DT_INT32"}, "value": {"tensor": {"dtype": "DT_INT32", "tensorShape": {"dim": [{"size": "4"}, {"size": "2"}]}}}}}, {"name": "StatefulPartitionedCall/yolov8_detector_1/pa_fpn_p3p4p5_downsample1_conv_1/convolution/merged_input", "op": "Const", "attr": {"dtype": {"type": "DT_FLOAT"}, "value": {"tensor": {"dtype": "DT_FLOAT", "tensorShape": {"dim": [{"size": "3"}, {"size": "3"}, {"size": "128"}, {"size": "128"}]}}}}}, {"name": "StatefulPartitionedCall/yolov8_detector_1/pa_fpn_p3p4p5_downsample1_bn_1/batchnorm/sub", "op": "Const", "attr": {"dtype": {"type": "DT_FLOAT"}, "value": {"tensor": {"dtype": "DT_FLOAT", "tensorShape": {"dim": [{"size": "128"}]}}}}}, {"name": "StatefulPartitionedCall/yolov8_detector_1/split/split_dim", "op": "Const", "attr": {"value": {"tensor": {"dtype": "DT_INT32", "tensorShape": {}}}, "dtype": {"type": "DT_INT32"}}}, {"name": "StatefulPartitionedCall/yolov8_detector_1/Repeat/ExpandDims/dim", "op": "Const", "attr": {"dtype": {"type": "DT_INT32"}, "value": {"tensor": {"dtype": "DT_INT32", "tensorShape": {}}}}}, {"name": "StatefulPartitionedCall/yolov8_detector_1/Repeat/Tile/multiples", "op": "Const", "attr": {"dtype": {"type": "DT_INT32"}, "value": {"tensor": {"dtype": "DT_INT32", "tensorShape": {"dim": [{"size": "5"}]}}}}}, {"name": "StatefulPartitionedCall/yolov8_detector_1/Repeat/concat", "op": "Const", "attr": {"dtype": {"type": "DT_INT32"}, "value": {"tensor": {"dtype": "DT_INT32", "tensorShape": {"dim": [{"size": "4"}]}}}}}, {"name": "StatefulPartitionedCall/yolov8_detector_1/Repeat_1/ExpandDims/dim", "op": "Const", "attr": {"value": {"tensor": {"dtype": "DT_INT32", "tensorShape": {}}}, "dtype": {"type": "DT_INT32"}}}, {"name": "StatefulPartitionedCall/yolov8_detector_1/Repeat_1/Tile/multiples", "op": "Const", "attr": {"dtype": {"type": "DT_INT32"}, "value": {"tensor": {"dtype": "DT_INT32", "tensorShape": {"dim": [{"size": "5"}]}}}}}, {"name": "StatefulPartitionedCall/yolov8_detector_1/Repeat_1/concat", "op": "Const", "attr": {"dtype": {"type": "DT_INT32"}, "value": {"tensor": {"dtype": "DT_INT32", "tensorShape": {"dim": [{"size": "4"}]}}}}}, {"name": "StatefulPartitionedCall/yolov8_detector_1/concat/axis", "op": "Const", "attr": {"dtype": {"type": "DT_INT32"}, "value": {"tensor": {"dtype": "DT_INT32", "tensorShape": {}}}}}, {"name": "StatefulPartitionedCall/yolov8_detector_1/pa_fpn_p4p5_pre_conv_1/convolution/merged_input", "op": "Const", "attr": {"value": {"tensor": {"dtype": "DT_FLOAT", "tensorShape": {"dim": [{"size": "1"}, {"size": "1"}, {"size": "768"}, {"size": "256"}]}}}, "dtype": {"type": "DT_FLOAT"}}}, {"name": "StatefulPartitionedCall/yolov8_detector_1/pa_fpn_p4p5_pre_bn_1/batchnorm/sub", "op": "Const", "attr": {"dtype": {"type": "DT_FLOAT"}, "value": {"tensor": {"dtype": "DT_FLOAT", "tensorShape": {"dim": [{"size": "256"}]}}}}}, {"name": "StatefulPartitionedCall/yolov8_detector_1/pa_fpn_p4p5_pre_0_1_pad_1/Const", "op": "Const", "attr": {"value": {"tensor": {"dtype": "DT_INT32", "tensorShape": {"dim": [{"size": "4"}, {"size": "2"}]}}}, "dtype": {"type": "DT_INT32"}}}, {"name": "StatefulPartitionedCall/yolov8_detector_1/pa_fpn_p4p5_pre_0_1_conv_1/convolution/merged_input", "op": "Const", "attr": {"value": {"tensor": {"dtype": "DT_FLOAT", "tensorShape": {"dim": [{"size": "3"}, {"size": "3"}, {"size": "128"}, {"size": "128"}]}}}, "dtype": {"type": "DT_FLOAT"}}}, {"name": "StatefulPartitionedCall/yolov8_detector_1/pa_fpn_p4p5_pre_0_1_bn_1/batchnorm/sub", "op": "Const", "attr": {"dtype": {"type": "DT_FLOAT"}, "value": {"tensor": {"dtype": "DT_FLOAT", "tensorShape": {"dim": [{"size": "128"}]}}}}}, {"name": "StatefulPartitionedCall/yolov8_detector_1/pa_fpn_p4p5_pre_0_2_pad_1/Const", "op": "Const", "attr": {"value": {"tensor": {"dtype": "DT_INT32", "tensorShape": {"dim": [{"size": "4"}, {"size": "2"}]}}}, "dtype": {"type": "DT_INT32"}}}, {"name": "StatefulPartitionedCall/yolov8_detector_1/pa_fpn_p4p5_pre_0_2_conv_1/convolution/merged_input", "op": "Const", "attr": {"dtype": {"type": "DT_FLOAT"}, "value": {"tensor": {"dtype": "DT_FLOAT", "tensorShape": {"dim": [{"size": "3"}, {"size": "3"}, {"size": "128"}, {"size": "128"}]}}}}}, {"name": "StatefulPartitionedCall/yolov8_detector_1/pa_fpn_p4p5_pre_0_2_bn_1/batchnorm/sub", "op": "Const", "attr": {"dtype": {"type": "DT_FLOAT"}, "value": {"tensor": {"dtype": "DT_FLOAT", "tensorShape": {"dim": [{"size": "128"}]}}}}}, {"name": "StatefulPartitionedCall/yolov8_detector_1/concat_1/axis", "op": "Const", "attr": {"dtype": {"type": "DT_INT32"}, "value": {"tensor": {"dtype": "DT_INT32", "tensorShape": {}}}}}, {"name": "StatefulPartitionedCall/yolov8_detector_1/pa_fpn_p4p5_output_conv_1/convolution/merged_input", "op": "Const", "attr": {"value": {"tensor": {"dtype": "DT_FLOAT", "tensorShape": {"dim": [{"size": "1"}, {"size": "1"}, {"size": "384"}, {"size": "256"}]}}}, "dtype": {"type": "DT_FLOAT"}}}, {"name": "StatefulPartitionedCall/yolov8_detector_1/pa_fpn_p4p5_output_bn_1/batchnorm/sub", "op": "Const", "attr": {"dtype": {"type": "DT_FLOAT"}, "value": {"tensor": {"dtype": "DT_FLOAT", "tensorShape": {"dim": [{"size": "256"}]}}}}}, {"name": "StatefulPartitionedCall/yolov8_detector_1/concat_4/axis", "op": "Const", "attr": {"value": {"tensor": {"dtype": "DT_INT32", "tensorShape": {}}}, "dtype": {"type": "DT_INT32"}}}, {"name": "StatefulPartitionedCall/yolov8_detector_1/pa_fpn_p3p4p5_downsample1_block_pre_conv_1/convolution/merged_input", "op": "Const", "attr": {"dtype": {"type": "DT_FLOAT"}, "value": {"tensor": {"dtype": "DT_FLOAT", "tensorShape": {"dim": [{"size": "1"}, {"size": "1"}, {"size": "384"}, {"size": "256"}]}}}}}, {"name": "StatefulPartitionedCall/yolov8_detector_1/pa_fpn_p3p4p5_downsample1_block_pre_bn_1/batchnorm/sub", "op": "Const", "attr": {"dtype": {"type": "DT_FLOAT"}, "value": {"tensor": {"dtype": "DT_FLOAT", "tensorShape": {"dim": [{"size": "256"}]}}}}}, {"name": "StatefulPartitionedCall/yolov8_detector_1/pa_fpn_p3p4p5_downsample1_block_pre_0_1_pad_1/Const", "op": "Const", "attr": {"value": {"tensor": {"dtype": "DT_INT32", "tensorShape": {"dim": [{"size": "4"}, {"size": "2"}]}}}, "dtype": {"type": "DT_INT32"}}}, {"name": "StatefulPartitionedCall/yolov8_detector_1/pa_fpn_p3p4p5_downsample1_block_pre_0_1_conv_1/convolution/merged_input", "op": "Const", "attr": {"value": {"tensor": {"dtype": "DT_FLOAT", "tensorShape": {"dim": [{"size": "3"}, {"size": "3"}, {"size": "128"}, {"size": "128"}]}}}, "dtype": {"type": "DT_FLOAT"}}}, {"name": "StatefulPartitionedCall/yolov8_detector_1/pa_fpn_p3p4p5_downsample1_block_pre_0_1_bn_1/batchnorm/sub", "op": "Const", "attr": {"value": {"tensor": {"dtype": "DT_FLOAT", "tensorShape": {"dim": [{"size": "128"}]}}}, "dtype": {"type": "DT_FLOAT"}}}, {"name": "StatefulPartitionedCall/yolov8_detector_1/pa_fpn_p3p4p5_downsample1_block_pre_0_2_pad_1/Const", "op": "Const", "attr": {"dtype": {"type": "DT_INT32"}, "value": {"tensor": {"dtype": "DT_INT32", "tensorShape": {"dim": [{"size": "4"}, {"size": "2"}]}}}}}, {"name": "StatefulPartitionedCall/yolov8_detector_1/pa_fpn_p3p4p5_downsample1_block_pre_0_2_conv_1/convolution/merged_input", "op": "Const", "attr": {"value": {"tensor": {"dtype": "DT_FLOAT", "tensorShape": {"dim": [{"size": "3"}, {"size": "3"}, {"size": "128"}, {"size": "128"}]}}}, "dtype": {"type": "DT_FLOAT"}}}, {"name": "StatefulPartitionedCall/yolov8_detector_1/pa_fpn_p3p4p5_downsample1_block_pre_0_2_bn_1/batchnorm/sub", "op": "Const", "attr": {"dtype": {"type": "DT_FLOAT"}, "value": {"tensor": {"dtype": "DT_FLOAT", "tensorShape": {"dim": [{"size": "128"}]}}}}}, {"name": "StatefulPartitionedCall/yolov8_detector_1/pa_fpn_p3p4p5_downsample1_block_pre_1_1_pad_1/Const", "op": "Const", "attr": {"dtype": {"type": "DT_INT32"}, "value": {"tensor": {"dtype": "DT_INT32", "tensorShape": {"dim": [{"size": "4"}, {"size": "2"}]}}}}}, {"name": "StatefulPartitionedCall/yolov8_detector_1/pa_fpn_p3p4p5_downsample1_block_pre_1_1_conv_1/convolution/merged_input", "op": "Const", "attr": {"dtype": {"type": "DT_FLOAT"}, "value": {"tensor": {"dtype": "DT_FLOAT", "tensorShape": {"dim": [{"size": "3"}, {"size": "3"}, {"size": "128"}, {"size": "128"}]}}}}}, {"name": "StatefulPartitionedCall/yolov8_detector_1/pa_fpn_p3p4p5_downsample1_block_pre_1_1_bn_1/batchnorm/sub", "op": "Const", "attr": {"dtype": {"type": "DT_FLOAT"}, "value": {"tensor": {"dtype": "DT_FLOAT", "tensorShape": {"dim": [{"size": "128"}]}}}}}, {"name": "StatefulPartitionedCall/yolov8_detector_1/pa_fpn_p3p4p5_downsample1_block_pre_1_2_pad_1/Const", "op": "Const", "attr": {"dtype": {"type": "DT_INT32"}, "value": {"tensor": {"dtype": "DT_INT32", "tensorShape": {"dim": [{"size": "4"}, {"size": "2"}]}}}}}, {"name": "StatefulPartitionedCall/yolov8_detector_1/pa_fpn_p3p4p5_downsample1_block_pre_1_2_conv_1/convolution/merged_input", "op": "Const", "attr": {"value": {"tensor": {"dtype": "DT_FLOAT", "tensorShape": {"dim": [{"size": "3"}, {"size": "3"}, {"size": "128"}, {"size": "128"}]}}}, "dtype": {"type": "DT_FLOAT"}}}, {"name": "StatefulPartitionedCall/yolov8_detector_1/pa_fpn_p3p4p5_downsample1_block_pre_1_2_bn_1/batchnorm/sub", "op": "Const", "attr": {"dtype": {"type": "DT_FLOAT"}, "value": {"tensor": {"dtype": "DT_FLOAT", "tensorShape": {"dim": [{"size": "128"}]}}}}}, {"name": "StatefulPartitionedCall/yolov8_detector_1/concat_5/axis", "op": "Const", "attr": {"value": {"tensor": {"dtype": "DT_INT32", "tensorShape": {}}}, "dtype": {"type": "DT_INT32"}}}, {"name": "StatefulPartitionedCall/yolov8_detector_1/pa_fpn_p3p4p5_downsample1_block_output_conv_1/convolution/merged_input", "op": "Const", "attr": {"dtype": {"type": "DT_FLOAT"}, "value": {"tensor": {"dtype": "DT_FLOAT", "tensorShape": {"dim": [{"size": "1"}, {"size": "1"}, {"size": "512"}, {"size": "256"}]}}}}}, {"name": "StatefulPartitionedCall/yolov8_detector_1/pa_fpn_p3p4p5_downsample1_block_output_bn_1/batchnorm/sub", "op": "Const", "attr": {"dtype": {"type": "DT_FLOAT"}, "value": {"tensor": {"dtype": "DT_FLOAT", "tensorShape": {"dim": [{"size": "256"}]}}}}}, {"name": "StatefulPartitionedCall/yolov8_detector_1/pa_fpn_p3p4p5_downsample2_pad_1/Const", "op": "Const", "attr": {"dtype": {"type": "DT_INT32"}, "value": {"tensor": {"dtype": "DT_INT32", "tensorShape": {"dim": [{"size": "4"}, {"size": "2"}]}}}}}, {"name": "StatefulPartitionedCall/yolov8_detector_1/pa_fpn_p3p4p5_downsample2_conv_1/convolution/merged_input", "op": "Const", "attr": {"value": {"tensor": {"dtype": "DT_FLOAT", "tensorShape": {"dim": [{"size": "3"}, {"size": "3"}, {"size": "256"}, {"size": "256"}]}}}, "dtype": {"type": "DT_FLOAT"}}}, {"name": "StatefulPartitionedCall/yolov8_detector_1/pa_fpn_p3p4p5_downsample2_bn_1/batchnorm/sub", "op": "Const", "attr": {"value": {"tensor": {"dtype": "DT_FLOAT", "tensorShape": {"dim": [{"size": "256"}]}}}, "dtype": {"type": "DT_FLOAT"}}}, {"name": "StatefulPartitionedCall/yolov8_detector_1/functional_1/split_3/split_dim", "op": "Const", "attr": {"dtype": {"type": "DT_INT32"}, "value": {"tensor": {"dtype": "DT_INT32", "tensorShape": {}}}}}, {"name": "StatefulPartitionedCall/yolov8_detector_1/functional_1/split_2/split_dim", "op": "Const", "attr": {"dtype": {"type": "DT_INT32"}, "value": {"tensor": {"dtype": "DT_INT32", "tensorShape": {}}}}}, {"name": "StatefulPartitionedCall/yolov8_detector_1/functional_1/split_1/split_dim", "op": "Const", "attr": {"dtype": {"type": "DT_INT32"}, "value": {"tensor": {"dtype": "DT_INT32", "tensorShape": {}}}}}, {"name": "StatefulPartitionedCall/yolov8_detector_1/functional_1/split/split_dim", "op": "Const", "attr": {"value": {"tensor": {"dtype": "DT_INT32", "tensorShape": {}}}, "dtype": {"type": "DT_INT32"}}}, {"name": "StatefulPartitionedCall/yolov8_detector_1/functional_1/rescaling_1/Cast/x", "op": "Const", "attr": {"dtype": {"type": "DT_FLOAT"}, "value": {"tensor": {"dtype": "DT_FLOAT", "tensorShape": {}}}}}, {"name": "StatefulPartitionedCall/yolov8_detector_1/functional_1/rescaling_1/Cast_1/x", "op": "Const", "attr": {"dtype": {"type": "DT_FLOAT"}, "value": {"tensor": {"dtype": "DT_FLOAT", "tensorShape": {}}}}}, {"name": "StatefulPartitionedCall/yolov8_detector_1/functional_1/stem_1_pad_1/Const", "op": "Const", "attr": {"dtype": {"type": "DT_INT32"}, "value": {"tensor": {"dtype": "DT_INT32", "tensorShape": {"dim": [{"size": "4"}, {"size": "2"}]}}}}}, {"name": "StatefulPartitionedCall/yolov8_detector_1/functional_1/stem_1_conv_1/convolution/merged_input", "op": "Const", "attr": {"dtype": {"type": "DT_FLOAT"}, "value": {"tensor": {"dtype": "DT_FLOAT", "tensorShape": {"dim": [{"size": "3"}, {"size": "3"}, {"size": "3"}, {"size": "32"}]}}}}}, {"name": "StatefulPartitionedCall/yolov8_detector_1/functional_1/stem_1_bn_1/batchnorm/sub", "op": "Const", "attr": {"value": {"tensor": {"dtype": "DT_FLOAT", "tensorShape": {"dim": [{"size": "32"}]}}}, "dtype": {"type": "DT_FLOAT"}}}, {"name": "StatefulPartitionedCall/yolov8_detector_1/functional_1/stem_2_pad_1/Const", "op": "Const", "attr": {"value": {"tensor": {"dtype": "DT_INT32", "tensorShape": {"dim": [{"size": "4"}, {"size": "2"}]}}}, "dtype": {"type": "DT_INT32"}}}, {"name": "StatefulPartitionedCall/yolov8_detector_1/functional_1/stem_2_conv_1/convolution/merged_input", "op": "Const", "attr": {"value": {"tensor": {"dtype": "DT_FLOAT", "tensorShape": {"dim": [{"size": "3"}, {"size": "3"}, {"size": "32"}, {"size": "64"}]}}}, "dtype": {"type": "DT_FLOAT"}}}, {"name": "StatefulPartitionedCall/yolov8_detector_1/functional_1/stem_2_bn_1/batchnorm/sub", "op": "Const", "attr": {"dtype": {"type": "DT_FLOAT"}, "value": {"tensor": {"dtype": "DT_FLOAT", "tensorShape": {"dim": [{"size": "64"}]}}}}}, {"name": "StatefulPartitionedCall/yolov8_detector_1/functional_1/stack1_c2f_pre_conv_1/convolution/merged_input", "op": "Const", "attr": {"dtype": {"type": "DT_FLOAT"}, "value": {"tensor": {"dtype": "DT_FLOAT", "tensorShape": {"dim": [{"size": "1"}, {"size": "1"}, {"size": "64"}, {"size": "64"}]}}}}}, {"name": "StatefulPartitionedCall/yolov8_detector_1/functional_1/stack1_c2f_pre_bn_1/batchnorm/sub", "op": "Const", "attr": {"value": {"tensor": {"dtype": "DT_FLOAT", "tensorShape": {"dim": [{"size": "64"}]}}}, "dtype": {"type": "DT_FLOAT"}}}, {"name": "StatefulPartitionedCall/yolov8_detector_1/functional_1/stack1_c2f_pre_0_1_pad_1/Const", "op": "Const", "attr": {"dtype": {"type": "DT_INT32"}, "value": {"tensor": {"dtype": "DT_INT32", "tensorShape": {"dim": [{"size": "4"}, {"size": "2"}]}}}}}, {"name": "StatefulPartitionedCall/yolov8_detector_1/functional_1/stack1_c2f_pre_0_1_conv_1/convolution/merged_input", "op": "Const", "attr": {"dtype": {"type": "DT_FLOAT"}, "value": {"tensor": {"dtype": "DT_FLOAT", "tensorShape": {"dim": [{"size": "3"}, {"size": "3"}, {"size": "32"}, {"size": "32"}]}}}}}, {"name": "StatefulPartitionedCall/yolov8_detector_1/functional_1/stack1_c2f_pre_0_1_bn_1/batchnorm/sub", "op": "Const", "attr": {"value": {"tensor": {"dtype": "DT_FLOAT", "tensorShape": {"dim": [{"size": "32"}]}}}, "dtype": {"type": "DT_FLOAT"}}}, {"name": "StatefulPartitionedCall/yolov8_detector_1/functional_1/stack1_c2f_pre_0_2_pad_1/Const", "op": "Const", "attr": {"dtype": {"type": "DT_INT32"}, "value": {"tensor": {"dtype": "DT_INT32", "tensorShape": {"dim": [{"size": "4"}, {"size": "2"}]}}}}}, {"name": "StatefulPartitionedCall/yolov8_detector_1/functional_1/stack1_c2f_pre_0_2_conv_1/convolution/merged_input", "op": "Const", "attr": {"dtype": {"type": "DT_FLOAT"}, "value": {"tensor": {"dtype": "DT_FLOAT", "tensorShape": {"dim": [{"size": "3"}, {"size": "3"}, {"size": "32"}, {"size": "32"}]}}}}}, {"name": "StatefulPartitionedCall/yolov8_detector_1/functional_1/stack1_c2f_pre_0_2_bn_1/batchnorm/sub", "op": "Const", "attr": {"dtype": {"type": "DT_FLOAT"}, "value": {"tensor": {"dtype": "DT_FLOAT", "tensorShape": {"dim": [{"size": "32"}]}}}}}, {"name": "StatefulPartitionedCall/yolov8_detector_1/functional_1/concat/axis", "op": "Const", "attr": {"dtype": {"type": "DT_INT32"}, "value": {"tensor": {"dtype": "DT_INT32", "tensorShape": {}}}}}, {"name": "StatefulPartitionedCall/yolov8_detector_1/functional_1/stack1_c2f_output_conv_1/convolution/merged_input", "op": "Const", "attr": {"dtype": {"type": "DT_FLOAT"}, "value": {"tensor": {"dtype": "DT_FLOAT", "tensorShape": {"dim": [{"size": "1"}, {"size": "1"}, {"size": "96"}, {"size": "64"}]}}}}}, {"name": "StatefulPartitionedCall/yolov8_detector_1/functional_1/stack1_c2f_output_bn_1/batchnorm/sub", "op": "Const", "attr": {"value": {"tensor": {"dtype": "DT_FLOAT", "tensorShape": {"dim": [{"size": "64"}]}}}, "dtype": {"type": "DT_FLOAT"}}}, {"name": "StatefulPartitionedCall/yolov8_detector_1/functional_1/stack2_downsample_pad_1/Const", "op": "Const", "attr": {"dtype": {"type": "DT_INT32"}, "value": {"tensor": {"dtype": "DT_INT32", "tensorShape": {"dim": [{"size": "4"}, {"size": "2"}]}}}}}, {"name": "StatefulPartitionedCall/yolov8_detector_1/functional_1/stack2_downsample_conv_1/convolution/merged_input", "op": "Const", "attr": {"dtype": {"type": "DT_FLOAT"}, "value": {"tensor": {"dtype": "DT_FLOAT", "tensorShape": {"dim": [{"size": "3"}, {"size": "3"}, {"size": "64"}, {"size": "128"}]}}}}}, {"name": "StatefulPartitionedCall/yolov8_detector_1/functional_1/stack2_downsample_bn_1/batchnorm/sub", "op": "Const", "attr": {"value": {"tensor": {"dtype": "DT_FLOAT", "tensorShape": {"dim": [{"size": "128"}]}}}, "dtype": {"type": "DT_FLOAT"}}}, {"name": "StatefulPartitionedCall/yolov8_detector_1/functional_1/stack2_c2f_pre_conv_1/convolution/merged_input", "op": "Const", "attr": {"dtype": {"type": "DT_FLOAT"}, "value": {"tensor": {"dtype": "DT_FLOAT", "tensorShape": {"dim": [{"size": "1"}, {"size": "1"}, {"size": "128"}, {"size": "128"}]}}}}}, {"name": "StatefulPartitionedCall/yolov8_detector_1/functional_1/stack2_c2f_pre_bn_1/batchnorm/sub", "op": "Const", "attr": {"dtype": {"type": "DT_FLOAT"}, "value": {"tensor": {"dtype": "DT_FLOAT", "tensorShape": {"dim": [{"size": "128"}]}}}}}, {"name": "StatefulPartitionedCall/yolov8_detector_1/functional_1/stack2_c2f_pre_0_1_pad_1/Const", "op": "Const", "attr": {"dtype": {"type": "DT_INT32"}, "value": {"tensor": {"dtype": "DT_INT32", "tensorShape": {"dim": [{"size": "4"}, {"size": "2"}]}}}}}, {"name": "StatefulPartitionedCall/yolov8_detector_1/functional_1/stack2_c2f_pre_0_1_conv_1/convolution/merged_input", "op": "Const", "attr": {"dtype": {"type": "DT_FLOAT"}, "value": {"tensor": {"dtype": "DT_FLOAT", "tensorShape": {"dim": [{"size": "3"}, {"size": "3"}, {"size": "64"}, {"size": "64"}]}}}}}, {"name": "StatefulPartitionedCall/yolov8_detector_1/functional_1/stack2_c2f_pre_0_1_bn_1/batchnorm/sub", "op": "Const", "attr": {"value": {"tensor": {"dtype": "DT_FLOAT", "tensorShape": {"dim": [{"size": "64"}]}}}, "dtype": {"type": "DT_FLOAT"}}}, {"name": "StatefulPartitionedCall/yolov8_detector_1/functional_1/stack2_c2f_pre_0_2_pad_1/Const", "op": "Const", "attr": {"dtype": {"type": "DT_INT32"}, "value": {"tensor": {"dtype": "DT_INT32", "tensorShape": {"dim": [{"size": "4"}, {"size": "2"}]}}}}}, {"name": "StatefulPartitionedCall/yolov8_detector_1/functional_1/stack2_c2f_pre_0_2_conv_1/convolution/merged_input", "op": "Const", "attr": {"dtype": {"type": "DT_FLOAT"}, "value": {"tensor": {"dtype": "DT_FLOAT", "tensorShape": {"dim": [{"size": "3"}, {"size": "3"}, {"size": "64"}, {"size": "64"}]}}}}}, {"name": "StatefulPartitionedCall/yolov8_detector_1/functional_1/stack2_c2f_pre_0_2_bn_1/batchnorm/sub", "op": "Const", "attr": {"dtype": {"type": "DT_FLOAT"}, "value": {"tensor": {"dtype": "DT_FLOAT", "tensorShape": {"dim": [{"size": "64"}]}}}}}, {"name": "StatefulPartitionedCall/yolov8_detector_1/functional_1/stack2_c2f_pre_1_1_pad_1/Const", "op": "Const", "attr": {"dtype": {"type": "DT_INT32"}, "value": {"tensor": {"dtype": "DT_INT32", "tensorShape": {"dim": [{"size": "4"}, {"size": "2"}]}}}}}, {"name": "StatefulPartitionedCall/yolov8_detector_1/functional_1/stack2_c2f_pre_1_1_conv_1/convolution/merged_input", "op": "Const", "attr": {"value": {"tensor": {"dtype": "DT_FLOAT", "tensorShape": {"dim": [{"size": "3"}, {"size": "3"}, {"size": "64"}, {"size": "64"}]}}}, "dtype": {"type": "DT_FLOAT"}}}, {"name": "StatefulPartitionedCall/yolov8_detector_1/functional_1/stack2_c2f_pre_1_1_bn_1/batchnorm/sub", "op": "Const", "attr": {"dtype": {"type": "DT_FLOAT"}, "value": {"tensor": {"dtype": "DT_FLOAT", "tensorShape": {"dim": [{"size": "64"}]}}}}}, {"name": "StatefulPartitionedCall/yolov8_detector_1/functional_1/stack2_c2f_pre_1_2_pad_1/Const", "op": "Const", "attr": {"value": {"tensor": {"dtype": "DT_INT32", "tensorShape": {"dim": [{"size": "4"}, {"size": "2"}]}}}, "dtype": {"type": "DT_INT32"}}}, {"name": "StatefulPartitionedCall/yolov8_detector_1/functional_1/stack2_c2f_pre_1_2_conv_1/convolution/merged_input", "op": "Const", "attr": {"value": {"tensor": {"dtype": "DT_FLOAT", "tensorShape": {"dim": [{"size": "3"}, {"size": "3"}, {"size": "64"}, {"size": "64"}]}}}, "dtype": {"type": "DT_FLOAT"}}}, {"name": "StatefulPartitionedCall/yolov8_detector_1/functional_1/stack2_c2f_pre_1_2_bn_1/batchnorm/sub", "op": "Const", "attr": {"value": {"tensor": {"dtype": "DT_FLOAT", "tensorShape": {"dim": [{"size": "64"}]}}}, "dtype": {"type": "DT_FLOAT"}}}, {"name": "StatefulPartitionedCall/yolov8_detector_1/functional_1/concat_1/axis", "op": "Const", "attr": {"dtype": {"type": "DT_INT32"}, "value": {"tensor": {"dtype": "DT_INT32", "tensorShape": {}}}}}, {"name": "StatefulPartitionedCall/yolov8_detector_1/functional_1/stack2_c2f_output_conv_1/convolution/merged_input", "op": "Const", "attr": {"value": {"tensor": {"dtype": "DT_FLOAT", "tensorShape": {"dim": [{"size": "1"}, {"size": "1"}, {"size": "256"}, {"size": "128"}]}}}, "dtype": {"type": "DT_FLOAT"}}}, {"name": "StatefulPartitionedCall/yolov8_detector_1/functional_1/stack2_c2f_output_bn_1/batchnorm/sub", "op": "Const", "attr": {"value": {"tensor": {"dtype": "DT_FLOAT", "tensorShape": {"dim": [{"size": "128"}]}}}, "dtype": {"type": "DT_FLOAT"}}}, {"name": "StatefulPartitionedCall/yolov8_detector_1/functional_1/stack3_downsample_pad_1/Const", "op": "Const", "attr": {"dtype": {"type": "DT_INT32"}, "value": {"tensor": {"dtype": "DT_INT32", "tensorShape": {"dim": [{"size": "4"}, {"size": "2"}]}}}}}, {"name": "StatefulPartitionedCall/yolov8_detector_1/functional_1/stack3_downsample_conv_1/convolution/merged_input", "op": "Const", "attr": {"dtype": {"type": "DT_FLOAT"}, "value": {"tensor": {"dtype": "DT_FLOAT", "tensorShape": {"dim": [{"size": "3"}, {"size": "3"}, {"size": "128"}, {"size": "256"}]}}}}}, {"name": "StatefulPartitionedCall/yolov8_detector_1/functional_1/stack3_downsample_bn_1/batchnorm/sub", "op": "Const", "attr": {"dtype": {"type": "DT_FLOAT"}, "value": {"tensor": {"dtype": "DT_FLOAT", "tensorShape": {"dim": [{"size": "256"}]}}}}}, {"name": "StatefulPartitionedCall/yolov8_detector_1/functional_1/stack3_c2f_pre_conv_1/convolution/merged_input", "op": "Const", "attr": {"value": {"tensor": {"dtype": "DT_FLOAT", "tensorShape": {"dim": [{"size": "1"}, {"size": "1"}, {"size": "256"}, {"size": "256"}]}}}, "dtype": {"type": "DT_FLOAT"}}}, {"name": "StatefulPartitionedCall/yolov8_detector_1/functional_1/stack3_c2f_pre_bn_1/batchnorm/sub", "op": "Const", "attr": {"value": {"tensor": {"dtype": "DT_FLOAT", "tensorShape": {"dim": [{"size": "256"}]}}}, "dtype": {"type": "DT_FLOAT"}}}, {"name": "StatefulPartitionedCall/yolov8_detector_1/functional_1/stack3_c2f_pre_0_1_pad_1/Const", "op": "Const", "attr": {"value": {"tensor": {"dtype": "DT_INT32", "tensorShape": {"dim": [{"size": "4"}, {"size": "2"}]}}}, "dtype": {"type": "DT_INT32"}}}, {"name": "StatefulPartitionedCall/yolov8_detector_1/functional_1/stack3_c2f_pre_0_1_conv_1/convolution/merged_input", "op": "Const", "attr": {"dtype": {"type": "DT_FLOAT"}, "value": {"tensor": {"dtype": "DT_FLOAT", "tensorShape": {"dim": [{"size": "3"}, {"size": "3"}, {"size": "128"}, {"size": "128"}]}}}}}, {"name": "StatefulPartitionedCall/yolov8_detector_1/functional_1/stack3_c2f_pre_0_1_bn_1/batchnorm/sub", "op": "Const", "attr": {"dtype": {"type": "DT_FLOAT"}, "value": {"tensor": {"dtype": "DT_FLOAT", "tensorShape": {"dim": [{"size": "128"}]}}}}}, {"name": "StatefulPartitionedCall/yolov8_detector_1/functional_1/stack3_c2f_pre_0_2_pad_1/Const", "op": "Const", "attr": {"value": {"tensor": {"dtype": "DT_INT32", "tensorShape": {"dim": [{"size": "4"}, {"size": "2"}]}}}, "dtype": {"type": "DT_INT32"}}}, {"name": "StatefulPartitionedCall/yolov8_detector_1/functional_1/stack3_c2f_pre_0_2_conv_1/convolution/merged_input", "op": "Const", "attr": {"value": {"tensor": {"dtype": "DT_FLOAT", "tensorShape": {"dim": [{"size": "3"}, {"size": "3"}, {"size": "128"}, {"size": "128"}]}}}, "dtype": {"type": "DT_FLOAT"}}}, {"name": "StatefulPartitionedCall/yolov8_detector_1/functional_1/stack3_c2f_pre_0_2_bn_1/batchnorm/sub", "op": "Const", "attr": {"dtype": {"type": "DT_FLOAT"}, "value": {"tensor": {"dtype": "DT_FLOAT", "tensorShape": {"dim": [{"size": "128"}]}}}}}, {"name": "StatefulPartitionedCall/yolov8_detector_1/functional_1/stack3_c2f_pre_1_1_pad_1/Const", "op": "Const", "attr": {"value": {"tensor": {"dtype": "DT_INT32", "tensorShape": {"dim": [{"size": "4"}, {"size": "2"}]}}}, "dtype": {"type": "DT_INT32"}}}, {"name": "StatefulPartitionedCall/yolov8_detector_1/functional_1/stack3_c2f_pre_1_1_conv_1/convolution/merged_input", "op": "Const", "attr": {"value": {"tensor": {"dtype": "DT_FLOAT", "tensorShape": {"dim": [{"size": "3"}, {"size": "3"}, {"size": "128"}, {"size": "128"}]}}}, "dtype": {"type": "DT_FLOAT"}}}, {"name": "StatefulPartitionedCall/yolov8_detector_1/functional_1/stack3_c2f_pre_1_1_bn_1/batchnorm/sub", "op": "Const", "attr": {"value": {"tensor": {"dtype": "DT_FLOAT", "tensorShape": {"dim": [{"size": "128"}]}}}, "dtype": {"type": "DT_FLOAT"}}}, {"name": "StatefulPartitionedCall/yolov8_detector_1/functional_1/stack3_c2f_pre_1_2_pad_1/Const", "op": "Const", "attr": {"dtype": {"type": "DT_INT32"}, "value": {"tensor": {"dtype": "DT_INT32", "tensorShape": {"dim": [{"size": "4"}, {"size": "2"}]}}}}}, {"name": "StatefulPartitionedCall/yolov8_detector_1/functional_1/stack3_c2f_pre_1_2_conv_1/convolution/merged_input", "op": "Const", "attr": {"dtype": {"type": "DT_FLOAT"}, "value": {"tensor": {"dtype": "DT_FLOAT", "tensorShape": {"dim": [{"size": "3"}, {"size": "3"}, {"size": "128"}, {"size": "128"}]}}}}}, {"name": "StatefulPartitionedCall/yolov8_detector_1/functional_1/stack3_c2f_pre_1_2_bn_1/batchnorm/sub", "op": "Const", "attr": {"value": {"tensor": {"dtype": "DT_FLOAT", "tensorShape": {"dim": [{"size": "128"}]}}}, "dtype": {"type": "DT_FLOAT"}}}, {"name": "StatefulPartitionedCall/yolov8_detector_1/functional_1/concat_2/axis", "op": "Const", "attr": {"dtype": {"type": "DT_INT32"}, "value": {"tensor": {"dtype": "DT_INT32", "tensorShape": {}}}}}, {"name": "StatefulPartitionedCall/yolov8_detector_1/functional_1/stack3_c2f_output_conv_1/convolution/merged_input", "op": "Const", "attr": {"value": {"tensor": {"dtype": "DT_FLOAT", "tensorShape": {"dim": [{"size": "1"}, {"size": "1"}, {"size": "512"}, {"size": "256"}]}}}, "dtype": {"type": "DT_FLOAT"}}}, {"name": "StatefulPartitionedCall/yolov8_detector_1/functional_1/stack3_c2f_output_bn_1/batchnorm/sub", "op": "Const", "attr": {"dtype": {"type": "DT_FLOAT"}, "value": {"tensor": {"dtype": "DT_FLOAT", "tensorShape": {"dim": [{"size": "256"}]}}}}}, {"name": "StatefulPartitionedCall/yolov8_detector_1/functional_1/stack4_downsample_pad_1/Const", "op": "Const", "attr": {"value": {"tensor": {"dtype": "DT_INT32", "tensorShape": {"dim": [{"size": "4"}, {"size": "2"}]}}}, "dtype": {"type": "DT_INT32"}}}, {"name": "StatefulPartitionedCall/yolov8_detector_1/functional_1/stack4_downsample_conv_1/convolution/merged_input", "op": "Const", "attr": {"dtype": {"type": "DT_FLOAT"}, "value": {"tensor": {"dtype": "DT_FLOAT", "tensorShape": {"dim": [{"size": "3"}, {"size": "3"}, {"size": "256"}, {"size": "512"}]}}}}}, {"name": "StatefulPartitionedCall/yolov8_detector_1/functional_1/stack4_downsample_bn_1/batchnorm/sub", "op": "Const", "attr": {"dtype": {"type": "DT_FLOAT"}, "value": {"tensor": {"dtype": "DT_FLOAT", "tensorShape": {"dim": [{"size": "512"}]}}}}}, {"name": "StatefulPartitionedCall/yolov8_detector_1/functional_1/stack4_c2f_pre_conv_1/convolution/merged_input", "op": "Const", "attr": {"value": {"tensor": {"dtype": "DT_FLOAT", "tensorShape": {"dim": [{"size": "1"}, {"size": "1"}, {"size": "512"}, {"size": "512"}]}}}, "dtype": {"type": "DT_FLOAT"}}}, {"name": "StatefulPartitionedCall/yolov8_detector_1/functional_1/stack4_c2f_pre_bn_1/batchnorm/sub", "op": "Const", "attr": {"dtype": {"type": "DT_FLOAT"}, "value": {"tensor": {"dtype": "DT_FLOAT", "tensorShape": {"dim": [{"size": "512"}]}}}}}, {"name": "StatefulPartitionedCall/yolov8_detector_1/functional_1/stack4_c2f_pre_0_1_pad_1/Const", "op": "Const", "attr": {"value": {"tensor": {"dtype": "DT_INT32", "tensorShape": {"dim": [{"size": "4"}, {"size": "2"}]}}}, "dtype": {"type": "DT_INT32"}}}, {"name": "StatefulPartitionedCall/yolov8_detector_1/functional_1/stack4_c2f_pre_0_1_conv_1/convolution/merged_input", "op": "Const", "attr": {"dtype": {"type": "DT_FLOAT"}, "value": {"tensor": {"dtype": "DT_FLOAT", "tensorShape": {"dim": [{"size": "3"}, {"size": "3"}, {"size": "256"}, {"size": "256"}]}}}}}, {"name": "StatefulPartitionedCall/yolov8_detector_1/functional_1/stack4_c2f_pre_0_1_bn_1/batchnorm/sub", "op": "Const", "attr": {"value": {"tensor": {"dtype": "DT_FLOAT", "tensorShape": {"dim": [{"size": "256"}]}}}, "dtype": {"type": "DT_FLOAT"}}}, {"name": "StatefulPartitionedCall/yolov8_detector_1/functional_1/stack4_c2f_pre_0_2_pad_1/Const", "op": "Const", "attr": {"dtype": {"type": "DT_INT32"}, "value": {"tensor": {"dtype": "DT_INT32", "tensorShape": {"dim": [{"size": "4"}, {"size": "2"}]}}}}}, {"name": "StatefulPartitionedCall/yolov8_detector_1/functional_1/stack4_c2f_pre_0_2_conv_1/convolution/merged_input", "op": "Const", "attr": {"dtype": {"type": "DT_FLOAT"}, "value": {"tensor": {"dtype": "DT_FLOAT", "tensorShape": {"dim": [{"size": "3"}, {"size": "3"}, {"size": "256"}, {"size": "256"}]}}}}}, {"name": "StatefulPartitionedCall/yolov8_detector_1/functional_1/stack4_c2f_pre_0_2_bn_1/batchnorm/sub", "op": "Const", "attr": {"dtype": {"type": "DT_FLOAT"}, "value": {"tensor": {"dtype": "DT_FLOAT", "tensorShape": {"dim": [{"size": "256"}]}}}}}, {"name": "StatefulPartitionedCall/yolov8_detector_1/functional_1/concat_3/axis", "op": "Const", "attr": {"dtype": {"type": "DT_INT32"}, "value": {"tensor": {"dtype": "DT_INT32", "tensorShape": {}}}}}, {"name": "StatefulPartitionedCall/yolov8_detector_1/functional_1/stack4_c2f_output_conv_1/convolution/merged_input", "op": "Const", "attr": {"value": {"tensor": {"dtype": "DT_FLOAT", "tensorShape": {"dim": [{"size": "1"}, {"size": "1"}, {"size": "768"}, {"size": "512"}]}}}, "dtype": {"type": "DT_FLOAT"}}}, {"name": "StatefulPartitionedCall/yolov8_detector_1/functional_1/stack4_c2f_output_bn_1/batchnorm/sub", "op": "Const", "attr": {"dtype": {"type": "DT_FLOAT"}, "value": {"tensor": {"dtype": "DT_FLOAT", "tensorShape": {"dim": [{"size": "512"}]}}}}}, {"name": "StatefulPartitionedCall/yolov8_detector_1/functional_1/stack4_spp_fast_pre_conv_1/convolution/merged_input", "op": "Const", "attr": {"value": {"tensor": {"dtype": "DT_FLOAT", "tensorShape": {"dim": [{"size": "1"}, {"size": "1"}, {"size": "512"}, {"size": "256"}]}}}, "dtype": {"type": "DT_FLOAT"}}}, {"name": "StatefulPartitionedCall/yolov8_detector_1/functional_1/stack4_spp_fast_pre_bn_1/batchnorm/sub", "op": "Const", "attr": {"dtype": {"type": "DT_FLOAT"}, "value": {"tensor": {"dtype": "DT_FLOAT", "tensorShape": {"dim": [{"size": "256"}]}}}}}, {"name": "StatefulPartitionedCall/yolov8_detector_1/functional_1/concat_4/axis", "op": "Const", "attr": {"value": {"tensor": {"dtype": "DT_INT32", "tensorShape": {}}}, "dtype": {"type": "DT_INT32"}}}, {"name": "StatefulPartitionedCall/yolov8_detector_1/functional_1/stack4_spp_fast_output_conv_1/convolution/merged_input", "op": "Const", "attr": {"value": {"tensor": {"dtype": "DT_FLOAT", "tensorShape": {"dim": [{"size": "1"}, {"size": "1"}, {"size": "1024"}, {"size": "512"}]}}}, "dtype": {"type": "DT_FLOAT"}}}, {"name": "StatefulPartitionedCall/yolov8_detector_1/functional_1/stack4_spp_fast_output_bn_1/batchnorm/sub", "op": "Const", "attr": {"value": {"tensor": {"dtype": "DT_FLOAT", "tensorShape": {"dim": [{"size": "512"}]}}}, "dtype": {"type": "DT_FLOAT"}}}, {"name": "StatefulPartitionedCall/yolov8_detector_1/concat_6/axis", "op": "Const", "attr": {"dtype": {"type": "DT_INT32"}, "value": {"tensor": {"dtype": "DT_INT32", "tensorShape": {}}}}}, {"name": "StatefulPartitionedCall/yolov8_detector_1/pa_fpn_p3p4p5_downsample2_block_pre_conv_1/convolution/merged_input", "op": "Const", "attr": {"dtype": {"type": "DT_FLOAT"}, "value": {"tensor": {"dtype": "DT_FLOAT", "tensorShape": {"dim": [{"size": "1"}, {"size": "1"}, {"size": "768"}, {"size": "512"}]}}}}}, {"name": "StatefulPartitionedCall/yolov8_detector_1/pa_fpn_p3p4p5_downsample2_block_pre_bn_1/batchnorm/sub", "op": "Const", "attr": {"dtype": {"type": "DT_FLOAT"}, "value": {"tensor": {"dtype": "DT_FLOAT", "tensorShape": {"dim": [{"size": "512"}]}}}}}, {"name": "StatefulPartitionedCall/yolov8_detector_1/pa_fpn_p3p4p5_downsample2_block_pre_0_1_pad_1/Const", "op": "Const", "attr": {"dtype": {"type": "DT_INT32"}, "value": {"tensor": {"dtype": "DT_INT32", "tensorShape": {"dim": [{"size": "4"}, {"size": "2"}]}}}}}, {"name": "StatefulPartitionedCall/yolov8_detector_1/pa_fpn_p3p4p5_downsample2_block_pre_0_1_conv_1/convolution/merged_input", "op": "Const", "attr": {"dtype": {"type": "DT_FLOAT"}, "value": {"tensor": {"dtype": "DT_FLOAT", "tensorShape": {"dim": [{"size": "3"}, {"size": "3"}, {"size": "256"}, {"size": "256"}]}}}}}, {"name": "StatefulPartitionedCall/yolov8_detector_1/pa_fpn_p3p4p5_downsample2_block_pre_0_1_bn_1/batchnorm/sub", "op": "Const", "attr": {"value": {"tensor": {"dtype": "DT_FLOAT", "tensorShape": {"dim": [{"size": "256"}]}}}, "dtype": {"type": "DT_FLOAT"}}}, {"name": "StatefulPartitionedCall/yolov8_detector_1/pa_fpn_p3p4p5_downsample2_block_pre_0_2_pad_1/Const", "op": "Const", "attr": {"dtype": {"type": "DT_INT32"}, "value": {"tensor": {"dtype": "DT_INT32", "tensorShape": {"dim": [{"size": "4"}, {"size": "2"}]}}}}}, {"name": "StatefulPartitionedCall/yolov8_detector_1/pa_fpn_p3p4p5_downsample2_block_pre_0_2_conv_1/convolution/merged_input", "op": "Const", "attr": {"value": {"tensor": {"dtype": "DT_FLOAT", "tensorShape": {"dim": [{"size": "3"}, {"size": "3"}, {"size": "256"}, {"size": "256"}]}}}, "dtype": {"type": "DT_FLOAT"}}}, {"name": "StatefulPartitionedCall/yolov8_detector_1/pa_fpn_p3p4p5_downsample2_block_pre_0_2_bn_1/batchnorm/sub", "op": "Const", "attr": {"dtype": {"type": "DT_FLOAT"}, "value": {"tensor": {"dtype": "DT_FLOAT", "tensorShape": {"dim": [{"size": "256"}]}}}}}, {"name": "StatefulPartitionedCall/yolov8_detector_1/pa_fpn_p3p4p5_downsample2_block_pre_1_1_pad_1/Const", "op": "Const", "attr": {"dtype": {"type": "DT_INT32"}, "value": {"tensor": {"dtype": "DT_INT32", "tensorShape": {"dim": [{"size": "4"}, {"size": "2"}]}}}}}, {"name": "StatefulPartitionedCall/yolov8_detector_1/pa_fpn_p3p4p5_downsample2_block_pre_1_1_conv_1/convolution/merged_input", "op": "Const", "attr": {"value": {"tensor": {"dtype": "DT_FLOAT", "tensorShape": {"dim": [{"size": "3"}, {"size": "3"}, {"size": "256"}, {"size": "256"}]}}}, "dtype": {"type": "DT_FLOAT"}}}, {"name": "StatefulPartitionedCall/yolov8_detector_1/pa_fpn_p3p4p5_downsample2_block_pre_1_1_bn_1/batchnorm/sub", "op": "Const", "attr": {"value": {"tensor": {"dtype": "DT_FLOAT", "tensorShape": {"dim": [{"size": "256"}]}}}, "dtype": {"type": "DT_FLOAT"}}}, {"name": "StatefulPartitionedCall/yolov8_detector_1/pa_fpn_p3p4p5_downsample2_block_pre_1_2_pad_1/Const", "op": "Const", "attr": {"value": {"tensor": {"dtype": "DT_INT32", "tensorShape": {"dim": [{"size": "4"}, {"size": "2"}]}}}, "dtype": {"type": "DT_INT32"}}}, {"name": "StatefulPartitionedCall/yolov8_detector_1/pa_fpn_p3p4p5_downsample2_block_pre_1_2_conv_1/convolution/merged_input", "op": "Const", "attr": {"dtype": {"type": "DT_FLOAT"}, "value": {"tensor": {"dtype": "DT_FLOAT", "tensorShape": {"dim": [{"size": "3"}, {"size": "3"}, {"size": "256"}, {"size": "256"}]}}}}}, {"name": "StatefulPartitionedCall/yolov8_detector_1/pa_fpn_p3p4p5_downsample2_block_pre_1_2_bn_1/batchnorm/sub", "op": "Const", "attr": {"value": {"tensor": {"dtype": "DT_FLOAT", "tensorShape": {"dim": [{"size": "256"}]}}}, "dtype": {"type": "DT_FLOAT"}}}, {"name": "StatefulPartitionedCall/yolov8_detector_1/concat_7/axis", "op": "Const", "attr": {"value": {"tensor": {"dtype": "DT_INT32", "tensorShape": {}}}, "dtype": {"type": "DT_INT32"}}}, {"name": "StatefulPartitionedCall/yolov8_detector_1/pa_fpn_p3p4p5_downsample2_block_output_conv_1/convolution/merged_input", "op": "Const", "attr": {"dtype": {"type": "DT_FLOAT"}, "value": {"tensor": {"dtype": "DT_FLOAT", "tensorShape": {"dim": [{"size": "1"}, {"size": "1"}, {"size": "1024"}, {"size": "512"}]}}}}}, {"name": "StatefulPartitionedCall/yolov8_detector_1/pa_fpn_p3p4p5_downsample2_block_output_bn_1/batchnorm/sub", "op": "Const", "attr": {"value": {"tensor": {"dtype": "DT_FLOAT", "tensorShape": {"dim": [{"size": "512"}]}}}, "dtype": {"type": "DT_FLOAT"}}}, {"name": "StatefulPartitionedCall/yolov8_detector_1/yolo_v8_head_3_class_1_pad_1/Const", "op": "Const", "attr": {"dtype": {"type": "DT_INT32"}, "value": {"tensor": {"dtype": "DT_INT32", "tensorShape": {"dim": [{"size": "4"}, {"size": "2"}]}}}}}, {"name": "StatefulPartitionedCall/yolov8_detector_1/yolo_v8_head_3_class_1_conv_1/convolution/merged_input", "op": "Const", "attr": {"dtype": {"type": "DT_FLOAT"}, "value": {"tensor": {"dtype": "DT_FLOAT", "tensorShape": {"dim": [{"size": "3"}, {"size": "3"}, {"size": "512"}, {"size": "128"}]}}}}}, {"name": "StatefulPartitionedCall/yolov8_detector_1/yolo_v8_head_3_class_1_bn_1/batchnorm/sub", "op": "Const", "attr": {"dtype": {"type": "DT_FLOAT"}, "value": {"tensor": {"dtype": "DT_FLOAT", "tensorShape": {"dim": [{"size": "128"}]}}}}}, {"name": "StatefulPartitionedCall/yolov8_detector_1/yolo_v8_head_3_class_2_pad_1/Const", "op": "Const", "attr": {"dtype": {"type": "DT_INT32"}, "value": {"tensor": {"dtype": "DT_INT32", "tensorShape": {"dim": [{"size": "4"}, {"size": "2"}]}}}}}, {"name": "StatefulPartitionedCall/yolov8_detector_1/yolo_v8_head_3_class_2_conv_1/convolution/merged_input", "op": "Const", "attr": {"dtype": {"type": "DT_FLOAT"}, "value": {"tensor": {"dtype": "DT_FLOAT", "tensorShape": {"dim": [{"size": "3"}, {"size": "3"}, {"size": "128"}, {"size": "128"}]}}}}}, {"name": "StatefulPartitionedCall/yolov8_detector_1/yolo_v8_head_3_class_2_bn_1/batchnorm/sub", "op": "Const", "attr": {"dtype": {"type": "DT_FLOAT"}, "value": {"tensor": {"dtype": "DT_FLOAT", "tensorShape": {"dim": [{"size": "128"}]}}}}}, {"name": "StatefulPartitionedCall/yolov8_detector_1/yolo_v8_head_3_class_3_conv_1/convolution/ReadVariableOp", "op": "Const", "attr": {"value": {"tensor": {"dtype": "DT_FLOAT", "tensorShape": {"dim": [{"size": "1"}, {"size": "1"}, {"size": "128"}, {"size": "1"}]}}}, "dtype": {"type": "DT_FLOAT"}}}, {"name": "StatefulPartitionedCall/yolov8_detector_1/yolo_v8_head_3_class_3_conv_1/Reshape", "op": "Const", "attr": {"dtype": {"type": "DT_FLOAT"}, "value": {"tensor": {"dtype": "DT_FLOAT", "tensorShape": {"dim": [{"size": "1"}, {"size": "1"}, {"size": "1"}, {"size": "1"}]}}}}}, {"name": "StatefulPartitionedCall/yolov8_detector_1/concat_8/axis", "op": "Const", "attr": {"dtype": {"type": "DT_INT32"}, "value": {"tensor": {"dtype": "DT_INT32", "tensorShape": {}}}}}, {"name": "StatefulPartitionedCall/yolov8_detector_1/yolo_v8_head_3_output_reshape_1/Reshape/shape", "op": "Const", "attr": {"dtype": {"type": "DT_INT32"}, "value": {"tensor": {"dtype": "DT_INT32", "tensorShape": {"dim": [{"size": "3"}]}}}}}, {"name": "StatefulPartitionedCall/yolov8_detector_1/concat_11/axis", "op": "Const", "attr": {"value": {"tensor": {"dtype": "DT_INT32", "tensorShape": {}}}, "dtype": {"type": "DT_INT32"}}}, {"name": "StatefulPartitionedCall/yolov8_detector_1/strided_slice/stack", "op": "Const", "attr": {"value": {"tensor": {"dtype": "DT_INT32", "tensorShape": {"dim": [{"size": "3"}]}}}, "dtype": {"type": "DT_INT32"}}}, {"name": "StatefulPartitionedCall/yolov8_detector_1/strided_slice/stack_1", "op": "Const", "attr": {"value": {"tensor": {"dtype": "DT_INT32", "tensorShape": {"dim": [{"size": "3"}]}}}, "dtype": {"type": "DT_INT32"}}}, {"name": "StatefulPartitionedCall/yolov8_detector_1/strided_slice/stack_2", "op": "Const", "attr": {"value": {"tensor": {"dtype": "DT_INT32", "tensorShape": {"dim": [{"size": "3"}]}}}, "dtype": {"type": "DT_INT32"}}}, {"name": "x", "op": "Placeholder", "attr": {"dtype": {"type": "DT_FLOAT"}, "shape": {"shape": {"dim": [{"size": "1"}, {"size": "640"}, {"size": "640"}, {"size": "3"}]}}}}, {"name": "StatefulPartitionedCall/yolov8_detector_1/functional_1/rescaling_1/mul", "op": "Mul", "input": ["x", "StatefulPartitionedCall/yolov8_detector_1/functional_1/rescaling_1/Cast/x"], "attr": {"T": {"type": "DT_FLOAT"}}}, {"name": "StatefulPartitionedCall/yolov8_detector_1/functional_1/rescaling_1/add", "op": "AddV2", "input": ["StatefulPartitionedCall/yolov8_detector_1/functional_1/rescaling_1/mul", "StatefulPartitionedCall/yolov8_detector_1/functional_1/rescaling_1/Cast_1/x"], "attr": {"T": {"type": "DT_FLOAT"}}}, {"name": "StatefulPartitionedCall/yolov8_detector_1/functional_1/stem_1_pad_1/Pad", "op": "Pad", "input": ["StatefulPartitionedCall/yolov8_detector_1/functional_1/rescaling_1/add", "StatefulPartitionedCall/yolov8_detector_1/functional_1/stem_1_pad_1/Const"], "attr": {"Tpaddings": {"type": "DT_INT32"}, "T": {"type": "DT_FLOAT"}}}, {"name": "StatefulPartitionedCall/yolov8_detector_1/functional_1/stem_1_bn_1/batchnorm/add_1", "op": "_FusedConv2D", "input": ["StatefulPartitionedCall/yolov8_detector_1/functional_1/stem_1_pad_1/Pad", "StatefulPartitionedCall/yolov8_detector_1/functional_1/stem_1_conv_1/convolution/merged_input", "StatefulPartitionedCall/yolov8_detector_1/functional_1/stem_1_bn_1/batchnorm/sub"], "device": "/device:CPU:0", "attr": {"num_host_args": {"i": "0"}, "leakyrelu_alpha": {"f": 0.2}, "use_cudnn_on_gpu": {"b": true}, "padding": {"s": "VkFMSUQ="}, "dilations": {"list": {"i": ["1", "1", "1", "1"]}}, "filter_format": {"s": "SFdJTw=="}, "fused_ops": {"list": {"s": ["Qmlhc0FkZA=="]}}, "TArgs": {"list": {"type": ["DT_FLOAT"]}}, "explicit_paddings": {"list": {}}, "epsilon": {"f": 0.0}, "data_format": {"s": "TkhXQw=="}, "T": {"type": "DT_FLOAT"}, "strides": {"list": {"i": ["1", "2", "2", "1"]}}, "num_args": {"i": "1"}}}, {"name": "StatefulPartitionedCall/yolov8_detector_1/functional_1/stem_1_1/Sigmoid", "op": "Sigmoid", "input": ["StatefulPartitionedCall/yolov8_detector_1/functional_1/stem_1_bn_1/batchnorm/add_1"], "attr": {"T": {"type": "DT_FLOAT"}}}, {"name": "StatefulPartitionedCall/yolov8_detector_1/functional_1/stem_1_1/mul_1", "op": "Mul", "input": ["StatefulPartitionedCall/yolov8_detector_1/functional_1/stem_1_bn_1/batchnorm/add_1", "StatefulPartitionedCall/yolov8_detector_1/functional_1/stem_1_1/Sigmoid"], "attr": {"T": {"type": "DT_FLOAT"}}}, {"name": "StatefulPartitionedCall/yolov8_detector_1/functional_1/stem_2_pad_1/Pad", "op": "Pad", "input": ["StatefulPartitionedCall/yolov8_detector_1/functional_1/stem_1_1/mul_1", "StatefulPartitionedCall/yolov8_detector_1/functional_1/stem_2_pad_1/Const"], "attr": {"Tpaddings": {"type": "DT_INT32"}, "T": {"type": "DT_FLOAT"}}}, {"name": "StatefulPartitionedCall/yolov8_detector_1/functional_1/stem_2_bn_1/batchnorm/add_1", "op": "_FusedConv2D", "input": ["StatefulPartitionedCall/yolov8_detector_1/functional_1/stem_2_pad_1/Pad", "StatefulPartitionedCall/yolov8_detector_1/functional_1/stem_2_conv_1/convolution/merged_input", "StatefulPartitionedCall/yolov8_detector_1/functional_1/stem_2_bn_1/batchnorm/sub"], "device": "/device:CPU:0", "attr": {"num_host_args": {"i": "0"}, "strides": {"list": {"i": ["1", "2", "2", "1"]}}, "use_cudnn_on_gpu": {"b": true}, "data_format": {"s": "TkhXQw=="}, "dilations": {"list": {"i": ["1", "1", "1", "1"]}}, "num_args": {"i": "1"}, "explicit_paddings": {"list": {}}, "TArgs": {"list": {"type": ["DT_FLOAT"]}}, "fused_ops": {"list": {"s": ["Qmlhc0FkZA=="]}}, "epsilon": {"f": 0.0}, "padding": {"s": "VkFMSUQ="}, "T": {"type": "DT_FLOAT"}, "leakyrelu_alpha": {"f": 0.2}, "filter_format": {"s": "SFdJTw=="}}}, {"name": "StatefulPartitionedCall/yolov8_detector_1/functional_1/stem_2_1/Sigmoid", "op": "Sigmoid", "input": ["StatefulPartitionedCall/yolov8_detector_1/functional_1/stem_2_bn_1/batchnorm/add_1"], "attr": {"T": {"type": "DT_FLOAT"}}}, {"name": "StatefulPartitionedCall/yolov8_detector_1/functional_1/stem_2_1/mul_1", "op": "Mul", "input": ["StatefulPartitionedCall/yolov8_detector_1/functional_1/stem_2_bn_1/batchnorm/add_1", "StatefulPartitionedCall/yolov8_detector_1/functional_1/stem_2_1/Sigmoid"], "attr": {"T": {"type": "DT_FLOAT"}}}, {"name": "StatefulPartitionedCall/yolov8_detector_1/functional_1/stack1_c2f_pre_bn_1/batchnorm/add_1", "op": "_FusedConv2D", "input": ["StatefulPartitionedCall/yolov8_detector_1/functional_1/stem_2_1/mul_1", "StatefulPartitionedCall/yolov8_detector_1/functional_1/stack1_c2f_pre_conv_1/convolution/merged_input", "StatefulPartitionedCall/yolov8_detector_1/functional_1/stack1_c2f_pre_bn_1/batchnorm/sub"], "device": "/device:CPU:0", "attr": {"dilations": {"list": {"i": ["1", "1", "1", "1"]}}, "strides": {"list": {"i": ["1", "1", "1", "1"]}}, "use_cudnn_on_gpu": {"b": true}, "padding": {"s": "VkFMSUQ="}, "num_host_args": {"i": "0"}, "filter_format": {"s": "SFdJTw=="}, "explicit_paddings": {"list": {}}, "TArgs": {"list": {"type": ["DT_FLOAT"]}}, "fused_ops": {"list": {"s": ["Qmlhc0FkZA=="]}}, "epsilon": {"f": 0.0}, "data_format": {"s": "TkhXQw=="}, "T": {"type": "DT_FLOAT"}, "leakyrelu_alpha": {"f": 0.2}, "num_args": {"i": "1"}}}, {"name": "StatefulPartitionedCall/yolov8_detector_1/functional_1/stack1_c2f_pre_1/Sigmoid", "op": "Sigmoid", "input": ["StatefulPartitionedCall/yolov8_detector_1/functional_1/stack1_c2f_pre_bn_1/batchnorm/add_1"], "attr": {"T": {"type": "DT_FLOAT"}}}, {"name": "StatefulPartitionedCall/yolov8_detector_1/functional_1/stack1_c2f_pre_1/mul_1", "op": "Mul", "input": ["StatefulPartitionedCall/yolov8_detector_1/functional_1/stack1_c2f_pre_bn_1/batchnorm/add_1", "StatefulPartitionedCall/yolov8_detector_1/functional_1/stack1_c2f_pre_1/Sigmoid"], "attr": {"T": {"type": "DT_FLOAT"}}}, {"name": "StatefulPartitionedCall/yolov8_detector_1/functional_1/split", "op": "Split", "input": ["StatefulPartitionedCall/yolov8_detector_1/functional_1/split/split_dim", "StatefulPartitionedCall/yolov8_detector_1/functional_1/stack1_c2f_pre_1/mul_1"], "attr": {"num_split": {"i": "2"}, "T": {"type": "DT_FLOAT"}}}, {"name": "StatefulPartitionedCall/yolov8_detector_1/functional_1/stack1_c2f_pre_0_1_pad_1/Pad", "op": "Pad", "input": ["StatefulPartitionedCall/yolov8_detector_1/functional_1/split:1", "StatefulPartitionedCall/yolov8_detector_1/functional_1/stack1_c2f_pre_0_1_pad_1/Const"], "attr": {"Tpaddings": {"type": "DT_INT32"}, "T": {"type": "DT_FLOAT"}}}, {"name": "StatefulPartitionedCall/yolov8_detector_1/functional_1/stack1_c2f_pre_0_1_bn_1/batchnorm/add_1", "op": "_FusedConv2D", "input": ["StatefulPartitionedCall/yolov8_detector_1/functional_1/stack1_c2f_pre_0_1_pad_1/Pad", "StatefulPartitionedCall/yolov8_detector_1/functional_1/stack1_c2f_pre_0_1_conv_1/convolution/merged_input", "StatefulPartitionedCall/yolov8_detector_1/functional_1/stack1_c2f_pre_0_1_bn_1/batchnorm/sub"], "device": "/device:CPU:0", "attr": {"dilations": {"list": {"i": ["1", "1", "1", "1"]}}, "leakyrelu_alpha": {"f": 0.2}, "use_cudnn_on_gpu": {"b": true}, "padding": {"s": "VkFMSUQ="}, "num_host_args": {"i": "0"}, "num_args": {"i": "1"}, "fused_ops": {"list": {"s": ["Qmlhc0FkZA=="]}}, "TArgs": {"list": {"type": ["DT_FLOAT"]}}, "explicit_paddings": {"list": {}}, "epsilon": {"f": 0.0}, "data_format": {"s": "TkhXQw=="}, "T": {"type": "DT_FLOAT"}, "strides": {"list": {"i": ["1", "1", "1", "1"]}}, "filter_format": {"s": "SFdJTw=="}}}, {"name": "StatefulPartitionedCall/yolov8_detector_1/functional_1/stack1_c2f_pre_0_1_1/Sigmoid", "op": "Sigmoid", "input": ["StatefulPartitionedCall/yolov8_detector_1/functional_1/stack1_c2f_pre_0_1_bn_1/batchnorm/add_1"], "attr": {"T": {"type": "DT_FLOAT"}}}, {"name": "StatefulPartitionedCall/yolov8_detector_1/functional_1/stack1_c2f_pre_0_1_1/mul_1", "op": "Mul", "input": ["StatefulPartitionedCall/yolov8_detector_1/functional_1/stack1_c2f_pre_0_1_bn_1/batchnorm/add_1", "StatefulPartitionedCall/yolov8_detector_1/functional_1/stack1_c2f_pre_0_1_1/Sigmoid"], "attr": {"T": {"type": "DT_FLOAT"}}}, {"name": "StatefulPartitionedCall/yolov8_detector_1/functional_1/stack1_c2f_pre_0_2_pad_1/Pad", "op": "Pad", "input": ["StatefulPartitionedCall/yolov8_detector_1/functional_1/stack1_c2f_pre_0_1_1/mul_1", "StatefulPartitionedCall/yolov8_detector_1/functional_1/stack1_c2f_pre_0_2_pad_1/Const"], "attr": {"Tpaddings": {"type": "DT_INT32"}, "T": {"type": "DT_FLOAT"}}}, {"name": "StatefulPartitionedCall/yolov8_detector_1/functional_1/stack1_c2f_pre_0_2_bn_1/batchnorm/add_1", "op": "_FusedConv2D", "input": ["StatefulPartitionedCall/yolov8_detector_1/functional_1/stack1_c2f_pre_0_2_pad_1/Pad", "StatefulPartitionedCall/yolov8_detector_1/functional_1/stack1_c2f_pre_0_2_conv_1/convolution/merged_input", "StatefulPartitionedCall/yolov8_detector_1/functional_1/stack1_c2f_pre_0_2_bn_1/batchnorm/sub"], "device": "/device:CPU:0", "attr": {"num_host_args": {"i": "0"}, "leakyrelu_alpha": {"f": 0.2}, "use_cudnn_on_gpu": {"b": true}, "padding": {"s": "VkFMSUQ="}, "dilations": {"list": {"i": ["1", "1", "1", "1"]}}, "filter_format": {"s": "SFdJTw=="}, "explicit_paddings": {"list": {}}, "TArgs": {"list": {"type": ["DT_FLOAT"]}}, "fused_ops": {"list": {"s": ["Qmlhc0FkZA=="]}}, "epsilon": {"f": 0.0}, "data_format": {"s": "TkhXQw=="}, "T": {"type": "DT_FLOAT"}, "strides": {"list": {"i": ["1", "1", "1", "1"]}}, "num_args": {"i": "1"}}}, {"name": "StatefulPartitionedCall/yolov8_detector_1/functional_1/stack1_c2f_pre_0_2_1/Sigmoid", "op": "Sigmoid", "input": ["StatefulPartitionedCall/yolov8_detector_1/functional_1/stack1_c2f_pre_0_2_bn_1/batchnorm/add_1"], "attr": {"T": {"type": "DT_FLOAT"}}}, {"name": "StatefulPartitionedCall/yolov8_detector_1/functional_1/stack1_c2f_pre_0_2_1/mul_1", "op": "Mul", "input": ["StatefulPartitionedCall/yolov8_detector_1/functional_1/stack1_c2f_pre_0_2_bn_1/batchnorm/add_1", "StatefulPartitionedCall/yolov8_detector_1/functional_1/stack1_c2f_pre_0_2_1/Sigmoid"], "attr": {"T": {"type": "DT_FLOAT"}}}, {"name": "StatefulPartitionedCall/yolov8_detector_1/functional_1/Add", "op": "AddV2", "input": ["StatefulPartitionedCall/yolov8_detector_1/functional_1/split:1", "StatefulPartitionedCall/yolov8_detector_1/functional_1/stack1_c2f_pre_0_2_1/mul_1"], "attr": {"T": {"type": "DT_FLOAT"}}}, {"name": "StatefulPartitionedCall/yolov8_detector_1/functional_1/concat", "op": "ConcatV2", "input": ["StatefulPartitionedCall/yolov8_detector_1/functional_1/split", "StatefulPartitionedCall/yolov8_detector_1/functional_1/split:1", "StatefulPartitionedCall/yolov8_detector_1/functional_1/Add", "StatefulPartitionedCall/yolov8_detector_1/functional_1/concat/axis"], "attr": {"Tidx": {"type": "DT_INT32"}, "N": {"i": "3"}, "T": {"type": "DT_FLOAT"}}}, {"name": "StatefulPartitionedCall/yolov8_detector_1/functional_1/stack1_c2f_output_bn_1/batchnorm/add_1", "op": "_FusedConv2D", "input": ["StatefulPartitionedCall/yolov8_detector_1/functional_1/concat", "StatefulPartitionedCall/yolov8_detector_1/functional_1/stack1_c2f_output_conv_1/convolution/merged_input", "StatefulPartitionedCall/yolov8_detector_1/functional_1/stack1_c2f_output_bn_1/batchnorm/sub"], "device": "/device:CPU:0", "attr": {"num_host_args": {"i": "0"}, "leakyrelu_alpha": {"f": 0.2}, "use_cudnn_on_gpu": {"b": true}, "data_format": {"s": "TkhXQw=="}, "dilations": {"list": {"i": ["1", "1", "1", "1"]}}, "num_args": {"i": "1"}, "fused_ops": {"list": {"s": ["Qmlhc0FkZA=="]}}, "TArgs": {"list": {"type": ["DT_FLOAT"]}}, "explicit_paddings": {"list": {}}, "epsilon": {"f": 0.0}, "padding": {"s": "VkFMSUQ="}, "T": {"type": "DT_FLOAT"}, "strides": {"list": {"i": ["1", "1", "1", "1"]}}, "filter_format": {"s": "SFdJTw=="}}}, {"name": "StatefulPartitionedCall/yolov8_detector_1/functional_1/stack1_c2f_output_1/Sigmoid", "op": "Sigmoid", "input": ["StatefulPartitionedCall/yolov8_detector_1/functional_1/stack1_c2f_output_bn_1/batchnorm/add_1"], "attr": {"T": {"type": "DT_FLOAT"}}}, {"name": "StatefulPartitionedCall/yolov8_detector_1/functional_1/stack1_c2f_output_1/mul_1", "op": "Mul", "input": ["StatefulPartitionedCall/yolov8_detector_1/functional_1/stack1_c2f_output_bn_1/batchnorm/add_1", "StatefulPartitionedCall/yolov8_detector_1/functional_1/stack1_c2f_output_1/Sigmoid"], "attr": {"T": {"type": "DT_FLOAT"}}}, {"name": "StatefulPartitionedCall/yolov8_detector_1/functional_1/stack2_downsample_pad_1/Pad", "op": "Pad", "input": ["StatefulPartitionedCall/yolov8_detector_1/functional_1/stack1_c2f_output_1/mul_1", "StatefulPartitionedCall/yolov8_detector_1/functional_1/stack2_downsample_pad_1/Const"], "attr": {"Tpaddings": {"type": "DT_INT32"}, "T": {"type": "DT_FLOAT"}}}, {"name": "StatefulPartitionedCall/yolov8_detector_1/functional_1/stack2_downsample_bn_1/batchnorm/add_1", "op": "_FusedConv2D", "input": ["StatefulPartitionedCall/yolov8_detector_1/functional_1/stack2_downsample_pad_1/Pad", "StatefulPartitionedCall/yolov8_detector_1/functional_1/stack2_downsample_conv_1/convolution/merged_input", "StatefulPartitionedCall/yolov8_detector_1/functional_1/stack2_downsample_bn_1/batchnorm/sub"], "device": "/device:CPU:0", "attr": {"num_host_args": {"i": "0"}, "strides": {"list": {"i": ["1", "2", "2", "1"]}}, "use_cudnn_on_gpu": {"b": true}, "data_format": {"s": "TkhXQw=="}, "dilations": {"list": {"i": ["1", "1", "1", "1"]}}, "num_args": {"i": "1"}, "fused_ops": {"list": {"s": ["Qmlhc0FkZA=="]}}, "TArgs": {"list": {"type": ["DT_FLOAT"]}}, "explicit_paddings": {"list": {}}, "epsilon": {"f": 0.0}, "padding": {"s": "VkFMSUQ="}, "T": {"type": "DT_FLOAT"}, "leakyrelu_alpha": {"f": 0.2}, "filter_format": {"s": "SFdJTw=="}}}, {"name": "StatefulPartitionedCall/yolov8_detector_1/functional_1/stack2_downsample_1/Sigmoid", "op": "Sigmoid", "input": ["StatefulPartitionedCall/yolov8_detector_1/functional_1/stack2_downsample_bn_1/batchnorm/add_1"], "attr": {"T": {"type": "DT_FLOAT"}}}, {"name": "StatefulPartitionedCall/yolov8_detector_1/functional_1/stack2_downsample_1/mul_1", "op": "Mul", "input": ["StatefulPartitionedCall/yolov8_detector_1/functional_1/stack2_downsample_bn_1/batchnorm/add_1", "StatefulPartitionedCall/yolov8_detector_1/functional_1/stack2_downsample_1/Sigmoid"], "attr": {"T": {"type": "DT_FLOAT"}}}, {"name": "StatefulPartitionedCall/yolov8_detector_1/functional_1/stack2_c2f_pre_bn_1/batchnorm/add_1", "op": "_FusedConv2D", "input": ["StatefulPartitionedCall/yolov8_detector_1/functional_1/stack2_downsample_1/mul_1", "StatefulPartitionedCall/yolov8_detector_1/functional_1/stack2_c2f_pre_conv_1/convolution/merged_input", "StatefulPartitionedCall/yolov8_detector_1/functional_1/stack2_c2f_pre_bn_1/batchnorm/sub"], "device": "/device:CPU:0", "attr": {"dilations": {"list": {"i": ["1", "1", "1", "1"]}}, "leakyrelu_alpha": {"f": 0.2}, "use_cudnn_on_gpu": {"b": true}, "padding": {"s": "VkFMSUQ="}, "num_host_args": {"i": "0"}, "filter_format": {"s": "SFdJTw=="}, "explicit_paddings": {"list": {}}, "TArgs": {"list": {"type": ["DT_FLOAT"]}}, "fused_ops": {"list": {"s": ["Qmlhc0FkZA=="]}}, "epsilon": {"f": 0.0}, "data_format": {"s": "TkhXQw=="}, "T": {"type": "DT_FLOAT"}, "strides": {"list": {"i": ["1", "1", "1", "1"]}}, "num_args": {"i": "1"}}}, {"name": "StatefulPartitionedCall/yolov8_detector_1/functional_1/stack2_c2f_pre_1/Sigmoid", "op": "Sigmoid", "input": ["StatefulPartitionedCall/yolov8_detector_1/functional_1/stack2_c2f_pre_bn_1/batchnorm/add_1"], "attr": {"T": {"type": "DT_FLOAT"}}}, {"name": "StatefulPartitionedCall/yolov8_detector_1/functional_1/stack2_c2f_pre_1/mul_1", "op": "Mul", "input": ["StatefulPartitionedCall/yolov8_detector_1/functional_1/stack2_c2f_pre_bn_1/batchnorm/add_1", "StatefulPartitionedCall/yolov8_detector_1/functional_1/stack2_c2f_pre_1/Sigmoid"], "attr": {"T": {"type": "DT_FLOAT"}}}, {"name": "StatefulPartitionedCall/yolov8_detector_1/functional_1/split_1", "op": "Split", "input": ["StatefulPartitionedCall/yolov8_detector_1/functional_1/split_1/split_dim", "StatefulPartitionedCall/yolov8_detector_1/functional_1/stack2_c2f_pre_1/mul_1"], "attr": {"num_split": {"i": "2"}, "T": {"type": "DT_FLOAT"}}}, {"name": "StatefulPartitionedCall/yolov8_detector_1/functional_1/stack2_c2f_pre_0_1_pad_1/Pad", "op": "Pad", "input": ["StatefulPartitionedCall/yolov8_detector_1/functional_1/split_1:1", "StatefulPartitionedCall/yolov8_detector_1/functional_1/stack2_c2f_pre_0_1_pad_1/Const"], "attr": {"Tpaddings": {"type": "DT_INT32"}, "T": {"type": "DT_FLOAT"}}}, {"name": "StatefulPartitionedCall/yolov8_detector_1/functional_1/stack2_c2f_pre_0_1_bn_1/batchnorm/add_1", "op": "_FusedConv2D", "input": ["StatefulPartitionedCall/yolov8_detector_1/functional_1/stack2_c2f_pre_0_1_pad_1/Pad", "StatefulPartitionedCall/yolov8_detector_1/functional_1/stack2_c2f_pre_0_1_conv_1/convolution/merged_input", "StatefulPartitionedCall/yolov8_detector_1/functional_1/stack2_c2f_pre_0_1_bn_1/batchnorm/sub"], "device": "/device:CPU:0", "attr": {"dilations": {"list": {"i": ["1", "1", "1", "1"]}}, "leakyrelu_alpha": {"f": 0.2}, "use_cudnn_on_gpu": {"b": true}, "padding": {"s": "VkFMSUQ="}, "num_host_args": {"i": "0"}, "num_args": {"i": "1"}, "explicit_paddings": {"list": {}}, "TArgs": {"list": {"type": ["DT_FLOAT"]}}, "fused_ops": {"list": {"s": ["Qmlhc0FkZA=="]}}, "epsilon": {"f": 0.0}, "data_format": {"s": "TkhXQw=="}, "T": {"type": "DT_FLOAT"}, "strides": {"list": {"i": ["1", "1", "1", "1"]}}, "filter_format": {"s": "SFdJTw=="}}}, {"name": "StatefulPartitionedCall/yolov8_detector_1/functional_1/stack2_c2f_pre_0_1_1/Sigmoid", "op": "Sigmoid", "input": ["StatefulPartitionedCall/yolov8_detector_1/functional_1/stack2_c2f_pre_0_1_bn_1/batchnorm/add_1"], "attr": {"T": {"type": "DT_FLOAT"}}}, {"name": "StatefulPartitionedCall/yolov8_detector_1/functional_1/stack2_c2f_pre_0_1_1/mul_1", "op": "Mul", "input": ["StatefulPartitionedCall/yolov8_detector_1/functional_1/stack2_c2f_pre_0_1_bn_1/batchnorm/add_1", "StatefulPartitionedCall/yolov8_detector_1/functional_1/stack2_c2f_pre_0_1_1/Sigmoid"], "attr": {"T": {"type": "DT_FLOAT"}}}, {"name": "StatefulPartitionedCall/yolov8_detector_1/functional_1/stack2_c2f_pre_0_2_pad_1/Pad", "op": "Pad", "input": ["StatefulPartitionedCall/yolov8_detector_1/functional_1/stack2_c2f_pre_0_1_1/mul_1", "StatefulPartitionedCall/yolov8_detector_1/functional_1/stack2_c2f_pre_0_2_pad_1/Const"], "attr": {"Tpaddings": {"type": "DT_INT32"}, "T": {"type": "DT_FLOAT"}}}, {"name": "StatefulPartitionedCall/yolov8_detector_1/functional_1/stack2_c2f_pre_0_2_bn_1/batchnorm/add_1", "op": "_FusedConv2D", "input": ["StatefulPartitionedCall/yolov8_detector_1/functional_1/stack2_c2f_pre_0_2_pad_1/Pad", "StatefulPartitionedCall/yolov8_detector_1/functional_1/stack2_c2f_pre_0_2_conv_1/convolution/merged_input", "StatefulPartitionedCall/yolov8_detector_1/functional_1/stack2_c2f_pre_0_2_bn_1/batchnorm/sub"], "device": "/device:CPU:0", "attr": {"dilations": {"list": {"i": ["1", "1", "1", "1"]}}, "leakyrelu_alpha": {"f": 0.2}, "use_cudnn_on_gpu": {"b": true}, "padding": {"s": "VkFMSUQ="}, "num_host_args": {"i": "0"}, "filter_format": {"s": "SFdJTw=="}, "explicit_paddings": {"list": {}}, "TArgs": {"list": {"type": ["DT_FLOAT"]}}, "fused_ops": {"list": {"s": ["Qmlhc0FkZA=="]}}, "epsilon": {"f": 0.0}, "data_format": {"s": "TkhXQw=="}, "T": {"type": "DT_FLOAT"}, "strides": {"list": {"i": ["1", "1", "1", "1"]}}, "num_args": {"i": "1"}}}, {"name": "StatefulPartitionedCall/yolov8_detector_1/functional_1/stack2_c2f_pre_0_2_1/Sigmoid", "op": "Sigmoid", "input": ["StatefulPartitionedCall/yolov8_detector_1/functional_1/stack2_c2f_pre_0_2_bn_1/batchnorm/add_1"], "attr": {"T": {"type": "DT_FLOAT"}}}, {"name": "StatefulPartitionedCall/yolov8_detector_1/functional_1/stack2_c2f_pre_0_2_1/mul_1", "op": "Mul", "input": ["StatefulPartitionedCall/yolov8_detector_1/functional_1/stack2_c2f_pre_0_2_bn_1/batchnorm/add_1", "StatefulPartitionedCall/yolov8_detector_1/functional_1/stack2_c2f_pre_0_2_1/Sigmoid"], "attr": {"T": {"type": "DT_FLOAT"}}}, {"name": "StatefulPartitionedCall/yolov8_detector_1/functional_1/Add_1", "op": "AddV2", "input": ["StatefulPartitionedCall/yolov8_detector_1/functional_1/split_1:1", "StatefulPartitionedCall/yolov8_detector_1/functional_1/stack2_c2f_pre_0_2_1/mul_1"], "attr": {"T": {"type": "DT_FLOAT"}}}, {"name": "StatefulPartitionedCall/yolov8_detector_1/functional_1/stack2_c2f_pre_1_1_pad_1/Pad", "op": "Pad", "input": ["StatefulPartitionedCall/yolov8_detector_1/functional_1/Add_1", "StatefulPartitionedCall/yolov8_detector_1/functional_1/stack2_c2f_pre_1_1_pad_1/Const"], "attr": {"Tpaddings": {"type": "DT_INT32"}, "T": {"type": "DT_FLOAT"}}}, {"name": "StatefulPartitionedCall/yolov8_detector_1/functional_1/stack2_c2f_pre_1_1_bn_1/batchnorm/add_1", "op": "_FusedConv2D", "input": ["StatefulPartitionedCall/yolov8_detector_1/functional_1/stack2_c2f_pre_1_1_pad_1/Pad", "StatefulPartitionedCall/yolov8_detector_1/functional_1/stack2_c2f_pre_1_1_conv_1/convolution/merged_input", "StatefulPartitionedCall/yolov8_detector_1/functional_1/stack2_c2f_pre_1_1_bn_1/batchnorm/sub"], "device": "/device:CPU:0", "attr": {"num_host_args": {"i": "0"}, "leakyrelu_alpha": {"f": 0.2}, "use_cudnn_on_gpu": {"b": true}, "data_format": {"s": "TkhXQw=="}, "dilations": {"list": {"i": ["1", "1", "1", "1"]}}, "filter_format": {"s": "SFdJTw=="}, "fused_ops": {"list": {"s": ["Qmlhc0FkZA=="]}}, "TArgs": {"list": {"type": ["DT_FLOAT"]}}, "explicit_paddings": {"list": {}}, "epsilon": {"f": 0.0}, "padding": {"s": "VkFMSUQ="}, "T": {"type": "DT_FLOAT"}, "strides": {"list": {"i": ["1", "1", "1", "1"]}}, "num_args": {"i": "1"}}}, {"name": "StatefulPartitionedCall/yolov8_detector_1/functional_1/stack2_c2f_pre_1_1_1/Sigmoid", "op": "Sigmoid", "input": ["StatefulPartitionedCall/yolov8_detector_1/functional_1/stack2_c2f_pre_1_1_bn_1/batchnorm/add_1"], "attr": {"T": {"type": "DT_FLOAT"}}}, {"name": "StatefulPartitionedCall/yolov8_detector_1/functional_1/stack2_c2f_pre_1_1_1/mul_1", "op": "Mul", "input": ["StatefulPartitionedCall/yolov8_detector_1/functional_1/stack2_c2f_pre_1_1_bn_1/batchnorm/add_1", "StatefulPartitionedCall/yolov8_detector_1/functional_1/stack2_c2f_pre_1_1_1/Sigmoid"], "attr": {"T": {"type": "DT_FLOAT"}}}, {"name": "StatefulPartitionedCall/yolov8_detector_1/functional_1/stack2_c2f_pre_1_2_pad_1/Pad", "op": "Pad", "input": ["StatefulPartitionedCall/yolov8_detector_1/functional_1/stack2_c2f_pre_1_1_1/mul_1", "StatefulPartitionedCall/yolov8_detector_1/functional_1/stack2_c2f_pre_1_2_pad_1/Const"], "attr": {"Tpaddings": {"type": "DT_INT32"}, "T": {"type": "DT_FLOAT"}}}, {"name": "StatefulPartitionedCall/yolov8_detector_1/functional_1/stack2_c2f_pre_1_2_bn_1/batchnorm/add_1", "op": "_FusedConv2D", "input": ["StatefulPartitionedCall/yolov8_detector_1/functional_1/stack2_c2f_pre_1_2_pad_1/Pad", "StatefulPartitionedCall/yolov8_detector_1/functional_1/stack2_c2f_pre_1_2_conv_1/convolution/merged_input", "StatefulPartitionedCall/yolov8_detector_1/functional_1/stack2_c2f_pre_1_2_bn_1/batchnorm/sub"], "device": "/device:CPU:0", "attr": {"num_host_args": {"i": "0"}, "strides": {"list": {"i": ["1", "1", "1", "1"]}}, "use_cudnn_on_gpu": {"b": true}, "padding": {"s": "VkFMSUQ="}, "dilations": {"list": {"i": ["1", "1", "1", "1"]}}, "filter_format": {"s": "SFdJTw=="}, "explicit_paddings": {"list": {}}, "TArgs": {"list": {"type": ["DT_FLOAT"]}}, "fused_ops": {"list": {"s": ["Qmlhc0FkZA=="]}}, "epsilon": {"f": 0.0}, "data_format": {"s": "TkhXQw=="}, "T": {"type": "DT_FLOAT"}, "leakyrelu_alpha": {"f": 0.2}, "num_args": {"i": "1"}}}, {"name": "StatefulPartitionedCall/yolov8_detector_1/functional_1/stack2_c2f_pre_1_2_1/Sigmoid", "op": "Sigmoid", "input": ["StatefulPartitionedCall/yolov8_detector_1/functional_1/stack2_c2f_pre_1_2_bn_1/batchnorm/add_1"], "attr": {"T": {"type": "DT_FLOAT"}}}, {"name": "StatefulPartitionedCall/yolov8_detector_1/functional_1/stack2_c2f_pre_1_2_1/mul_1", "op": "Mul", "input": ["StatefulPartitionedCall/yolov8_detector_1/functional_1/stack2_c2f_pre_1_2_bn_1/batchnorm/add_1", "StatefulPartitionedCall/yolov8_detector_1/functional_1/stack2_c2f_pre_1_2_1/Sigmoid"], "attr": {"T": {"type": "DT_FLOAT"}}}, {"name": "StatefulPartitionedCall/yolov8_detector_1/functional_1/Add_2", "op": "AddV2", "input": ["StatefulPartitionedCall/yolov8_detector_1/functional_1/Add_1", "StatefulPartitionedCall/yolov8_detector_1/functional_1/stack2_c2f_pre_1_2_1/mul_1"], "attr": {"T": {"type": "DT_FLOAT"}}}, {"name": "StatefulPartitionedCall/yolov8_detector_1/functional_1/concat_1", "op": "ConcatV2", "input": ["StatefulPartitionedCall/yolov8_detector_1/functional_1/split_1", "StatefulPartitionedCall/yolov8_detector_1/functional_1/split_1:1", "StatefulPartitionedCall/yolov8_detector_1/functional_1/Add_1", "StatefulPartitionedCall/yolov8_detector_1/functional_1/Add_2", "StatefulPartitionedCall/yolov8_detector_1/functional_1/concat_1/axis"], "attr": {"Tidx": {"type": "DT_INT32"}, "N": {"i": "4"}, "T": {"type": "DT_FLOAT"}}}, {"name": "StatefulPartitionedCall/yolov8_detector_1/functional_1/stack2_c2f_output_bn_1/batchnorm/add_1", "op": "_FusedConv2D", "input": ["StatefulPartitionedCall/yolov8_detector_1/functional_1/concat_1", "StatefulPartitionedCall/yolov8_detector_1/functional_1/stack2_c2f_output_conv_1/convolution/merged_input", "StatefulPartitionedCall/yolov8_detector_1/functional_1/stack2_c2f_output_bn_1/batchnorm/sub"], "device": "/device:CPU:0", "attr": {"dilations": {"list": {"i": ["1", "1", "1", "1"]}}, "strides": {"list": {"i": ["1", "1", "1", "1"]}}, "use_cudnn_on_gpu": {"b": true}, "padding": {"s": "VkFMSUQ="}, "num_host_args": {"i": "0"}, "filter_format": {"s": "SFdJTw=="}, "explicit_paddings": {"list": {}}, "TArgs": {"list": {"type": ["DT_FLOAT"]}}, "fused_ops": {"list": {"s": ["Qmlhc0FkZA=="]}}, "epsilon": {"f": 0.0}, "data_format": {"s": "TkhXQw=="}, "T": {"type": "DT_FLOAT"}, "leakyrelu_alpha": {"f": 0.2}, "num_args": {"i": "1"}}}, {"name": "StatefulPartitionedCall/yolov8_detector_1/functional_1/stack2_c2f_output_1/Sigmoid", "op": "Sigmoid", "input": ["StatefulPartitionedCall/yolov8_detector_1/functional_1/stack2_c2f_output_bn_1/batchnorm/add_1"], "attr": {"T": {"type": "DT_FLOAT"}}}, {"name": "StatefulPartitionedCall/yolov8_detector_1/functional_1/stack2_c2f_output_1/mul_1", "op": "Mul", "input": ["StatefulPartitionedCall/yolov8_detector_1/functional_1/stack2_c2f_output_bn_1/batchnorm/add_1", "StatefulPartitionedCall/yolov8_detector_1/functional_1/stack2_c2f_output_1/Sigmoid"], "attr": {"T": {"type": "DT_FLOAT"}}}, {"name": "StatefulPartitionedCall/yolov8_detector_1/functional_1/stack3_downsample_pad_1/Pad", "op": "Pad", "input": ["StatefulPartitionedCall/yolov8_detector_1/functional_1/stack2_c2f_output_1/mul_1", "StatefulPartitionedCall/yolov8_detector_1/functional_1/stack3_downsample_pad_1/Const"], "attr": {"Tpaddings": {"type": "DT_INT32"}, "T": {"type": "DT_FLOAT"}}}, {"name": "StatefulPartitionedCall/yolov8_detector_1/functional_1/stack3_downsample_bn_1/batchnorm/add_1", "op": "_FusedConv2D", "input": ["StatefulPartitionedCall/yolov8_detector_1/functional_1/stack3_downsample_pad_1/Pad", "StatefulPartitionedCall/yolov8_detector_1/functional_1/stack3_downsample_conv_1/convolution/merged_input", "StatefulPartitionedCall/yolov8_detector_1/functional_1/stack3_downsample_bn_1/batchnorm/sub"], "device": "/device:CPU:0", "attr": {"num_host_args": {"i": "0"}, "strides": {"list": {"i": ["1", "2", "2", "1"]}}, "use_cudnn_on_gpu": {"b": true}, "data_format": {"s": "TkhXQw=="}, "dilations": {"list": {"i": ["1", "1", "1", "1"]}}, "filter_format": {"s": "SFdJTw=="}, "fused_ops": {"list": {"s": ["Qmlhc0FkZA=="]}}, "TArgs": {"list": {"type": ["DT_FLOAT"]}}, "explicit_paddings": {"list": {}}, "epsilon": {"f": 0.0}, "padding": {"s": "VkFMSUQ="}, "T": {"type": "DT_FLOAT"}, "leakyrelu_alpha": {"f": 0.2}, "num_args": {"i": "1"}}}, {"name": "StatefulPartitionedCall/yolov8_detector_1/functional_1/stack3_downsample_1/Sigmoid", "op": "Sigmoid", "input": ["StatefulPartitionedCall/yolov8_detector_1/functional_1/stack3_downsample_bn_1/batchnorm/add_1"], "attr": {"T": {"type": "DT_FLOAT"}}}, {"name": "StatefulPartitionedCall/yolov8_detector_1/functional_1/stack3_downsample_1/mul_1", "op": "Mul", "input": ["StatefulPartitionedCall/yolov8_detector_1/functional_1/stack3_downsample_bn_1/batchnorm/add_1", "StatefulPartitionedCall/yolov8_detector_1/functional_1/stack3_downsample_1/Sigmoid"], "attr": {"T": {"type": "DT_FLOAT"}}}, {"name": "StatefulPartitionedCall/yolov8_detector_1/functional_1/stack3_c2f_pre_bn_1/batchnorm/add_1", "op": "_FusedConv2D", "input": ["StatefulPartitionedCall/yolov8_detector_1/functional_1/stack3_downsample_1/mul_1", "StatefulPartitionedCall/yolov8_detector_1/functional_1/stack3_c2f_pre_conv_1/convolution/merged_input", "StatefulPartitionedCall/yolov8_detector_1/functional_1/stack3_c2f_pre_bn_1/batchnorm/sub"], "device": "/device:CPU:0", "attr": {"dilations": {"list": {"i": ["1", "1", "1", "1"]}}, "leakyrelu_alpha": {"f": 0.2}, "use_cudnn_on_gpu": {"b": true}, "data_format": {"s": "TkhXQw=="}, "num_host_args": {"i": "0"}, "num_args": {"i": "1"}, "fused_ops": {"list": {"s": ["Qmlhc0FkZA=="]}}, "TArgs": {"list": {"type": ["DT_FLOAT"]}}, "explicit_paddings": {"list": {}}, "epsilon": {"f": 0.0}, "padding": {"s": "VkFMSUQ="}, "T": {"type": "DT_FLOAT"}, "strides": {"list": {"i": ["1", "1", "1", "1"]}}, "filter_format": {"s": "SFdJTw=="}}}, {"name": "StatefulPartitionedCall/yolov8_detector_1/functional_1/stack3_c2f_pre_1/Sigmoid", "op": "Sigmoid", "input": ["StatefulPartitionedCall/yolov8_detector_1/functional_1/stack3_c2f_pre_bn_1/batchnorm/add_1"], "attr": {"T": {"type": "DT_FLOAT"}}}, {"name": "StatefulPartitionedCall/yolov8_detector_1/functional_1/stack3_c2f_pre_1/mul_1", "op": "Mul", "input": ["StatefulPartitionedCall/yolov8_detector_1/functional_1/stack3_c2f_pre_bn_1/batchnorm/add_1", "StatefulPartitionedCall/yolov8_detector_1/functional_1/stack3_c2f_pre_1/Sigmoid"], "attr": {"T": {"type": "DT_FLOAT"}}}, {"name": "StatefulPartitionedCall/yolov8_detector_1/functional_1/split_2", "op": "Split", "input": ["StatefulPartitionedCall/yolov8_detector_1/functional_1/split_2/split_dim", "StatefulPartitionedCall/yolov8_detector_1/functional_1/stack3_c2f_pre_1/mul_1"], "attr": {"T": {"type": "DT_FLOAT"}, "num_split": {"i": "2"}}}, {"name": "StatefulPartitionedCall/yolov8_detector_1/functional_1/stack3_c2f_pre_0_1_pad_1/Pad", "op": "Pad", "input": ["StatefulPartitionedCall/yolov8_detector_1/functional_1/split_2:1", "StatefulPartitionedCall/yolov8_detector_1/functional_1/stack3_c2f_pre_0_1_pad_1/Const"], "attr": {"Tpaddings": {"type": "DT_INT32"}, "T": {"type": "DT_FLOAT"}}}, {"name": "StatefulPartitionedCall/yolov8_detector_1/functional_1/stack3_c2f_pre_0_1_bn_1/batchnorm/add_1", "op": "_FusedConv2D", "input": ["StatefulPartitionedCall/yolov8_detector_1/functional_1/stack3_c2f_pre_0_1_pad_1/Pad", "StatefulPartitionedCall/yolov8_detector_1/functional_1/stack3_c2f_pre_0_1_conv_1/convolution/merged_input", "StatefulPartitionedCall/yolov8_detector_1/functional_1/stack3_c2f_pre_0_1_bn_1/batchnorm/sub"], "device": "/device:CPU:0", "attr": {"dilations": {"list": {"i": ["1", "1", "1", "1"]}}, "leakyrelu_alpha": {"f": 0.2}, "use_cudnn_on_gpu": {"b": true}, "data_format": {"s": "TkhXQw=="}, "num_host_args": {"i": "0"}, "filter_format": {"s": "SFdJTw=="}, "fused_ops": {"list": {"s": ["Qmlhc0FkZA=="]}}, "TArgs": {"list": {"type": ["DT_FLOAT"]}}, "explicit_paddings": {"list": {}}, "epsilon": {"f": 0.0}, "padding": {"s": "VkFMSUQ="}, "T": {"type": "DT_FLOAT"}, "strides": {"list": {"i": ["1", "1", "1", "1"]}}, "num_args": {"i": "1"}}}, {"name": "StatefulPartitionedCall/yolov8_detector_1/functional_1/stack3_c2f_pre_0_1_1/Sigmoid", "op": "Sigmoid", "input": ["StatefulPartitionedCall/yolov8_detector_1/functional_1/stack3_c2f_pre_0_1_bn_1/batchnorm/add_1"], "attr": {"T": {"type": "DT_FLOAT"}}}, {"name": "StatefulPartitionedCall/yolov8_detector_1/functional_1/stack3_c2f_pre_0_1_1/mul_1", "op": "Mul", "input": ["StatefulPartitionedCall/yolov8_detector_1/functional_1/stack3_c2f_pre_0_1_bn_1/batchnorm/add_1", "StatefulPartitionedCall/yolov8_detector_1/functional_1/stack3_c2f_pre_0_1_1/Sigmoid"], "attr": {"T": {"type": "DT_FLOAT"}}}, {"name": "StatefulPartitionedCall/yolov8_detector_1/functional_1/stack3_c2f_pre_0_2_pad_1/Pad", "op": "Pad", "input": ["StatefulPartitionedCall/yolov8_detector_1/functional_1/stack3_c2f_pre_0_1_1/mul_1", "StatefulPartitionedCall/yolov8_detector_1/functional_1/stack3_c2f_pre_0_2_pad_1/Const"], "attr": {"Tpaddings": {"type": "DT_INT32"}, "T": {"type": "DT_FLOAT"}}}, {"name": "StatefulPartitionedCall/yolov8_detector_1/functional_1/stack3_c2f_pre_0_2_bn_1/batchnorm/add_1", "op": "_FusedConv2D", "input": ["StatefulPartitionedCall/yolov8_detector_1/functional_1/stack3_c2f_pre_0_2_pad_1/Pad", "StatefulPartitionedCall/yolov8_detector_1/functional_1/stack3_c2f_pre_0_2_conv_1/convolution/merged_input", "StatefulPartitionedCall/yolov8_detector_1/functional_1/stack3_c2f_pre_0_2_bn_1/batchnorm/sub"], "device": "/device:CPU:0", "attr": {"num_host_args": {"i": "0"}, "leakyrelu_alpha": {"f": 0.2}, "use_cudnn_on_gpu": {"b": true}, "data_format": {"s": "TkhXQw=="}, "dilations": {"list": {"i": ["1", "1", "1", "1"]}}, "filter_format": {"s": "SFdJTw=="}, "explicit_paddings": {"list": {}}, "TArgs": {"list": {"type": ["DT_FLOAT"]}}, "fused_ops": {"list": {"s": ["Qmlhc0FkZA=="]}}, "epsilon": {"f": 0.0}, "padding": {"s": "VkFMSUQ="}, "T": {"type": "DT_FLOAT"}, "strides": {"list": {"i": ["1", "1", "1", "1"]}}, "num_args": {"i": "1"}}}, {"name": "StatefulPartitionedCall/yolov8_detector_1/functional_1/stack3_c2f_pre_0_2_1/Sigmoid", "op": "Sigmoid", "input": ["StatefulPartitionedCall/yolov8_detector_1/functional_1/stack3_c2f_pre_0_2_bn_1/batchnorm/add_1"], "attr": {"T": {"type": "DT_FLOAT"}}}, {"name": "StatefulPartitionedCall/yolov8_detector_1/functional_1/stack3_c2f_pre_0_2_1/mul_1", "op": "Mul", "input": ["StatefulPartitionedCall/yolov8_detector_1/functional_1/stack3_c2f_pre_0_2_bn_1/batchnorm/add_1", "StatefulPartitionedCall/yolov8_detector_1/functional_1/stack3_c2f_pre_0_2_1/Sigmoid"], "attr": {"T": {"type": "DT_FLOAT"}}}, {"name": "StatefulPartitionedCall/yolov8_detector_1/functional_1/Add_3", "op": "AddV2", "input": ["StatefulPartitionedCall/yolov8_detector_1/functional_1/split_2:1", "StatefulPartitionedCall/yolov8_detector_1/functional_1/stack3_c2f_pre_0_2_1/mul_1"], "attr": {"T": {"type": "DT_FLOAT"}}}, {"name": "StatefulPartitionedCall/yolov8_detector_1/functional_1/stack3_c2f_pre_1_1_pad_1/Pad", "op": "Pad", "input": ["StatefulPartitionedCall/yolov8_detector_1/functional_1/Add_3", "StatefulPartitionedCall/yolov8_detector_1/functional_1/stack3_c2f_pre_1_1_pad_1/Const"], "attr": {"Tpaddings": {"type": "DT_INT32"}, "T": {"type": "DT_FLOAT"}}}, {"name": "StatefulPartitionedCall/yolov8_detector_1/functional_1/stack3_c2f_pre_1_1_bn_1/batchnorm/add_1", "op": "_FusedConv2D", "input": ["StatefulPartitionedCall/yolov8_detector_1/functional_1/stack3_c2f_pre_1_1_pad_1/Pad", "StatefulPartitionedCall/yolov8_detector_1/functional_1/stack3_c2f_pre_1_1_conv_1/convolution/merged_input", "StatefulPartitionedCall/yolov8_detector_1/functional_1/stack3_c2f_pre_1_1_bn_1/batchnorm/sub"], "device": "/device:CPU:0", "attr": {"dilations": {"list": {"i": ["1", "1", "1", "1"]}}, "strides": {"list": {"i": ["1", "1", "1", "1"]}}, "use_cudnn_on_gpu": {"b": true}, "data_format": {"s": "TkhXQw=="}, "num_host_args": {"i": "0"}, "num_args": {"i": "1"}, "explicit_paddings": {"list": {}}, "TArgs": {"list": {"type": ["DT_FLOAT"]}}, "fused_ops": {"list": {"s": ["Qmlhc0FkZA=="]}}, "epsilon": {"f": 0.0}, "padding": {"s": "VkFMSUQ="}, "T": {"type": "DT_FLOAT"}, "leakyrelu_alpha": {"f": 0.2}, "filter_format": {"s": "SFdJTw=="}}}, {"name": "StatefulPartitionedCall/yolov8_detector_1/functional_1/stack3_c2f_pre_1_1_1/Sigmoid", "op": "Sigmoid", "input": ["StatefulPartitionedCall/yolov8_detector_1/functional_1/stack3_c2f_pre_1_1_bn_1/batchnorm/add_1"], "attr": {"T": {"type": "DT_FLOAT"}}}, {"name": "StatefulPartitionedCall/yolov8_detector_1/functional_1/stack3_c2f_pre_1_1_1/mul_1", "op": "Mul", "input": ["StatefulPartitionedCall/yolov8_detector_1/functional_1/stack3_c2f_pre_1_1_bn_1/batchnorm/add_1", "StatefulPartitionedCall/yolov8_detector_1/functional_1/stack3_c2f_pre_1_1_1/Sigmoid"], "attr": {"T": {"type": "DT_FLOAT"}}}, {"name": "StatefulPartitionedCall/yolov8_detector_1/functional_1/stack3_c2f_pre_1_2_pad_1/Pad", "op": "Pad", "input": ["StatefulPartitionedCall/yolov8_detector_1/functional_1/stack3_c2f_pre_1_1_1/mul_1", "StatefulPartitionedCall/yolov8_detector_1/functional_1/stack3_c2f_pre_1_2_pad_1/Const"], "attr": {"Tpaddings": {"type": "DT_INT32"}, "T": {"type": "DT_FLOAT"}}}, {"name": "StatefulPartitionedCall/yolov8_detector_1/functional_1/stack3_c2f_pre_1_2_bn_1/batchnorm/add_1", "op": "_FusedConv2D", "input": ["StatefulPartitionedCall/yolov8_detector_1/functional_1/stack3_c2f_pre_1_2_pad_1/Pad", "StatefulPartitionedCall/yolov8_detector_1/functional_1/stack3_c2f_pre_1_2_conv_1/convolution/merged_input", "StatefulPartitionedCall/yolov8_detector_1/functional_1/stack3_c2f_pre_1_2_bn_1/batchnorm/sub"], "device": "/device:CPU:0", "attr": {"num_host_args": {"i": "0"}, "strides": {"list": {"i": ["1", "1", "1", "1"]}}, "use_cudnn_on_gpu": {"b": true}, "padding": {"s": "VkFMSUQ="}, "dilations": {"list": {"i": ["1", "1", "1", "1"]}}, "filter_format": {"s": "SFdJTw=="}, "explicit_paddings": {"list": {}}, "TArgs": {"list": {"type": ["DT_FLOAT"]}}, "fused_ops": {"list": {"s": ["Qmlhc0FkZA=="]}}, "epsilon": {"f": 0.0}, "data_format": {"s": "TkhXQw=="}, "T": {"type": "DT_FLOAT"}, "leakyrelu_alpha": {"f": 0.2}, "num_args": {"i": "1"}}}, {"name": "StatefulPartitionedCall/yolov8_detector_1/functional_1/stack3_c2f_pre_1_2_1/Sigmoid", "op": "Sigmoid", "input": ["StatefulPartitionedCall/yolov8_detector_1/functional_1/stack3_c2f_pre_1_2_bn_1/batchnorm/add_1"], "attr": {"T": {"type": "DT_FLOAT"}}}, {"name": "StatefulPartitionedCall/yolov8_detector_1/functional_1/stack3_c2f_pre_1_2_1/mul_1", "op": "Mul", "input": ["StatefulPartitionedCall/yolov8_detector_1/functional_1/stack3_c2f_pre_1_2_bn_1/batchnorm/add_1", "StatefulPartitionedCall/yolov8_detector_1/functional_1/stack3_c2f_pre_1_2_1/Sigmoid"], "attr": {"T": {"type": "DT_FLOAT"}}}, {"name": "StatefulPartitionedCall/yolov8_detector_1/functional_1/Add_4", "op": "AddV2", "input": ["StatefulPartitionedCall/yolov8_detector_1/functional_1/Add_3", "StatefulPartitionedCall/yolov8_detector_1/functional_1/stack3_c2f_pre_1_2_1/mul_1"], "attr": {"T": {"type": "DT_FLOAT"}}}, {"name": "StatefulPartitionedCall/yolov8_detector_1/functional_1/concat_2", "op": "ConcatV2", "input": ["StatefulPartitionedCall/yolov8_detector_1/functional_1/split_2", "StatefulPartitionedCall/yolov8_detector_1/functional_1/split_2:1", "StatefulPartitionedCall/yolov8_detector_1/functional_1/Add_3", "StatefulPartitionedCall/yolov8_detector_1/functional_1/Add_4", "StatefulPartitionedCall/yolov8_detector_1/functional_1/concat_2/axis"], "attr": {"Tidx": {"type": "DT_INT32"}, "N": {"i": "4"}, "T": {"type": "DT_FLOAT"}}}, {"name": "StatefulPartitionedCall/yolov8_detector_1/functional_1/stack3_c2f_output_bn_1/batchnorm/add_1", "op": "_FusedConv2D", "input": ["StatefulPartitionedCall/yolov8_detector_1/functional_1/concat_2", "StatefulPartitionedCall/yolov8_detector_1/functional_1/stack3_c2f_output_conv_1/convolution/merged_input", "StatefulPartitionedCall/yolov8_detector_1/functional_1/stack3_c2f_output_bn_1/batchnorm/sub"], "device": "/device:CPU:0", "attr": {"num_host_args": {"i": "0"}, "strides": {"list": {"i": ["1", "1", "1", "1"]}}, "use_cudnn_on_gpu": {"b": true}, "padding": {"s": "VkFMSUQ="}, "dilations": {"list": {"i": ["1", "1", "1", "1"]}}, "filter_format": {"s": "SFdJTw=="}, "explicit_paddings": {"list": {}}, "TArgs": {"list": {"type": ["DT_FLOAT"]}}, "fused_ops": {"list": {"s": ["Qmlhc0FkZA=="]}}, "epsilon": {"f": 0.0}, "data_format": {"s": "TkhXQw=="}, "T": {"type": "DT_FLOAT"}, "leakyrelu_alpha": {"f": 0.2}, "num_args": {"i": "1"}}}, {"name": "StatefulPartitionedCall/yolov8_detector_1/functional_1/stack3_c2f_output_1/Sigmoid", "op": "Sigmoid", "input": ["StatefulPartitionedCall/yolov8_detector_1/functional_1/stack3_c2f_output_bn_1/batchnorm/add_1"], "attr": {"T": {"type": "DT_FLOAT"}}}, {"name": "StatefulPartitionedCall/yolov8_detector_1/functional_1/stack3_c2f_output_1/mul_1", "op": "Mul", "input": ["StatefulPartitionedCall/yolov8_detector_1/functional_1/stack3_c2f_output_bn_1/batchnorm/add_1", "StatefulPartitionedCall/yolov8_detector_1/functional_1/stack3_c2f_output_1/Sigmoid"], "attr": {"T": {"type": "DT_FLOAT"}}}, {"name": "StatefulPartitionedCall/yolov8_detector_1/functional_1/stack4_downsample_pad_1/Pad", "op": "Pad", "input": ["StatefulPartitionedCall/yolov8_detector_1/functional_1/stack3_c2f_output_1/mul_1", "StatefulPartitionedCall/yolov8_detector_1/functional_1/stack4_downsample_pad_1/Const"], "attr": {"Tpaddings": {"type": "DT_INT32"}, "T": {"type": "DT_FLOAT"}}}, {"name": "StatefulPartitionedCall/yolov8_detector_1/functional_1/stack4_downsample_bn_1/batchnorm/add_1", "op": "_FusedConv2D", "input": ["StatefulPartitionedCall/yolov8_detector_1/functional_1/stack4_downsample_pad_1/Pad", "StatefulPartitionedCall/yolov8_detector_1/functional_1/stack4_downsample_conv_1/convolution/merged_input", "StatefulPartitionedCall/yolov8_detector_1/functional_1/stack4_downsample_bn_1/batchnorm/sub"], "device": "/device:CPU:0", "attr": {"num_host_args": {"i": "0"}, "strides": {"list": {"i": ["1", "2", "2", "1"]}}, "use_cudnn_on_gpu": {"b": true}, "data_format": {"s": "TkhXQw=="}, "dilations": {"list": {"i": ["1", "1", "1", "1"]}}, "num_args": {"i": "1"}, "explicit_paddings": {"list": {}}, "TArgs": {"list": {"type": ["DT_FLOAT"]}}, "fused_ops": {"list": {"s": ["Qmlhc0FkZA=="]}}, "epsilon": {"f": 0.0}, "padding": {"s": "VkFMSUQ="}, "T": {"type": "DT_FLOAT"}, "leakyrelu_alpha": {"f": 0.2}, "filter_format": {"s": "SFdJTw=="}}}, {"name": "StatefulPartitionedCall/yolov8_detector_1/functional_1/stack4_downsample_1/Sigmoid", "op": "Sigmoid", "input": ["StatefulPartitionedCall/yolov8_detector_1/functional_1/stack4_downsample_bn_1/batchnorm/add_1"], "attr": {"T": {"type": "DT_FLOAT"}}}, {"name": "StatefulPartitionedCall/yolov8_detector_1/functional_1/stack4_downsample_1/mul_1", "op": "Mul", "input": ["StatefulPartitionedCall/yolov8_detector_1/functional_1/stack4_downsample_bn_1/batchnorm/add_1", "StatefulPartitionedCall/yolov8_detector_1/functional_1/stack4_downsample_1/Sigmoid"], "attr": {"T": {"type": "DT_FLOAT"}}}, {"name": "StatefulPartitionedCall/yolov8_detector_1/functional_1/stack4_c2f_pre_bn_1/batchnorm/add_1", "op": "_FusedConv2D", "input": ["StatefulPartitionedCall/yolov8_detector_1/functional_1/stack4_downsample_1/mul_1", "StatefulPartitionedCall/yolov8_detector_1/functional_1/stack4_c2f_pre_conv_1/convolution/merged_input", "StatefulPartitionedCall/yolov8_detector_1/functional_1/stack4_c2f_pre_bn_1/batchnorm/sub"], "device": "/device:CPU:0", "attr": {"dilations": {"list": {"i": ["1", "1", "1", "1"]}}, "strides": {"list": {"i": ["1", "1", "1", "1"]}}, "use_cudnn_on_gpu": {"b": true}, "data_format": {"s": "TkhXQw=="}, "num_host_args": {"i": "0"}, "num_args": {"i": "1"}, "fused_ops": {"list": {"s": ["Qmlhc0FkZA=="]}}, "TArgs": {"list": {"type": ["DT_FLOAT"]}}, "explicit_paddings": {"list": {}}, "epsilon": {"f": 0.0}, "padding": {"s": "VkFMSUQ="}, "T": {"type": "DT_FLOAT"}, "leakyrelu_alpha": {"f": 0.2}, "filter_format": {"s": "SFdJTw=="}}}, {"name": "StatefulPartitionedCall/yolov8_detector_1/functional_1/stack4_c2f_pre_1/Sigmoid", "op": "Sigmoid", "input": ["StatefulPartitionedCall/yolov8_detector_1/functional_1/stack4_c2f_pre_bn_1/batchnorm/add_1"], "attr": {"T": {"type": "DT_FLOAT"}}}, {"name": "StatefulPartitionedCall/yolov8_detector_1/functional_1/stack4_c2f_pre_1/mul_1", "op": "Mul", "input": ["StatefulPartitionedCall/yolov8_detector_1/functional_1/stack4_c2f_pre_bn_1/batchnorm/add_1", "StatefulPartitionedCall/yolov8_detector_1/functional_1/stack4_c2f_pre_1/Sigmoid"], "attr": {"T": {"type": "DT_FLOAT"}}}, {"name": "StatefulPartitionedCall/yolov8_detector_1/functional_1/split_3", "op": "Split", "input": ["StatefulPartitionedCall/yolov8_detector_1/functional_1/split_3/split_dim", "StatefulPartitionedCall/yolov8_detector_1/functional_1/stack4_c2f_pre_1/mul_1"], "attr": {"num_split": {"i": "2"}, "T": {"type": "DT_FLOAT"}}}, {"name": "StatefulPartitionedCall/yolov8_detector_1/functional_1/stack4_c2f_pre_0_1_pad_1/Pad", "op": "Pad", "input": ["StatefulPartitionedCall/yolov8_detector_1/functional_1/split_3:1", "StatefulPartitionedCall/yolov8_detector_1/functional_1/stack4_c2f_pre_0_1_pad_1/Const"], "attr": {"Tpaddings": {"type": "DT_INT32"}, "T": {"type": "DT_FLOAT"}}}, {"name": "StatefulPartitionedCall/yolov8_detector_1/functional_1/stack4_c2f_pre_0_1_bn_1/batchnorm/add_1", "op": "_FusedConv2D", "input": ["StatefulPartitionedCall/yolov8_detector_1/functional_1/stack4_c2f_pre_0_1_pad_1/Pad", "StatefulPartitionedCall/yolov8_detector_1/functional_1/stack4_c2f_pre_0_1_conv_1/convolution/merged_input", "StatefulPartitionedCall/yolov8_detector_1/functional_1/stack4_c2f_pre_0_1_bn_1/batchnorm/sub"], "device": "/device:CPU:0", "attr": {"num_host_args": {"i": "0"}, "strides": {"list": {"i": ["1", "1", "1", "1"]}}, "use_cudnn_on_gpu": {"b": true}, "padding": {"s": "VkFMSUQ="}, "dilations": {"list": {"i": ["1", "1", "1", "1"]}}, "filter_format": {"s": "SFdJTw=="}, "explicit_paddings": {"list": {}}, "TArgs": {"list": {"type": ["DT_FLOAT"]}}, "fused_ops": {"list": {"s": ["Qmlhc0FkZA=="]}}, "epsilon": {"f": 0.0}, "data_format": {"s": "TkhXQw=="}, "T": {"type": "DT_FLOAT"}, "leakyrelu_alpha": {"f": 0.2}, "num_args": {"i": "1"}}}, {"name": "StatefulPartitionedCall/yolov8_detector_1/functional_1/stack4_c2f_pre_0_1_1/Sigmoid", "op": "Sigmoid", "input": ["StatefulPartitionedCall/yolov8_detector_1/functional_1/stack4_c2f_pre_0_1_bn_1/batchnorm/add_1"], "attr": {"T": {"type": "DT_FLOAT"}}}, {"name": "StatefulPartitionedCall/yolov8_detector_1/functional_1/stack4_c2f_pre_0_1_1/mul_1", "op": "Mul", "input": ["StatefulPartitionedCall/yolov8_detector_1/functional_1/stack4_c2f_pre_0_1_bn_1/batchnorm/add_1", "StatefulPartitionedCall/yolov8_detector_1/functional_1/stack4_c2f_pre_0_1_1/Sigmoid"], "attr": {"T": {"type": "DT_FLOAT"}}}, {"name": "StatefulPartitionedCall/yolov8_detector_1/functional_1/stack4_c2f_pre_0_2_pad_1/Pad", "op": "Pad", "input": ["StatefulPartitionedCall/yolov8_detector_1/functional_1/stack4_c2f_pre_0_1_1/mul_1", "StatefulPartitionedCall/yolov8_detector_1/functional_1/stack4_c2f_pre_0_2_pad_1/Const"], "attr": {"Tpaddings": {"type": "DT_INT32"}, "T": {"type": "DT_FLOAT"}}}, {"name": "StatefulPartitionedCall/yolov8_detector_1/functional_1/stack4_c2f_pre_0_2_bn_1/batchnorm/add_1", "op": "_FusedConv2D", "input": ["StatefulPartitionedCall/yolov8_detector_1/functional_1/stack4_c2f_pre_0_2_pad_1/Pad", "StatefulPartitionedCall/yolov8_detector_1/functional_1/stack4_c2f_pre_0_2_conv_1/convolution/merged_input", "StatefulPartitionedCall/yolov8_detector_1/functional_1/stack4_c2f_pre_0_2_bn_1/batchnorm/sub"], "device": "/device:CPU:0", "attr": {"dilations": {"list": {"i": ["1", "1", "1", "1"]}}, "strides": {"list": {"i": ["1", "1", "1", "1"]}}, "use_cudnn_on_gpu": {"b": true}, "padding": {"s": "VkFMSUQ="}, "num_host_args": {"i": "0"}, "filter_format": {"s": "SFdJTw=="}, "fused_ops": {"list": {"s": ["Qmlhc0FkZA=="]}}, "TArgs": {"list": {"type": ["DT_FLOAT"]}}, "explicit_paddings": {"list": {}}, "epsilon": {"f": 0.0}, "data_format": {"s": "TkhXQw=="}, "T": {"type": "DT_FLOAT"}, "leakyrelu_alpha": {"f": 0.2}, "num_args": {"i": "1"}}}, {"name": "StatefulPartitionedCall/yolov8_detector_1/functional_1/stack4_c2f_pre_0_2_1/Sigmoid", "op": "Sigmoid", "input": ["StatefulPartitionedCall/yolov8_detector_1/functional_1/stack4_c2f_pre_0_2_bn_1/batchnorm/add_1"], "attr": {"T": {"type": "DT_FLOAT"}}}, {"name": "StatefulPartitionedCall/yolov8_detector_1/functional_1/stack4_c2f_pre_0_2_1/mul_1", "op": "Mul", "input": ["StatefulPartitionedCall/yolov8_detector_1/functional_1/stack4_c2f_pre_0_2_bn_1/batchnorm/add_1", "StatefulPartitionedCall/yolov8_detector_1/functional_1/stack4_c2f_pre_0_2_1/Sigmoid"], "attr": {"T": {"type": "DT_FLOAT"}}}, {"name": "StatefulPartitionedCall/yolov8_detector_1/functional_1/Add_5", "op": "AddV2", "input": ["StatefulPartitionedCall/yolov8_detector_1/functional_1/split_3:1", "StatefulPartitionedCall/yolov8_detector_1/functional_1/stack4_c2f_pre_0_2_1/mul_1"], "attr": {"T": {"type": "DT_FLOAT"}}}, {"name": "StatefulPartitionedCall/yolov8_detector_1/functional_1/concat_3", "op": "ConcatV2", "input": ["StatefulPartitionedCall/yolov8_detector_1/functional_1/split_3", "StatefulPartitionedCall/yolov8_detector_1/functional_1/split_3:1", "StatefulPartitionedCall/yolov8_detector_1/functional_1/Add_5", "StatefulPartitionedCall/yolov8_detector_1/functional_1/concat_3/axis"], "attr": {"Tidx": {"type": "DT_INT32"}, "N": {"i": "3"}, "T": {"type": "DT_FLOAT"}}}, {"name": "StatefulPartitionedCall/yolov8_detector_1/functional_1/stack4_c2f_output_bn_1/batchnorm/add_1", "op": "_FusedConv2D", "input": ["StatefulPartitionedCall/yolov8_detector_1/functional_1/concat_3", "StatefulPartitionedCall/yolov8_detector_1/functional_1/stack4_c2f_output_conv_1/convolution/merged_input", "StatefulPartitionedCall/yolov8_detector_1/functional_1/stack4_c2f_output_bn_1/batchnorm/sub"], "device": "/device:CPU:0", "attr": {"dilations": {"list": {"i": ["1", "1", "1", "1"]}}, "strides": {"list": {"i": ["1", "1", "1", "1"]}}, "use_cudnn_on_gpu": {"b": true}, "data_format": {"s": "TkhXQw=="}, "num_host_args": {"i": "0"}, "num_args": {"i": "1"}, "explicit_paddings": {"list": {}}, "TArgs": {"list": {"type": ["DT_FLOAT"]}}, "fused_ops": {"list": {"s": ["Qmlhc0FkZA=="]}}, "epsilon": {"f": 0.0}, "padding": {"s": "VkFMSUQ="}, "T": {"type": "DT_FLOAT"}, "leakyrelu_alpha": {"f": 0.2}, "filter_format": {"s": "SFdJTw=="}}}, {"name": "StatefulPartitionedCall/yolov8_detector_1/functional_1/stack4_c2f_output_1/Sigmoid", "op": "Sigmoid", "input": ["StatefulPartitionedCall/yolov8_detector_1/functional_1/stack4_c2f_output_bn_1/batchnorm/add_1"], "attr": {"T": {"type": "DT_FLOAT"}}}, {"name": "StatefulPartitionedCall/yolov8_detector_1/functional_1/stack4_c2f_output_1/mul_1", "op": "Mul", "input": ["StatefulPartitionedCall/yolov8_detector_1/functional_1/stack4_c2f_output_bn_1/batchnorm/add_1", "StatefulPartitionedCall/yolov8_detector_1/functional_1/stack4_c2f_output_1/Sigmoid"], "attr": {"T": {"type": "DT_FLOAT"}}}, {"name": "StatefulPartitionedCall/yolov8_detector_1/functional_1/stack4_spp_fast_pre_bn_1/batchnorm/add_1", "op": "_FusedConv2D", "input": ["StatefulPartitionedCall/yolov8_detector_1/functional_1/stack4_c2f_output_1/mul_1", "StatefulPartitionedCall/yolov8_detector_1/functional_1/stack4_spp_fast_pre_conv_1/convolution/merged_input", "StatefulPartitionedCall/yolov8_detector_1/functional_1/stack4_spp_fast_pre_bn_1/batchnorm/sub"], "device": "/device:CPU:0", "attr": {"dilations": {"list": {"i": ["1", "1", "1", "1"]}}, "strides": {"list": {"i": ["1", "1", "1", "1"]}}, "use_cudnn_on_gpu": {"b": true}, "padding": {"s": "VkFMSUQ="}, "num_host_args": {"i": "0"}, "num_args": {"i": "1"}, "explicit_paddings": {"list": {}}, "TArgs": {"list": {"type": ["DT_FLOAT"]}}, "fused_ops": {"list": {"s": ["Qmlhc0FkZA=="]}}, "epsilon": {"f": 0.0}, "data_format": {"s": "TkhXQw=="}, "T": {"type": "DT_FLOAT"}, "leakyrelu_alpha": {"f": 0.2}, "filter_format": {"s": "SFdJTw=="}}}, {"name": "StatefulPartitionedCall/yolov8_detector_1/functional_1/stack4_spp_fast_pre_1/Sigmoid", "op": "Sigmoid", "input": ["StatefulPartitionedCall/yolov8_detector_1/functional_1/stack4_spp_fast_pre_bn_1/batchnorm/add_1"], "attr": {"T": {"type": "DT_FLOAT"}}}, {"name": "StatefulPartitionedCall/yolov8_detector_1/functional_1/stack4_spp_fast_pre_1/mul_1", "op": "Mul", "input": ["StatefulPartitionedCall/yolov8_detector_1/functional_1/stack4_spp_fast_pre_bn_1/batchnorm/add_1", "StatefulPartitionedCall/yolov8_detector_1/functional_1/stack4_spp_fast_pre_1/Sigmoid"], "attr": {"T": {"type": "DT_FLOAT"}}}, {"name": "StatefulPartitionedCall/yolov8_detector_1/functional_1/stack4_spp_fast_pool1_1/MaxPool2d", "op": "MaxPool", "input": ["StatefulPartitionedCall/yolov8_detector_1/functional_1/stack4_spp_fast_pre_1/mul_1"], "attr": {"explicit_paddings": {"list": {}}, "padding": {"s": "U0FNRQ=="}, "data_format": {"s": "TkhXQw=="}, "T": {"type": "DT_FLOAT"}, "strides": {"list": {"i": ["1", "1", "1", "1"]}}, "ksize": {"list": {"i": ["1", "5", "5", "1"]}}}}, {"name": "StatefulPartitionedCall/yolov8_detector_1/functional_1/stack4_spp_fast_pool2_1/MaxPool2d", "op": "MaxPool", "input": ["StatefulPartitionedCall/yolov8_detector_1/functional_1/stack4_spp_fast_pool1_1/MaxPool2d"], "attr": {"explicit_paddings": {"list": {}}, "data_format": {"s": "TkhXQw=="}, "padding": {"s": "U0FNRQ=="}, "T": {"type": "DT_FLOAT"}, "strides": {"list": {"i": ["1", "1", "1", "1"]}}, "ksize": {"list": {"i": ["1", "5", "5", "1"]}}}}, {"name": "StatefulPartitionedCall/yolov8_detector_1/functional_1/stack4_spp_fast_pool3_1/MaxPool2d", "op": "MaxPool", "input": ["StatefulPartitionedCall/yolov8_detector_1/functional_1/stack4_spp_fast_pool2_1/MaxPool2d"], "attr": {"explicit_paddings": {"list": {}}, "padding": {"s": "U0FNRQ=="}, "data_format": {"s": "TkhXQw=="}, "T": {"type": "DT_FLOAT"}, "strides": {"list": {"i": ["1", "1", "1", "1"]}}, "ksize": {"list": {"i": ["1", "5", "5", "1"]}}}}, {"name": "StatefulPartitionedCall/yolov8_detector_1/functional_1/concat_4", "op": "ConcatV2", "input": ["StatefulPartitionedCall/yolov8_detector_1/functional_1/stack4_spp_fast_pre_1/mul_1", "StatefulPartitionedCall/yolov8_detector_1/functional_1/stack4_spp_fast_pool1_1/MaxPool2d", "StatefulPartitionedCall/yolov8_detector_1/functional_1/stack4_spp_fast_pool2_1/MaxPool2d", "StatefulPartitionedCall/yolov8_detector_1/functional_1/stack4_spp_fast_pool3_1/MaxPool2d", "StatefulPartitionedCall/yolov8_detector_1/functional_1/concat_4/axis"], "attr": {"Tidx": {"type": "DT_INT32"}, "N": {"i": "4"}, "T": {"type": "DT_FLOAT"}}}, {"name": "StatefulPartitionedCall/yolov8_detector_1/functional_1/stack4_spp_fast_output_bn_1/batchnorm/add_1", "op": "_FusedConv2D", "input": ["StatefulPartitionedCall/yolov8_detector_1/functional_1/concat_4", "StatefulPartitionedCall/yolov8_detector_1/functional_1/stack4_spp_fast_output_conv_1/convolution/merged_input", "StatefulPartitionedCall/yolov8_detector_1/functional_1/stack4_spp_fast_output_bn_1/batchnorm/sub"], "device": "/device:CPU:0", "attr": {"dilations": {"list": {"i": ["1", "1", "1", "1"]}}, "leakyrelu_alpha": {"f": 0.2}, "use_cudnn_on_gpu": {"b": true}, "padding": {"s": "VkFMSUQ="}, "num_host_args": {"i": "0"}, "filter_format": {"s": "SFdJTw=="}, "fused_ops": {"list": {"s": ["Qmlhc0FkZA=="]}}, "TArgs": {"list": {"type": ["DT_FLOAT"]}}, "explicit_paddings": {"list": {}}, "epsilon": {"f": 0.0}, "data_format": {"s": "TkhXQw=="}, "T": {"type": "DT_FLOAT"}, "strides": {"list": {"i": ["1", "1", "1", "1"]}}, "num_args": {"i": "1"}}}, {"name": "StatefulPartitionedCall/yolov8_detector_1/functional_1/stack4_spp_fast_output_1/Sigmoid", "op": "Sigmoid", "input": ["StatefulPartitionedCall/yolov8_detector_1/functional_1/stack4_spp_fast_output_bn_1/batchnorm/add_1"], "attr": {"T": {"type": "DT_FLOAT"}}}, {"name": "StatefulPartitionedCall/yolov8_detector_1/functional_1/stack4_spp_fast_output_1/mul_1", "op": "Mul", "input": ["StatefulPartitionedCall/yolov8_detector_1/functional_1/stack4_spp_fast_output_bn_1/batchnorm/add_1", "StatefulPartitionedCall/yolov8_detector_1/functional_1/stack4_spp_fast_output_1/Sigmoid"], "attr": {"T": {"type": "DT_FLOAT"}}}, {"name": "StatefulPartitionedCall/yolov8_detector_1/Repeat/ExpandDims", "op": "ExpandDims", "input": ["StatefulPartitionedCall/yolov8_detector_1/functional_1/stack4_spp_fast_output_1/mul_1", "StatefulPartitionedCall/yolov8_detector_1/Repeat/ExpandDims/dim"], "attr": {"T": {"type": "DT_FLOAT"}, "Tdim": {"type": "DT_INT32"}}}, {"name": "StatefulPartitionedCall/yolov8_detector_1/Repeat/Tile", "op": "Tile", "input": ["StatefulPartitionedCall/yolov8_detector_1/Repeat/ExpandDims", "StatefulPartitionedCall/yolov8_detector_1/Repeat/Tile/multiples"], "attr": {"Tmultiples": {"type": "DT_INT32"}, "T": {"type": "DT_FLOAT"}}}, {"name": "StatefulPartitionedCall/yolov8_detector_1/Repeat/Reshape_1", "op": "Reshape", "input": ["StatefulPartitionedCall/yolov8_detector_1/Repeat/Tile", "StatefulPartitionedCall/yolov8_detector_1/Repeat/concat"], "attr": {"Tshape": {"type": "DT_INT32"}, "T": {"type": "DT_FLOAT"}}}, {"name": "StatefulPartitionedCall/yolov8_detector_1/Repeat_1/ExpandDims", "op": "ExpandDims", "input": ["StatefulPartitionedCall/yolov8_detector_1/Repeat/Reshape_1", "StatefulPartitionedCall/yolov8_detector_1/Repeat_1/ExpandDims/dim"], "attr": {"T": {"type": "DT_FLOAT"}, "Tdim": {"type": "DT_INT32"}}}, {"name": "StatefulPartitionedCall/yolov8_detector_1/Repeat_1/Tile", "op": "Tile", "input": ["StatefulPartitionedCall/yolov8_detector_1/Repeat_1/ExpandDims", "StatefulPartitionedCall/yolov8_detector_1/Repeat_1/Tile/multiples"], "attr": {"Tmultiples": {"type": "DT_INT32"}, "T": {"type": "DT_FLOAT"}}}, {"name": "StatefulPartitionedCall/yolov8_detector_1/Repeat_1/Reshape_1", "op": "Reshape", "input": ["StatefulPartitionedCall/yolov8_detector_1/Repeat_1/Tile", "StatefulPartitionedCall/yolov8_detector_1/Repeat_1/concat"], "attr": {"Tshape": {"type": "DT_INT32"}, "T": {"type": "DT_FLOAT"}}}, {"name": "StatefulPartitionedCall/yolov8_detector_1/concat", "op": "ConcatV2", "input": ["StatefulPartitionedCall/yolov8_detector_1/Repeat_1/Reshape_1", "StatefulPartitionedCall/yolov8_detector_1/functional_1/stack3_c2f_output_1/mul_1", "StatefulPartitionedCall/yolov8_detector_1/concat/axis"], "attr": {"Tidx": {"type": "DT_INT32"}, "N": {"i": "2"}, "T": {"type": "DT_FLOAT"}}}, {"name": "StatefulPartitionedCall/yolov8_detector_1/pa_fpn_p4p5_pre_bn_1/batchnorm/add_1", "op": "_FusedConv2D", "input": ["StatefulPartitionedCall/yolov8_detector_1/concat", "StatefulPartitionedCall/yolov8_detector_1/pa_fpn_p4p5_pre_conv_1/convolution/merged_input", "StatefulPartitionedCall/yolov8_detector_1/pa_fpn_p4p5_pre_bn_1/batchnorm/sub"], "device": "/device:CPU:0", "attr": {"dilations": {"list": {"i": ["1", "1", "1", "1"]}}, "leakyrelu_alpha": {"f": 0.2}, "use_cudnn_on_gpu": {"b": true}, "padding": {"s": "VkFMSUQ="}, "num_host_args": {"i": "0"}, "filter_format": {"s": "SFdJTw=="}, "fused_ops": {"list": {"s": ["Qmlhc0FkZA=="]}}, "TArgs": {"list": {"type": ["DT_FLOAT"]}}, "explicit_paddings": {"list": {}}, "epsilon": {"f": 0.0}, "data_format": {"s": "TkhXQw=="}, "T": {"type": "DT_FLOAT"}, "strides": {"list": {"i": ["1", "1", "1", "1"]}}, "num_args": {"i": "1"}}}, {"name": "StatefulPartitionedCall/yolov8_detector_1/pa_fpn_p4p5_pre_1/Sigmoid", "op": "Sigmoid", "input": ["StatefulPartitionedCall/yolov8_detector_1/pa_fpn_p4p5_pre_bn_1/batchnorm/add_1"], "attr": {"T": {"type": "DT_FLOAT"}}}, {"name": "StatefulPartitionedCall/yolov8_detector_1/pa_fpn_p4p5_pre_1/mul_1", "op": "Mul", "input": ["StatefulPartitionedCall/yolov8_detector_1/pa_fpn_p4p5_pre_bn_1/batchnorm/add_1", "StatefulPartitionedCall/yolov8_detector_1/pa_fpn_p4p5_pre_1/Sigmoid"], "attr": {"T": {"type": "DT_FLOAT"}}}, {"name": "StatefulPartitionedCall/yolov8_detector_1/split", "op": "Split", "input": ["StatefulPartitionedCall/yolov8_detector_1/split/split_dim", "StatefulPartitionedCall/yolov8_detector_1/pa_fpn_p4p5_pre_1/mul_1"], "attr": {"T": {"type": "DT_FLOAT"}, "num_split": {"i": "2"}}}, {"name": "StatefulPartitionedCall/yolov8_detector_1/pa_fpn_p4p5_pre_0_1_pad_1/Pad", "op": "Pad", "input": ["StatefulPartitionedCall/yolov8_detector_1/split:1", "StatefulPartitionedCall/yolov8_detector_1/pa_fpn_p4p5_pre_0_1_pad_1/Const"], "attr": {"Tpaddings": {"type": "DT_INT32"}, "T": {"type": "DT_FLOAT"}}}, {"name": "StatefulPartitionedCall/yolov8_detector_1/pa_fpn_p4p5_pre_0_1_bn_1/batchnorm/add_1", "op": "_FusedConv2D", "input": ["StatefulPartitionedCall/yolov8_detector_1/pa_fpn_p4p5_pre_0_1_pad_1/Pad", "StatefulPartitionedCall/yolov8_detector_1/pa_fpn_p4p5_pre_0_1_conv_1/convolution/merged_input", "StatefulPartitionedCall/yolov8_detector_1/pa_fpn_p4p5_pre_0_1_bn_1/batchnorm/sub"], "device": "/device:CPU:0", "attr": {"dilations": {"list": {"i": ["1", "1", "1", "1"]}}, "strides": {"list": {"i": ["1", "1", "1", "1"]}}, "use_cudnn_on_gpu": {"b": true}, "padding": {"s": "VkFMSUQ="}, "num_host_args": {"i": "0"}, "filter_format": {"s": "SFdJTw=="}, "fused_ops": {"list": {"s": ["Qmlhc0FkZA=="]}}, "TArgs": {"list": {"type": ["DT_FLOAT"]}}, "explicit_paddings": {"list": {}}, "epsilon": {"f": 0.0}, "data_format": {"s": "TkhXQw=="}, "T": {"type": "DT_FLOAT"}, "leakyrelu_alpha": {"f": 0.2}, "num_args": {"i": "1"}}}, {"name": "StatefulPartitionedCall/yolov8_detector_1/pa_fpn_p4p5_pre_0_1_1/Sigmoid", "op": "Sigmoid", "input": ["StatefulPartitionedCall/yolov8_detector_1/pa_fpn_p4p5_pre_0_1_bn_1/batchnorm/add_1"], "attr": {"T": {"type": "DT_FLOAT"}}}, {"name": "StatefulPartitionedCall/yolov8_detector_1/pa_fpn_p4p5_pre_0_1_1/mul_1", "op": "Mul", "input": ["StatefulPartitionedCall/yolov8_detector_1/pa_fpn_p4p5_pre_0_1_bn_1/batchnorm/add_1", "StatefulPartitionedCall/yolov8_detector_1/pa_fpn_p4p5_pre_0_1_1/Sigmoid"], "attr": {"T": {"type": "DT_FLOAT"}}}, {"name": "StatefulPartitionedCall/yolov8_detector_1/pa_fpn_p4p5_pre_0_2_pad_1/Pad", "op": "Pad", "input": ["StatefulPartitionedCall/yolov8_detector_1/pa_fpn_p4p5_pre_0_1_1/mul_1", "StatefulPartitionedCall/yolov8_detector_1/pa_fpn_p4p5_pre_0_2_pad_1/Const"], "attr": {"Tpaddings": {"type": "DT_INT32"}, "T": {"type": "DT_FLOAT"}}}, {"name": "StatefulPartitionedCall/yolov8_detector_1/pa_fpn_p4p5_pre_0_2_bn_1/batchnorm/add_1", "op": "_FusedConv2D", "input": ["StatefulPartitionedCall/yolov8_detector_1/pa_fpn_p4p5_pre_0_2_pad_1/Pad", "StatefulPartitionedCall/yolov8_detector_1/pa_fpn_p4p5_pre_0_2_conv_1/convolution/merged_input", "StatefulPartitionedCall/yolov8_detector_1/pa_fpn_p4p5_pre_0_2_bn_1/batchnorm/sub"], "device": "/device:CPU:0", "attr": {"dilations": {"list": {"i": ["1", "1", "1", "1"]}}, "leakyrelu_alpha": {"f": 0.2}, "use_cudnn_on_gpu": {"b": true}, "data_format": {"s": "TkhXQw=="}, "num_host_args": {"i": "0"}, "num_args": {"i": "1"}, "fused_ops": {"list": {"s": ["Qmlhc0FkZA=="]}}, "TArgs": {"list": {"type": ["DT_FLOAT"]}}, "explicit_paddings": {"list": {}}, "epsilon": {"f": 0.0}, "padding": {"s": "VkFMSUQ="}, "T": {"type": "DT_FLOAT"}, "strides": {"list": {"i": ["1", "1", "1", "1"]}}, "filter_format": {"s": "SFdJTw=="}}}, {"name": "StatefulPartitionedCall/yolov8_detector_1/pa_fpn_p4p5_pre_0_2_1/Sigmoid", "op": "Sigmoid", "input": ["StatefulPartitionedCall/yolov8_detector_1/pa_fpn_p4p5_pre_0_2_bn_1/batchnorm/add_1"], "attr": {"T": {"type": "DT_FLOAT"}}}, {"name": "StatefulPartitionedCall/yolov8_detector_1/pa_fpn_p4p5_pre_0_2_1/mul_1", "op": "Mul", "input": ["StatefulPartitionedCall/yolov8_detector_1/pa_fpn_p4p5_pre_0_2_bn_1/batchnorm/add_1", "StatefulPartitionedCall/yolov8_detector_1/pa_fpn_p4p5_pre_0_2_1/Sigmoid"], "attr": {"T": {"type": "DT_FLOAT"}}}, {"name": "StatefulPartitionedCall/yolov8_detector_1/concat_1", "op": "ConcatV2", "input": ["StatefulPartitionedCall/yolov8_detector_1/split", "StatefulPartitionedCall/yolov8_detector_1/split:1", "StatefulPartitionedCall/yolov8_detector_1/pa_fpn_p4p5_pre_0_2_1/mul_1", "StatefulPartitionedCall/yolov8_detector_1/concat_1/axis"], "attr": {"Tidx": {"type": "DT_INT32"}, "N": {"i": "3"}, "T": {"type": "DT_FLOAT"}}}, {"name": "StatefulPartitionedCall/yolov8_detector_1/pa_fpn_p4p5_output_bn_1/batchnorm/add_1", "op": "_FusedConv2D", "input": ["StatefulPartitionedCall/yolov8_detector_1/concat_1", "StatefulPartitionedCall/yolov8_detector_1/pa_fpn_p4p5_output_conv_1/convolution/merged_input", "StatefulPartitionedCall/yolov8_detector_1/pa_fpn_p4p5_output_bn_1/batchnorm/sub"], "device": "/device:CPU:0", "attr": {"dilations": {"list": {"i": ["1", "1", "1", "1"]}}, "leakyrelu_alpha": {"f": 0.2}, "use_cudnn_on_gpu": {"b": true}, "data_format": {"s": "TkhXQw=="}, "num_host_args": {"i": "0"}, "num_args": {"i": "1"}, "explicit_paddings": {"list": {}}, "TArgs": {"list": {"type": ["DT_FLOAT"]}}, "fused_ops": {"list": {"s": ["Qmlhc0FkZA=="]}}, "epsilon": {"f": 0.0}, "padding": {"s": "VkFMSUQ="}, "T": {"type": "DT_FLOAT"}, "strides": {"list": {"i": ["1", "1", "1", "1"]}}, "filter_format": {"s": "SFdJTw=="}}}, {"name": "StatefulPartitionedCall/yolov8_detector_1/pa_fpn_p4p5_output_1/Sigmoid", "op": "Sigmoid", "input": ["StatefulPartitionedCall/yolov8_detector_1/pa_fpn_p4p5_output_bn_1/batchnorm/add_1"], "attr": {"T": {"type": "DT_FLOAT"}}}, {"name": "StatefulPartitionedCall/yolov8_detector_1/pa_fpn_p4p5_output_1/mul_1", "op": "Mul", "input": ["StatefulPartitionedCall/yolov8_detector_1/pa_fpn_p4p5_output_bn_1/batchnorm/add_1", "StatefulPartitionedCall/yolov8_detector_1/pa_fpn_p4p5_output_1/Sigmoid"], "attr": {"T": {"type": "DT_FLOAT"}}}, {"name": "StatefulPartitionedCall/yolov8_detector_1/Repeat_2/ExpandDims", "op": "ExpandDims", "input": ["StatefulPartitionedCall/yolov8_detector_1/pa_fpn_p4p5_output_1/mul_1", "StatefulPartitionedCall/yolov8_detector_1/Repeat_2/ExpandDims/dim"], "attr": {"T": {"type": "DT_FLOAT"}, "Tdim": {"type": "DT_INT32"}}}, {"name": "StatefulPartitionedCall/yolov8_detector_1/Repeat_2/Tile", "op": "Tile", "input": ["StatefulPartitionedCall/yolov8_detector_1/Repeat_2/ExpandDims", "StatefulPartitionedCall/yolov8_detector_1/Repeat_2/Tile/multiples"], "attr": {"Tmultiples": {"type": "DT_INT32"}, "T": {"type": "DT_FLOAT"}}}, {"name": "StatefulPartitionedCall/yolov8_detector_1/Repeat_2/Reshape_1", "op": "Reshape", "input": ["StatefulPartitionedCall/yolov8_detector_1/Repeat_2/Tile", "StatefulPartitionedCall/yolov8_detector_1/Repeat_2/concat"], "attr": {"Tshape": {"type": "DT_INT32"}, "T": {"type": "DT_FLOAT"}}}, {"name": "StatefulPartitionedCall/yolov8_detector_1/Repeat_3/ExpandDims", "op": "ExpandDims", "input": ["StatefulPartitionedCall/yolov8_detector_1/Repeat_2/Reshape_1", "StatefulPartitionedCall/yolov8_detector_1/Repeat_3/ExpandDims/dim"], "attr": {"Tdim": {"type": "DT_INT32"}, "T": {"type": "DT_FLOAT"}}}, {"name": "StatefulPartitionedCall/yolov8_detector_1/Repeat_3/Tile", "op": "Tile", "input": ["StatefulPartitionedCall/yolov8_detector_1/Repeat_3/ExpandDims", "StatefulPartitionedCall/yolov8_detector_1/Repeat_3/Tile/multiples"], "attr": {"Tmultiples": {"type": "DT_INT32"}, "T": {"type": "DT_FLOAT"}}}, {"name": "StatefulPartitionedCall/yolov8_detector_1/Repeat_3/Reshape_1", "op": "Reshape", "input": ["StatefulPartitionedCall/yolov8_detector_1/Repeat_3/Tile", "StatefulPartitionedCall/yolov8_detector_1/Repeat_3/concat"], "attr": {"Tshape": {"type": "DT_INT32"}, "T": {"type": "DT_FLOAT"}}}, {"name": "StatefulPartitionedCall/yolov8_detector_1/concat_2", "op": "ConcatV2", "input": ["StatefulPartitionedCall/yolov8_detector_1/Repeat_3/Reshape_1", "StatefulPartitionedCall/yolov8_detector_1/functional_1/stack2_c2f_output_1/mul_1", "StatefulPartitionedCall/yolov8_detector_1/concat_2/axis"], "attr": {"Tidx": {"type": "DT_INT32"}, "N": {"i": "2"}, "T": {"type": "DT_FLOAT"}}}, {"name": "StatefulPartitionedCall/yolov8_detector_1/pa_fpn_p3p4p5_pre_bn_1/batchnorm/add_1", "op": "_FusedConv2D", "input": ["StatefulPartitionedCall/yolov8_detector_1/concat_2", "StatefulPartitionedCall/yolov8_detector_1/pa_fpn_p3p4p5_pre_conv_1/convolution/merged_input", "StatefulPartitionedCall/yolov8_detector_1/pa_fpn_p3p4p5_pre_bn_1/batchnorm/sub"], "device": "/device:CPU:0", "attr": {"dilations": {"list": {"i": ["1", "1", "1", "1"]}}, "leakyrelu_alpha": {"f": 0.2}, "use_cudnn_on_gpu": {"b": true}, "padding": {"s": "VkFMSUQ="}, "num_host_args": {"i": "0"}, "filter_format": {"s": "SFdJTw=="}, "explicit_paddings": {"list": {}}, "TArgs": {"list": {"type": ["DT_FLOAT"]}}, "fused_ops": {"list": {"s": ["Qmlhc0FkZA=="]}}, "epsilon": {"f": 0.0}, "data_format": {"s": "TkhXQw=="}, "T": {"type": "DT_FLOAT"}, "strides": {"list": {"i": ["1", "1", "1", "1"]}}, "num_args": {"i": "1"}}}, {"name": "StatefulPartitionedCall/yolov8_detector_1/pa_fpn_p3p4p5_pre_1/Sigmoid", "op": "Sigmoid", "input": ["StatefulPartitionedCall/yolov8_detector_1/pa_fpn_p3p4p5_pre_bn_1/batchnorm/add_1"], "attr": {"T": {"type": "DT_FLOAT"}}}, {"name": "StatefulPartitionedCall/yolov8_detector_1/pa_fpn_p3p4p5_pre_1/mul_1", "op": "Mul", "input": ["StatefulPartitionedCall/yolov8_detector_1/pa_fpn_p3p4p5_pre_bn_1/batchnorm/add_1", "StatefulPartitionedCall/yolov8_detector_1/pa_fpn_p3p4p5_pre_1/Sigmoid"], "attr": {"T": {"type": "DT_FLOAT"}}}, {"name": "StatefulPartitionedCall/yolov8_detector_1/split_1", "op": "Split", "input": ["StatefulPartitionedCall/yolov8_detector_1/split_1/split_dim", "StatefulPartitionedCall/yolov8_detector_1/pa_fpn_p3p4p5_pre_1/mul_1"], "attr": {"T": {"type": "DT_FLOAT"}, "num_split": {"i": "2"}}}, {"name": "StatefulPartitionedCall/yolov8_detector_1/pa_fpn_p3p4p5_pre_0_1_pad_1/Pad", "op": "Pad", "input": ["StatefulPartitionedCall/yolov8_detector_1/split_1:1", "StatefulPartitionedCall/yolov8_detector_1/pa_fpn_p3p4p5_pre_0_1_pad_1/Const"], "attr": {"Tpaddings": {"type": "DT_INT32"}, "T": {"type": "DT_FLOAT"}}}, {"name": "StatefulPartitionedCall/yolov8_detector_1/pa_fpn_p3p4p5_pre_0_1_bn_1/batchnorm/add_1", "op": "_FusedConv2D", "input": ["StatefulPartitionedCall/yolov8_detector_1/pa_fpn_p3p4p5_pre_0_1_pad_1/Pad", "StatefulPartitionedCall/yolov8_detector_1/pa_fpn_p3p4p5_pre_0_1_conv_1/convolution/merged_input", "StatefulPartitionedCall/yolov8_detector_1/pa_fpn_p3p4p5_pre_0_1_bn_1/batchnorm/sub"], "device": "/device:CPU:0", "attr": {"dilations": {"list": {"i": ["1", "1", "1", "1"]}}, "strides": {"list": {"i": ["1", "1", "1", "1"]}}, "use_cudnn_on_gpu": {"b": true}, "padding": {"s": "VkFMSUQ="}, "num_host_args": {"i": "0"}, "filter_format": {"s": "SFdJTw=="}, "fused_ops": {"list": {"s": ["Qmlhc0FkZA=="]}}, "TArgs": {"list": {"type": ["DT_FLOAT"]}}, "explicit_paddings": {"list": {}}, "epsilon": {"f": 0.0}, "data_format": {"s": "TkhXQw=="}, "T": {"type": "DT_FLOAT"}, "leakyrelu_alpha": {"f": 0.2}, "num_args": {"i": "1"}}}, {"name": "StatefulPartitionedCall/yolov8_detector_1/pa_fpn_p3p4p5_pre_0_1_1/Sigmoid", "op": "Sigmoid", "input": ["StatefulPartitionedCall/yolov8_detector_1/pa_fpn_p3p4p5_pre_0_1_bn_1/batchnorm/add_1"], "attr": {"T": {"type": "DT_FLOAT"}}}, {"name": "StatefulPartitionedCall/yolov8_detector_1/pa_fpn_p3p4p5_pre_0_1_1/mul_1", "op": "Mul", "input": ["StatefulPartitionedCall/yolov8_detector_1/pa_fpn_p3p4p5_pre_0_1_bn_1/batchnorm/add_1", "StatefulPartitionedCall/yolov8_detector_1/pa_fpn_p3p4p5_pre_0_1_1/Sigmoid"], "attr": {"T": {"type": "DT_FLOAT"}}}, {"name": "StatefulPartitionedCall/yolov8_detector_1/pa_fpn_p3p4p5_pre_0_2_pad_1/Pad", "op": "Pad", "input": ["StatefulPartitionedCall/yolov8_detector_1/pa_fpn_p3p4p5_pre_0_1_1/mul_1", "StatefulPartitionedCall/yolov8_detector_1/pa_fpn_p3p4p5_pre_0_2_pad_1/Const"], "attr": {"Tpaddings": {"type": "DT_INT32"}, "T": {"type": "DT_FLOAT"}}}, {"name": "StatefulPartitionedCall/yolov8_detector_1/pa_fpn_p3p4p5_pre_0_2_bn_1/batchnorm/add_1", "op": "_FusedConv2D", "input": ["StatefulPartitionedCall/yolov8_detector_1/pa_fpn_p3p4p5_pre_0_2_pad_1/Pad", "StatefulPartitionedCall/yolov8_detector_1/pa_fpn_p3p4p5_pre_0_2_conv_1/convolution/merged_input", "StatefulPartitionedCall/yolov8_detector_1/pa_fpn_p3p4p5_pre_0_2_bn_1/batchnorm/sub"], "device": "/device:CPU:0", "attr": {"num_host_args": {"i": "0"}, "strides": {"list": {"i": ["1", "1", "1", "1"]}}, "use_cudnn_on_gpu": {"b": true}, "padding": {"s": "VkFMSUQ="}, "dilations": {"list": {"i": ["1", "1", "1", "1"]}}, "num_args": {"i": "1"}, "explicit_paddings": {"list": {}}, "TArgs": {"list": {"type": ["DT_FLOAT"]}}, "fused_ops": {"list": {"s": ["Qmlhc0FkZA=="]}}, "epsilon": {"f": 0.0}, "data_format": {"s": "TkhXQw=="}, "T": {"type": "DT_FLOAT"}, "leakyrelu_alpha": {"f": 0.2}, "filter_format": {"s": "SFdJTw=="}}}, {"name": "StatefulPartitionedCall/yolov8_detector_1/pa_fpn_p3p4p5_pre_0_2_1/Sigmoid", "op": "Sigmoid", "input": ["StatefulPartitionedCall/yolov8_detector_1/pa_fpn_p3p4p5_pre_0_2_bn_1/batchnorm/add_1"], "attr": {"T": {"type": "DT_FLOAT"}}}, {"name": "StatefulPartitionedCall/yolov8_detector_1/pa_fpn_p3p4p5_pre_0_2_1/mul_1", "op": "Mul", "input": ["StatefulPartitionedCall/yolov8_detector_1/pa_fpn_p3p4p5_pre_0_2_bn_1/batchnorm/add_1", "StatefulPartitionedCall/yolov8_detector_1/pa_fpn_p3p4p5_pre_0_2_1/Sigmoid"], "attr": {"T": {"type": "DT_FLOAT"}}}, {"name": "StatefulPartitionedCall/yolov8_detector_1/concat_3", "op": "ConcatV2", "input": ["StatefulPartitionedCall/yolov8_detector_1/split_1", "StatefulPartitionedCall/yolov8_detector_1/split_1:1", "StatefulPartitionedCall/yolov8_detector_1/pa_fpn_p3p4p5_pre_0_2_1/mul_1", "StatefulPartitionedCall/yolov8_detector_1/concat_3/axis"], "attr": {"Tidx": {"type": "DT_INT32"}, "N": {"i": "3"}, "T": {"type": "DT_FLOAT"}}}, {"name": "StatefulPartitionedCall/yolov8_detector_1/pa_fpn_p3p4p5_output_bn_1/batchnorm/add_1", "op": "_FusedConv2D", "input": ["StatefulPartitionedCall/yolov8_detector_1/concat_3", "StatefulPartitionedCall/yolov8_detector_1/pa_fpn_p3p4p5_output_conv_1/convolution/merged_input", "StatefulPartitionedCall/yolov8_detector_1/pa_fpn_p3p4p5_output_bn_1/batchnorm/sub"], "device": "/device:CPU:0", "attr": {"dilations": {"list": {"i": ["1", "1", "1", "1"]}}, "leakyrelu_alpha": {"f": 0.2}, "use_cudnn_on_gpu": {"b": true}, "data_format": {"s": "TkhXQw=="}, "num_host_args": {"i": "0"}, "filter_format": {"s": "SFdJTw=="}, "fused_ops": {"list": {"s": ["Qmlhc0FkZA=="]}}, "TArgs": {"list": {"type": ["DT_FLOAT"]}}, "explicit_paddings": {"list": {}}, "epsilon": {"f": 0.0}, "padding": {"s": "VkFMSUQ="}, "T": {"type": "DT_FLOAT"}, "strides": {"list": {"i": ["1", "1", "1", "1"]}}, "num_args": {"i": "1"}}}, {"name": "StatefulPartitionedCall/yolov8_detector_1/pa_fpn_p3p4p5_output_1/Sigmoid", "op": "Sigmoid", "input": ["StatefulPartitionedCall/yolov8_detector_1/pa_fpn_p3p4p5_output_bn_1/batchnorm/add_1"], "attr": {"T": {"type": "DT_FLOAT"}}}, {"name": "StatefulPartitionedCall/yolov8_detector_1/pa_fpn_p3p4p5_output_1/mul_1", "op": "Mul", "input": ["StatefulPartitionedCall/yolov8_detector_1/pa_fpn_p3p4p5_output_bn_1/batchnorm/add_1", "StatefulPartitionedCall/yolov8_detector_1/pa_fpn_p3p4p5_output_1/Sigmoid"], "attr": {"T": {"type": "DT_FLOAT"}}}, {"name": "StatefulPartitionedCall/yolov8_detector_1/yolo_v8_head_1_box_1_pad_1/Pad", "op": "Pad", "input": ["StatefulPartitionedCall/yolov8_detector_1/pa_fpn_p3p4p5_output_1/mul_1", "StatefulPartitionedCall/yolov8_detector_1/yolo_v8_head_1_box_1_pad_1/Const"], "attr": {"Tpaddings": {"type": "DT_INT32"}, "T": {"type": "DT_FLOAT"}}}, {"name": "StatefulPartitionedCall/yolov8_detector_1/yolo_v8_head_1_class_1_pad_1/Pad", "op": "Pad", "input": ["StatefulPartitionedCall/yolov8_detector_1/pa_fpn_p3p4p5_output_1/mul_1", "StatefulPartitionedCall/yolov8_detector_1/yolo_v8_head_1_class_1_pad_1/Const"], "attr": {"Tpaddings": {"type": "DT_INT32"}, "T": {"type": "DT_FLOAT"}}}, {"name": "StatefulPartitionedCall/yolov8_detector_1/pa_fpn_p3p4p5_downsample1_pad_1/Pad", "op": "Pad", "input": ["StatefulPartitionedCall/yolov8_detector_1/pa_fpn_p3p4p5_output_1/mul_1", "StatefulPartitionedCall/yolov8_detector_1/pa_fpn_p3p4p5_downsample1_pad_1/Const"], "attr": {"Tpaddings": {"type": "DT_INT32"}, "T": {"type": "DT_FLOAT"}}}, {"name": "StatefulPartitionedCall/yolov8_detector_1/yolo_v8_head_1_box_1_bn_1/batchnorm/add_1", "op": "_FusedConv2D", "input": ["StatefulPartitionedCall/yolov8_detector_1/yolo_v8_head_1_box_1_pad_1/Pad", "StatefulPartitionedCall/yolov8_detector_1/yolo_v8_head_1_box_1_conv_1/convolution/merged_input", "StatefulPartitionedCall/yolov8_detector_1/yolo_v8_head_1_box_1_bn_1/batchnorm/sub"], "device": "/device:CPU:0", "attr": {"num_host_args": {"i": "0"}, "leakyrelu_alpha": {"f": 0.2}, "use_cudnn_on_gpu": {"b": true}, "data_format": {"s": "TkhXQw=="}, "dilations": {"list": {"i": ["1", "1", "1", "1"]}}, "filter_format": {"s": "SFdJTw=="}, "fused_ops": {"list": {"s": ["Qmlhc0FkZA=="]}}, "TArgs": {"list": {"type": ["DT_FLOAT"]}}, "explicit_paddings": {"list": {}}, "epsilon": {"f": 0.0}, "padding": {"s": "VkFMSUQ="}, "T": {"type": "DT_FLOAT"}, "strides": {"list": {"i": ["1", "1", "1", "1"]}}, "num_args": {"i": "1"}}}, {"name": "StatefulPartitionedCall/yolov8_detector_1/yolo_v8_head_1_class_1_bn_1/batchnorm/add_1", "op": "_FusedConv2D", "input": ["StatefulPartitionedCall/yolov8_detector_1/yolo_v8_head_1_class_1_pad_1/Pad", "StatefulPartitionedCall/yolov8_detector_1/yolo_v8_head_1_class_1_conv_1/convolution/merged_input", "StatefulPartitionedCall/yolov8_detector_1/yolo_v8_head_1_class_1_bn_1/batchnorm/sub"], "device": "/device:CPU:0", "attr": {"num_host_args": {"i": "0"}, "leakyrelu_alpha": {"f": 0.2}, "use_cudnn_on_gpu": {"b": true}, "data_format": {"s": "TkhXQw=="}, "dilations": {"list": {"i": ["1", "1", "1", "1"]}}, "filter_format": {"s": "SFdJTw=="}, "fused_ops": {"list": {"s": ["Qmlhc0FkZA=="]}}, "TArgs": {"list": {"type": ["DT_FLOAT"]}}, "explicit_paddings": {"list": {}}, "epsilon": {"f": 0.0}, "padding": {"s": "VkFMSUQ="}, "T": {"type": "DT_FLOAT"}, "strides": {"list": {"i": ["1", "1", "1", "1"]}}, "num_args": {"i": "1"}}}, {"name": "StatefulPartitionedCall/yolov8_detector_1/pa_fpn_p3p4p5_downsample1_bn_1/batchnorm/add_1", "op": "_FusedConv2D", "input": ["StatefulPartitionedCall/yolov8_detector_1/pa_fpn_p3p4p5_downsample1_pad_1/Pad", "StatefulPartitionedCall/yolov8_detector_1/pa_fpn_p3p4p5_downsample1_conv_1/convolution/merged_input", "StatefulPartitionedCall/yolov8_detector_1/pa_fpn_p3p4p5_downsample1_bn_1/batchnorm/sub"], "device": "/device:CPU:0", "attr": {"dilations": {"list": {"i": ["1", "1", "1", "1"]}}, "strides": {"list": {"i": ["1", "2", "2", "1"]}}, "use_cudnn_on_gpu": {"b": true}, "padding": {"s": "VkFMSUQ="}, "num_host_args": {"i": "0"}, "filter_format": {"s": "SFdJTw=="}, "fused_ops": {"list": {"s": ["Qmlhc0FkZA=="]}}, "TArgs": {"list": {"type": ["DT_FLOAT"]}}, "explicit_paddings": {"list": {}}, "epsilon": {"f": 0.0}, "data_format": {"s": "TkhXQw=="}, "T": {"type": "DT_FLOAT"}, "leakyrelu_alpha": {"f": 0.2}, "num_args": {"i": "1"}}}, {"name": "StatefulPartitionedCall/yolov8_detector_1/yolo_v8_head_1_box_1_1/Sigmoid", "op": "Sigmoid", "input": ["StatefulPartitionedCall/yolov8_detector_1/yolo_v8_head_1_box_1_bn_1/batchnorm/add_1"], "attr": {"T": {"type": "DT_FLOAT"}}}, {"name": "StatefulPartitionedCall/yolov8_detector_1/yolo_v8_head_1_class_1_1/Sigmoid", "op": "Sigmoid", "input": ["StatefulPartitionedCall/yolov8_detector_1/yolo_v8_head_1_class_1_bn_1/batchnorm/add_1"], "attr": {"T": {"type": "DT_FLOAT"}}}, {"name": "StatefulPartitionedCall/yolov8_detector_1/pa_fpn_p3p4p5_downsample1_1/Sigmoid", "op": "Sigmoid", "input": ["StatefulPartitionedCall/yolov8_detector_1/pa_fpn_p3p4p5_downsample1_bn_1/batchnorm/add_1"], "attr": {"T": {"type": "DT_FLOAT"}}}, {"name": "StatefulPartitionedCall/yolov8_detector_1/yolo_v8_head_1_box_1_1/mul_1", "op": "Mul", "input": ["StatefulPartitionedCall/yolov8_detector_1/yolo_v8_head_1_box_1_bn_1/batchnorm/add_1", "StatefulPartitionedCall/yolov8_detector_1/yolo_v8_head_1_box_1_1/Sigmoid"], "attr": {"T": {"type": "DT_FLOAT"}}}, {"name": "StatefulPartitionedCall/yolov8_detector_1/yolo_v8_head_1_class_1_1/mul_1", "op": "Mul", "input": ["StatefulPartitionedCall/yolov8_detector_1/yolo_v8_head_1_class_1_bn_1/batchnorm/add_1", "StatefulPartitionedCall/yolov8_detector_1/yolo_v8_head_1_class_1_1/Sigmoid"], "attr": {"T": {"type": "DT_FLOAT"}}}, {"name": "StatefulPartitionedCall/yolov8_detector_1/pa_fpn_p3p4p5_downsample1_1/mul_1", "op": "Mul", "input": ["StatefulPartitionedCall/yolov8_detector_1/pa_fpn_p3p4p5_downsample1_bn_1/batchnorm/add_1", "StatefulPartitionedCall/yolov8_detector_1/pa_fpn_p3p4p5_downsample1_1/Sigmoid"], "attr": {"T": {"type": "DT_FLOAT"}}}, {"name": "StatefulPartitionedCall/yolov8_detector_1/yolo_v8_head_1_box_2_pad_1/Pad", "op": "Pad", "input": ["StatefulPartitionedCall/yolov8_detector_1/yolo_v8_head_1_box_1_1/mul_1", "StatefulPartitionedCall/yolov8_detector_1/yolo_v8_head_1_box_2_pad_1/Const"], "attr": {"Tpaddings": {"type": "DT_INT32"}, "T": {"type": "DT_FLOAT"}}}, {"name": "StatefulPartitionedCall/yolov8_detector_1/yolo_v8_head_1_class_2_pad_1/Pad", "op": "Pad", "input": ["StatefulPartitionedCall/yolov8_detector_1/yolo_v8_head_1_class_1_1/mul_1", "StatefulPartitionedCall/yolov8_detector_1/yolo_v8_head_1_class_2_pad_1/Const"], "attr": {"Tpaddings": {"type": "DT_INT32"}, "T": {"type": "DT_FLOAT"}}}, {"name": "StatefulPartitionedCall/yolov8_detector_1/concat_4", "op": "ConcatV2", "input": ["StatefulPartitionedCall/yolov8_detector_1/pa_fpn_p3p4p5_downsample1_1/mul_1", "StatefulPartitionedCall/yolov8_detector_1/pa_fpn_p4p5_output_1/mul_1", "StatefulPartitionedCall/yolov8_detector_1/concat_4/axis"], "attr": {"Tidx": {"type": "DT_INT32"}, "N": {"i": "2"}, "T": {"type": "DT_FLOAT"}}}, {"name": "StatefulPartitionedCall/yolov8_detector_1/yolo_v8_head_1_box_2_bn_1/batchnorm/add_1", "op": "_FusedConv2D", "input": ["StatefulPartitionedCall/yolov8_detector_1/yolo_v8_head_1_box_2_pad_1/Pad", "StatefulPartitionedCall/yolov8_detector_1/yolo_v8_head_1_box_2_conv_1/convolution/merged_input", "StatefulPartitionedCall/yolov8_detector_1/yolo_v8_head_1_box_2_bn_1/batchnorm/sub"], "device": "/device:CPU:0", "attr": {"num_host_args": {"i": "0"}, "strides": {"list": {"i": ["1", "1", "1", "1"]}}, "use_cudnn_on_gpu": {"b": true}, "data_format": {"s": "TkhXQw=="}, "dilations": {"list": {"i": ["1", "1", "1", "1"]}}, "num_args": {"i": "1"}, "fused_ops": {"list": {"s": ["Qmlhc0FkZA=="]}}, "TArgs": {"list": {"type": ["DT_FLOAT"]}}, "explicit_paddings": {"list": {}}, "epsilon": {"f": 0.0}, "padding": {"s": "VkFMSUQ="}, "T": {"type": "DT_FLOAT"}, "leakyrelu_alpha": {"f": 0.2}, "filter_format": {"s": "SFdJTw=="}}}, {"name": "StatefulPartitionedCall/yolov8_detector_1/yolo_v8_head_1_class_2_bn_1/batchnorm/add_1", "op": "_FusedConv2D", "input": ["StatefulPartitionedCall/yolov8_detector_1/yolo_v8_head_1_class_2_pad_1/Pad", "StatefulPartitionedCall/yolov8_detector_1/yolo_v8_head_1_class_2_conv_1/convolution/merged_input", "StatefulPartitionedCall/yolov8_detector_1/yolo_v8_head_1_class_2_bn_1/batchnorm/sub"], "device": "/device:CPU:0", "attr": {"dilations": {"list": {"i": ["1", "1", "1", "1"]}}, "strides": {"list": {"i": ["1", "1", "1", "1"]}}, "use_cudnn_on_gpu": {"b": true}, "data_format": {"s": "TkhXQw=="}, "num_host_args": {"i": "0"}, "filter_format": {"s": "SFdJTw=="}, "explicit_paddings": {"list": {}}, "TArgs": {"list": {"type": ["DT_FLOAT"]}}, "fused_ops": {"list": {"s": ["Qmlhc0FkZA=="]}}, "epsilon": {"f": 0.0}, "padding": {"s": "VkFMSUQ="}, "T": {"type": "DT_FLOAT"}, "leakyrelu_alpha": {"f": 0.2}, "num_args": {"i": "1"}}}, {"name": "StatefulPartitionedCall/yolov8_detector_1/pa_fpn_p3p4p5_downsample1_block_pre_bn_1/batchnorm/add_1", "op": "_FusedConv2D", "input": ["StatefulPartitionedCall/yolov8_detector_1/concat_4", "StatefulPartitionedCall/yolov8_detector_1/pa_fpn_p3p4p5_downsample1_block_pre_conv_1/convolution/merged_input", "StatefulPartitionedCall/yolov8_detector_1/pa_fpn_p3p4p5_downsample1_block_pre_bn_1/batchnorm/sub"], "device": "/device:CPU:0", "attr": {"dilations": {"list": {"i": ["1", "1", "1", "1"]}}, "leakyrelu_alpha": {"f": 0.2}, "use_cudnn_on_gpu": {"b": true}, "data_format": {"s": "TkhXQw=="}, "num_host_args": {"i": "0"}, "num_args": {"i": "1"}, "fused_ops": {"list": {"s": ["Qmlhc0FkZA=="]}}, "TArgs": {"list": {"type": ["DT_FLOAT"]}}, "explicit_paddings": {"list": {}}, "epsilon": {"f": 0.0}, "padding": {"s": "VkFMSUQ="}, "T": {"type": "DT_FLOAT"}, "strides": {"list": {"i": ["1", "1", "1", "1"]}}, "filter_format": {"s": "SFdJTw=="}}}, {"name": "StatefulPartitionedCall/yolov8_detector_1/yolo_v8_head_1_box_2_1/Sigmoid", "op": "Sigmoid", "input": ["StatefulPartitionedCall/yolov8_detector_1/yolo_v8_head_1_box_2_bn_1/batchnorm/add_1"], "attr": {"T": {"type": "DT_FLOAT"}}}, {"name": "StatefulPartitionedCall/yolov8_detector_1/yolo_v8_head_1_class_2_1/Sigmoid", "op": "Sigmoid", "input": ["StatefulPartitionedCall/yolov8_detector_1/yolo_v8_head_1_class_2_bn_1/batchnorm/add_1"], "attr": {"T": {"type": "DT_FLOAT"}}}, {"name": "StatefulPartitionedCall/yolov8_detector_1/pa_fpn_p3p4p5_downsample1_block_pre_1/Sigmoid", "op": "Sigmoid", "input": ["StatefulPartitionedCall/yolov8_detector_1/pa_fpn_p3p4p5_downsample1_block_pre_bn_1/batchnorm/add_1"], "attr": {"T": {"type": "DT_FLOAT"}}}, {"name": "StatefulPartitionedCall/yolov8_detector_1/yolo_v8_head_1_box_2_1/mul_1", "op": "Mul", "input": ["StatefulPartitionedCall/yolov8_detector_1/yolo_v8_head_1_box_2_bn_1/batchnorm/add_1", "StatefulPartitionedCall/yolov8_detector_1/yolo_v8_head_1_box_2_1/Sigmoid"], "attr": {"T": {"type": "DT_FLOAT"}}}, {"name": "StatefulPartitionedCall/yolov8_detector_1/yolo_v8_head_1_class_2_1/mul_1", "op": "Mul", "input": ["StatefulPartitionedCall/yolov8_detector_1/yolo_v8_head_1_class_2_bn_1/batchnorm/add_1", "StatefulPartitionedCall/yolov8_detector_1/yolo_v8_head_1_class_2_1/Sigmoid"], "attr": {"T": {"type": "DT_FLOAT"}}}, {"name": "StatefulPartitionedCall/yolov8_detector_1/pa_fpn_p3p4p5_downsample1_block_pre_1/mul_1", "op": "Mul", "input": ["StatefulPartitionedCall/yolov8_detector_1/pa_fpn_p3p4p5_downsample1_block_pre_bn_1/batchnorm/add_1", "StatefulPartitionedCall/yolov8_detector_1/pa_fpn_p3p4p5_downsample1_block_pre_1/Sigmoid"], "attr": {"T": {"type": "DT_FLOAT"}}}, {"name": "StatefulPartitionedCall/yolov8_detector_1/yolo_v8_head_1_box_3_conv_1/BiasAdd", "op": "_FusedConv2D", "input": ["StatefulPartitionedCall/yolov8_detector_1/yolo_v8_head_1_box_2_1/mul_1", "StatefulPartitionedCall/yolov8_detector_1/yolo_v8_head_1_box_3_conv_1/convolution/ReadVariableOp", "StatefulPartitionedCall/yolov8_detector_1/yolo_v8_head_1_box_3_conv_1/Squeeze"], "device": "/device:CPU:0", "attr": {"dilations": {"list": {"i": ["1", "1", "1", "1"]}}, "leakyrelu_alpha": {"f": 0.2}, "use_cudnn_on_gpu": {"b": true}, "data_format": {"s": "TkhXQw=="}, "num_host_args": {"i": "0"}, "num_args": {"i": "1"}, "explicit_paddings": {"list": {}}, "TArgs": {"list": {"type": ["DT_FLOAT"]}}, "fused_ops": {"list": {"s": ["Qmlhc0FkZA=="]}}, "epsilon": {"f": 0.0}, "padding": {"s": "VkFMSUQ="}, "T": {"type": "DT_FLOAT"}, "strides": {"list": {"i": ["1", "1", "1", "1"]}}, "filter_format": {"s": "SFdJTw=="}}}, {"name": "StatefulPartitionedCall/yolov8_detector_1/yolo_v8_head_1_class_3_conv_1/Add", "op": "_FusedConv2D", "input": ["StatefulPartitionedCall/yolov8_detector_1/yolo_v8_head_1_class_2_1/mul_1", "StatefulPartitionedCall/yolov8_detector_1/yolo_v8_head_1_class_3_conv_1/convolution/ReadVariableOp", "StatefulPartitionedCall/yolov8_detector_1/yolo_v8_head_1_class_3_conv_1/Reshape"], "device": "/device:CPU:0", "attr": {"dilations": {"list": {"i": ["1", "1", "1", "1"]}}, "strides": {"list": {"i": ["1", "1", "1", "1"]}}, "use_cudnn_on_gpu": {"b": true}, "padding": {"s": "VkFMSUQ="}, "num_host_args": {"i": "0"}, "num_args": {"i": "1"}, "fused_ops": {"list": {"s": ["Qmlhc0FkZA=="]}}, "TArgs": {"list": {"type": ["DT_FLOAT"]}}, "explicit_paddings": {"list": {}}, "epsilon": {"f": 0.0}, "data_format": {"s": "TkhXQw=="}, "T": {"type": "DT_FLOAT"}, "leakyrelu_alpha": {"f": 0.2}, "filter_format": {"s": "SFdJTw=="}}}, {"name": "StatefulPartitionedCall/yolov8_detector_1/split_2", "op": "Split", "input": ["StatefulPartitionedCall/yolov8_detector_1/split_2/split_dim", "StatefulPartitionedCall/yolov8_detector_1/pa_fpn_p3p4p5_downsample1_block_pre_1/mul_1"], "attr": {"T": {"type": "DT_FLOAT"}, "num_split": {"i": "2"}}}, {"name": "StatefulPartitionedCall/yolov8_detector_1/yolo_v8_head_1_classifier_1/Sigmoid", "op": "Sigmoid", "input": ["StatefulPartitionedCall/yolov8_detector_1/yolo_v8_head_1_class_3_conv_1/Add"], "attr": {"T": {"type": "DT_FLOAT"}}}, {"name": "StatefulPartitionedCall/yolov8_detector_1/pa_fpn_p3p4p5_downsample1_block_pre_0_1_pad_1/Pad", "op": "Pad", "input": ["StatefulPartitionedCall/yolov8_detector_1/split_2:1", "StatefulPartitionedCall/yolov8_detector_1/pa_fpn_p3p4p5_downsample1_block_pre_0_1_pad_1/Const"], "attr": {"Tpaddings": {"type": "DT_INT32"}, "T": {"type": "DT_FLOAT"}}}, {"name": "StatefulPartitionedCall/yolov8_detector_1/concat_10", "op": "ConcatV2", "input": ["StatefulPartitionedCall/yolov8_detector_1/yolo_v8_head_1_box_3_conv_1/BiasAdd", "StatefulPartitionedCall/yolov8_detector_1/yolo_v8_head_1_classifier_1/Sigmoid", "StatefulPartitionedCall/yolov8_detector_1/concat_10/axis"], "attr": {"Tidx": {"type": "DT_INT32"}, "N": {"i": "2"}, "T": {"type": "DT_FLOAT"}}}, {"name": "StatefulPartitionedCall/yolov8_detector_1/pa_fpn_p3p4p5_downsample1_block_pre_0_1_bn_1/batchnorm/add_1", "op": "_FusedConv2D", "input": ["StatefulPartitionedCall/yolov8_detector_1/pa_fpn_p3p4p5_downsample1_block_pre_0_1_pad_1/Pad", "StatefulPartitionedCall/yolov8_detector_1/pa_fpn_p3p4p5_downsample1_block_pre_0_1_conv_1/convolution/merged_input", "StatefulPartitionedCall/yolov8_detector_1/pa_fpn_p3p4p5_downsample1_block_pre_0_1_bn_1/batchnorm/sub"], "device": "/device:CPU:0", "attr": {"dilations": {"list": {"i": ["1", "1", "1", "1"]}}, "leakyrelu_alpha": {"f": 0.2}, "use_cudnn_on_gpu": {"b": true}, "padding": {"s": "VkFMSUQ="}, "num_host_args": {"i": "0"}, "filter_format": {"s": "SFdJTw=="}, "explicit_paddings": {"list": {}}, "TArgs": {"list": {"type": ["DT_FLOAT"]}}, "fused_ops": {"list": {"s": ["Qmlhc0FkZA=="]}}, "epsilon": {"f": 0.0}, "data_format": {"s": "TkhXQw=="}, "T": {"type": "DT_FLOAT"}, "strides": {"list": {"i": ["1", "1", "1", "1"]}}, "num_args": {"i": "1"}}}, {"name": "StatefulPartitionedCall/yolov8_detector_1/yolo_v8_head_1_output_reshape_1/Reshape", "op": "Reshape", "input": ["StatefulPartitionedCall/yolov8_detector_1/concat_10", "StatefulPartitionedCall/yolov8_detector_1/yolo_v8_head_1_output_reshape_1/Reshape/shape"], "attr": {"Tshape": {"type": "DT_INT32"}, "T": {"type": "DT_FLOAT"}}}, {"name": "StatefulPartitionedCall/yolov8_detector_1/pa_fpn_p3p4p5_downsample1_block_pre_0_1_1/Sigmoid", "op": "Sigmoid", "input": ["StatefulPartitionedCall/yolov8_detector_1/pa_fpn_p3p4p5_downsample1_block_pre_0_1_bn_1/batchnorm/add_1"], "attr": {"T": {"type": "DT_FLOAT"}}}, {"name": "StatefulPartitionedCall/yolov8_detector_1/pa_fpn_p3p4p5_downsample1_block_pre_0_1_1/mul_1", "op": "Mul", "input": ["StatefulPartitionedCall/yolov8_detector_1/pa_fpn_p3p4p5_downsample1_block_pre_0_1_bn_1/batchnorm/add_1", "StatefulPartitionedCall/yolov8_detector_1/pa_fpn_p3p4p5_downsample1_block_pre_0_1_1/Sigmoid"], "attr": {"T": {"type": "DT_FLOAT"}}}, {"name": "StatefulPartitionedCall/yolov8_detector_1/pa_fpn_p3p4p5_downsample1_block_pre_0_2_pad_1/Pad", "op": "Pad", "input": ["StatefulPartitionedCall/yolov8_detector_1/pa_fpn_p3p4p5_downsample1_block_pre_0_1_1/mul_1", "StatefulPartitionedCall/yolov8_detector_1/pa_fpn_p3p4p5_downsample1_block_pre_0_2_pad_1/Const"], "attr": {"Tpaddings": {"type": "DT_INT32"}, "T": {"type": "DT_FLOAT"}}}, {"name": "StatefulPartitionedCall/yolov8_detector_1/pa_fpn_p3p4p5_downsample1_block_pre_0_2_bn_1/batchnorm/add_1", "op": "_FusedConv2D", "input": ["StatefulPartitionedCall/yolov8_detector_1/pa_fpn_p3p4p5_downsample1_block_pre_0_2_pad_1/Pad", "StatefulPartitionedCall/yolov8_detector_1/pa_fpn_p3p4p5_downsample1_block_pre_0_2_conv_1/convolution/merged_input", "StatefulPartitionedCall/yolov8_detector_1/pa_fpn_p3p4p5_downsample1_block_pre_0_2_bn_1/batchnorm/sub"], "device": "/device:CPU:0", "attr": {"num_host_args": {"i": "0"}, "strides": {"list": {"i": ["1", "1", "1", "1"]}}, "use_cudnn_on_gpu": {"b": true}, "padding": {"s": "VkFMSUQ="}, "dilations": {"list": {"i": ["1", "1", "1", "1"]}}, "filter_format": {"s": "SFdJTw=="}, "fused_ops": {"list": {"s": ["Qmlhc0FkZA=="]}}, "TArgs": {"list": {"type": ["DT_FLOAT"]}}, "explicit_paddings": {"list": {}}, "epsilon": {"f": 0.0}, "data_format": {"s": "TkhXQw=="}, "T": {"type": "DT_FLOAT"}, "leakyrelu_alpha": {"f": 0.2}, "num_args": {"i": "1"}}}, {"name": "StatefulPartitionedCall/yolov8_detector_1/pa_fpn_p3p4p5_downsample1_block_pre_0_2_1/Sigmoid", "op": "Sigmoid", "input": ["StatefulPartitionedCall/yolov8_detector_1/pa_fpn_p3p4p5_downsample1_blo…
nsample2_block_pre_0_2_bn_1/batchnorm/add_1"], "attr": {"T": {"type": "DT_FLOAT"}}}, {"name": "StatefulPartitionedCall/yolov8_detector_1/pa_fpn_p3p4p5_downsample2_block_pre_0_2_1/mul_1", "op": "Mul", "input": ["StatefulPartitionedCall/yolov8_detector_1/pa_fpn_p3p4p5_downsample2_block_pre_0_2_bn_1/batchnorm/add_1", "StatefulPartitionedCall/yolov8_detector_1/pa_fpn_p3p4p5_downsample2_block_pre_0_2_1/Sigmoid"], "attr": {"T": {"type": "DT_FLOAT"}}}, {"name": "StatefulPartitionedCall/yolov8_detector_1/pa_fpn_p3p4p5_downsample2_block_pre_1_1_pad_1/Pad", "op": "Pad", "input": ["StatefulPartitionedCall/yolov8_detector_1/pa_fpn_p3p4p5_downsample2_block_pre_0_2_1/mul_1", "StatefulPartitionedCall/yolov8_detector_1/pa_fpn_p3p4p5_downsample2_block_pre_1_1_pad_1/Const"], "attr": {"Tpaddings": {"type": "DT_INT32"}, "T": {"type": "DT_FLOAT"}}}, {"name": "StatefulPartitionedCall/yolov8_detector_1/pa_fpn_p3p4p5_downsample2_block_pre_1_1_bn_1/batchnorm/add_1", "op": "_FusedConv2D", "input": ["StatefulPartitionedCall/yolov8_detector_1/pa_fpn_p3p4p5_downsample2_block_pre_1_1_pad_1/Pad", "StatefulPartitionedCall/yolov8_detector_1/pa_fpn_p3p4p5_downsample2_block_pre_1_1_conv_1/convolution/merged_input", "StatefulPartitionedCall/yolov8_detector_1/pa_fpn_p3p4p5_downsample2_block_pre_1_1_bn_1/batchnorm/sub"], "device": "/device:CPU:0", "attr": {"dilations": {"list": {"i": ["1", "1", "1", "1"]}}, "strides": {"list": {"i": ["1", "1", "1", "1"]}}, "use_cudnn_on_gpu": {"b": true}, "data_format": {"s": "TkhXQw=="}, "num_host_args": {"i": "0"}, "num_args": {"i": "1"}, "explicit_paddings": {"list": {}}, "TArgs": {"list": {"type": ["DT_FLOAT"]}}, "fused_ops": {"list": {"s": ["Qmlhc0FkZA=="]}}, "epsilon": {"f": 0.0}, "padding": {"s": "VkFMSUQ="}, "T": {"type": "DT_FLOAT"}, "leakyrelu_alpha": {"f": 0.2}, "filter_format": {"s": "SFdJTw=="}}}, {"name": "StatefulPartitionedCall/yolov8_detector_1/pa_fpn_p3p4p5_downsample2_block_pre_1_1_1/Sigmoid", "op": "Sigmoid", "input": ["StatefulPartitionedCall/yolov8_detector_1/pa_fpn_p3p4p5_downsample2_block_pre_1_1_bn_1/batchnorm/add_1"], "attr": {"T": {"type": "DT_FLOAT"}}}, {"name": "StatefulPartitionedCall/yolov8_detector_1/pa_fpn_p3p4p5_downsample2_block_pre_1_1_1/mul_1", "op": "Mul", "input": ["StatefulPartitionedCall/yolov8_detector_1/pa_fpn_p3p4p5_downsample2_block_pre_1_1_bn_1/batchnorm/add_1", "StatefulPartitionedCall/yolov8_detector_1/pa_fpn_p3p4p5_downsample2_block_pre_1_1_1/Sigmoid"], "attr": {"T": {"type": "DT_FLOAT"}}}, {"name": "StatefulPartitionedCall/yolov8_detector_1/pa_fpn_p3p4p5_downsample2_block_pre_1_2_pad_1/Pad", "op": "Pad", "input": ["StatefulPartitionedCall/yolov8_detector_1/pa_fpn_p3p4p5_downsample2_block_pre_1_1_1/mul_1", "StatefulPartitionedCall/yolov8_detector_1/pa_fpn_p3p4p5_downsample2_block_pre_1_2_pad_1/Const"], "attr": {"Tpaddings": {"type": "DT_INT32"}, "T": {"type": "DT_FLOAT"}}}, {"name": "StatefulPartitionedCall/yolov8_detector_1/pa_fpn_p3p4p5_downsample2_block_pre_1_2_bn_1/batchnorm/add_1", "op": "_FusedConv2D", "input": ["StatefulPartitionedCall/yolov8_detector_1/pa_fpn_p3p4p5_downsample2_block_pre_1_2_pad_1/Pad", "StatefulPartitionedCall/yolov8_detector_1/pa_fpn_p3p4p5_downsample2_block_pre_1_2_conv_1/convolution/merged_input", "StatefulPartitionedCall/yolov8_detector_1/pa_fpn_p3p4p5_downsample2_block_pre_1_2_bn_1/batchnorm/sub"], "device": "/device:CPU:0", "attr": {"dilations": {"list": {"i": ["1", "1", "1", "1"]}}, "strides": {"list": {"i": ["1", "1", "1", "1"]}}, "use_cudnn_on_gpu": {"b": true}, "num_args": {"i": "1"}, "num_host_args": {"i": "0"}, "filter_format": {"s": "SFdJTw=="}, "explicit_paddings": {"list": {}}, "TArgs": {"list": {"type": ["DT_FLOAT"]}}, "fused_ops": {"list": {"s": ["Qmlhc0FkZA=="]}}, "epsilon": {"f": 0.0}, "padding": {"s": "VkFMSUQ="}, "T": {"type": "DT_FLOAT"}, "leakyrelu_alpha": {"f": 0.2}, "data_format": {"s": "TkhXQw=="}}}, {"name": "StatefulPartitionedCall/yolov8_detector_1/pa_fpn_p3p4p5_downsample2_block_pre_1_2_1/Sigmoid", "op": "Sigmoid", "input": ["StatefulPartitionedCall/yolov8_detector_1/pa_fpn_p3p4p5_downsample2_block_pre_1_2_bn_1/batchnorm/add_1"], "attr": {"T": {"type": "DT_FLOAT"}}}, {"name": "StatefulPartitionedCall/yolov8_detector_1/pa_fpn_p3p4p5_downsample2_block_pre_1_2_1/mul_1", "op": "Mul", "input": ["StatefulPartitionedCall/yolov8_detector_1/pa_fpn_p3p4p5_downsample2_block_pre_1_2_bn_1/batchnorm/add_1", "StatefulPartitionedCall/yolov8_detector_1/pa_fpn_p3p4p5_downsample2_block_pre_1_2_1/Sigmoid"], "attr": {"T": {"type": "DT_FLOAT"}}}, {"name": "StatefulPartitionedCall/yolov8_detector_1/concat_7", "op": "ConcatV2", "input": ["StatefulPartitionedCall/yolov8_detector_1/split_3", "StatefulPartitionedCall/yolov8_detector_1/split_3:1", "StatefulPartitionedCall/yolov8_detector_1/pa_fpn_p3p4p5_downsample2_block_pre_0_2_1/mul_1", "StatefulPartitionedCall/yolov8_detector_1/pa_fpn_p3p4p5_downsample2_block_pre_1_2_1/mul_1", "StatefulPartitionedCall/yolov8_detector_1/concat_7/axis"], "attr": {"Tidx": {"type": "DT_INT32"}, "N": {"i": "4"}, "T": {"type": "DT_FLOAT"}}}, {"name": "StatefulPartitionedCall/yolov8_detector_1/pa_fpn_p3p4p5_downsample2_block_output_bn_1/batchnorm/add_1", "op": "_FusedConv2D", "input": ["StatefulPartitionedCall/yolov8_detector_1/concat_7", "StatefulPartitionedCall/yolov8_detector_1/pa_fpn_p3p4p5_downsample2_block_output_conv_1/convolution/merged_input", "StatefulPartitionedCall/yolov8_detector_1/pa_fpn_p3p4p5_downsample2_block_output_bn_1/batchnorm/sub"], "device": "/device:CPU:0", "attr": {"num_host_args": {"i": "0"}, "strides": {"list": {"i": ["1", "1", "1", "1"]}}, "use_cudnn_on_gpu": {"b": true}, "padding": {"s": "VkFMSUQ="}, "dilations": {"list": {"i": ["1", "1", "1", "1"]}}, "filter_format": {"s": "SFdJTw=="}, "explicit_paddings": {"list": {}}, "TArgs": {"list": {"type": ["DT_FLOAT"]}}, "fused_ops": {"list": {"s": ["Qmlhc0FkZA=="]}}, "epsilon": {"f": 0.0}, "data_format": {"s": "TkhXQw=="}, "T": {"type": "DT_FLOAT"}, "leakyrelu_alpha": {"f": 0.2}, "num_args": {"i": "1"}}}, {"name": "StatefulPartitionedCall/yolov8_detector_1/pa_fpn_p3p4p5_downsample2_block_output_1/Sigmoid", "op": "Sigmoid", "input": ["StatefulPartitionedCall/yolov8_detector_1/pa_fpn_p3p4p5_downsample2_block_output_bn_1/batchnorm/add_1"], "attr": {"T": {"type": "DT_FLOAT"}}}, {"name": "StatefulPartitionedCall/yolov8_detector_1/pa_fpn_p3p4p5_downsample2_block_output_1/mul_1", "op": "Mul", "input": ["StatefulPartitionedCall/yolov8_detector_1/pa_fpn_p3p4p5_downsample2_block_output_bn_1/batchnorm/add_1", "StatefulPartitionedCall/yolov8_detector_1/pa_fpn_p3p4p5_downsample2_block_output_1/Sigmoid"], "attr": {"T": {"type": "DT_FLOAT"}}}, {"name": "StatefulPartitionedCall/yolov8_detector_1/yolo_v8_head_3_box_1_pad_1/Pad", "op": "Pad", "input": ["StatefulPartitionedCall/yolov8_detector_1/pa_fpn_p3p4p5_downsample2_block_output_1/mul_1", "StatefulPartitionedCall/yolov8_detector_1/yolo_v8_head_3_box_1_pad_1/Const"], "attr": {"Tpaddings": {"type": "DT_INT32"}, "T": {"type": "DT_FLOAT"}}}, {"name": "StatefulPartitionedCall/yolov8_detector_1/yolo_v8_head_3_class_1_pad_1/Pad", "op": "Pad", "input": ["StatefulPartitionedCall/yolov8_detector_1/pa_fpn_p3p4p5_downsample2_block_output_1/mul_1", "StatefulPartitionedCall/yolov8_detector_1/yolo_v8_head_3_class_1_pad_1/Const"], "attr": {"Tpaddings": {"type": "DT_INT32"}, "T": {"type": "DT_FLOAT"}}}, {"name": "StatefulPartitionedCall/yolov8_detector_1/yolo_v8_head_3_box_1_bn_1/batchnorm/add_1", "op": "_FusedConv2D", "input": ["StatefulPartitionedCall/yolov8_detector_1/yolo_v8_head_3_box_1_pad_1/Pad", "StatefulPartitionedCall/yolov8_detector_1/yolo_v8_head_3_box_1_conv_1/convolution/merged_input", "StatefulPartitionedCall/yolov8_detector_1/yolo_v8_head_3_box_1_bn_1/batchnorm/sub"], "device": "/device:CPU:0", "attr": {"dilations": {"list": {"i": ["1", "1", "1", "1"]}}, "leakyrelu_alpha": {"f": 0.2}, "use_cudnn_on_gpu": {"b": true}, "padding": {"s": "VkFMSUQ="}, "num_host_args": {"i": "0"}, "filter_format": {"s": "SFdJTw=="}, "fused_ops": {"list": {"s": ["Qmlhc0FkZA=="]}}, "TArgs": {"list": {"type": ["DT_FLOAT"]}}, "explicit_paddings": {"list": {}}, "epsilon": {"f": 0.0}, "data_format": {"s": "TkhXQw=="}, "T": {"type": "DT_FLOAT"}, "strides": {"list": {"i": ["1", "1", "1", "1"]}}, "num_args": {"i": "1"}}}, {"name": "StatefulPartitionedCall/yolov8_detector_1/yolo_v8_head_3_class_1_bn_1/batchnorm/add_1", "op": "_FusedConv2D", "input": ["StatefulPartitionedCall/yolov8_detector_1/yolo_v8_head_3_class_1_pad_1/Pad", "StatefulPartitionedCall/yolov8_detector_1/yolo_v8_head_3_class_1_conv_1/convolution/merged_input", "StatefulPartitionedCall/yolov8_detector_1/yolo_v8_head_3_class_1_bn_1/batchnorm/sub"], "device": "/device:CPU:0", "attr": {"num_host_args": {"i": "0"}, "strides": {"list": {"i": ["1", "1", "1", "1"]}}, "use_cudnn_on_gpu": {"b": true}, "data_format": {"s": "TkhXQw=="}, "dilations": {"list": {"i": ["1", "1", "1", "1"]}}, "num_args": {"i": "1"}, "fused_ops": {"list": {"s": ["Qmlhc0FkZA=="]}}, "TArgs": {"list": {"type": ["DT_FLOAT"]}}, "explicit_paddings": {"list": {}}, "epsilon": {"f": 0.0}, "padding": {"s": "VkFMSUQ="}, "T": {"type": "DT_FLOAT"}, "leakyrelu_alpha": {"f": 0.2}, "filter_format": {"s": "SFdJTw=="}}}, {"name": "StatefulPartitionedCall/yolov8_detector_1/yolo_v8_head_3_box_1_1/Sigmoid", "op": "Sigmoid", "input": ["StatefulPartitionedCall/yolov8_detector_1/yolo_v8_head_3_box_1_bn_1/batchnorm/add_1"], "attr": {"T": {"type": "DT_FLOAT"}}}, {"name": "StatefulPartitionedCall/yolov8_detector_1/yolo_v8_head_3_class_1_1/Sigmoid", "op": "Sigmoid", "input": ["StatefulPartitionedCall/yolov8_detector_1/yolo_v8_head_3_class_1_bn_1/batchnorm/add_1"], "attr": {"T": {"type": "DT_FLOAT"}}}, {"name": "StatefulPartitionedCall/yolov8_detector_1/yolo_v8_head_3_box_1_1/mul_1", "op": "Mul", "input": ["StatefulPartitionedCall/yolov8_detector_1/yolo_v8_head_3_box_1_bn_1/batchnorm/add_1", "StatefulPartitionedCall/yolov8_detector_1/yolo_v8_head_3_box_1_1/Sigmoid"], "attr": {"T": {"type": "DT_FLOAT"}}}, {"name": "StatefulPartitionedCall/yolov8_detector_1/yolo_v8_head_3_class_1_1/mul_1", "op": "Mul", "input": ["StatefulPartitionedCall/yolov8_detector_1/yolo_v8_head_3_class_1_bn_1/batchnorm/add_1", "StatefulPartitionedCall/yolov8_detector_1/yolo_v8_head_3_class_1_1/Sigmoid"], "attr": {"T": {"type": "DT_FLOAT"}}}, {"name": "StatefulPartitionedCall/yolov8_detector_1/yolo_v8_head_3_box_2_pad_1/Pad", "op": "Pad", "input": ["StatefulPartitionedCall/yolov8_detector_1/yolo_v8_head_3_box_1_1/mul_1", "StatefulPartitionedCall/yolov8_detector_1/yolo_v8_head_3_box_2_pad_1/Const"], "attr": {"Tpaddings": {"type": "DT_INT32"}, "T": {"type": "DT_FLOAT"}}}, {"name": "StatefulPartitionedCall/yolov8_detector_1/yolo_v8_head_3_class_2_pad_1/Pad", "op": "Pad", "input": ["StatefulPartitionedCall/yolov8_detector_1/yolo_v8_head_3_class_1_1/mul_1", "StatefulPartitionedCall/yolov8_detector_1/yolo_v8_head_3_class_2_pad_1/Const"], "attr": {"Tpaddings": {"type": "DT_INT32"}, "T": {"type": "DT_FLOAT"}}}, {"name": "StatefulPartitionedCall/yolov8_detector_1/yolo_v8_head_3_box_2_bn_1/batchnorm/add_1", "op": "_FusedConv2D", "input": ["StatefulPartitionedCall/yolov8_detector_1/yolo_v8_head_3_box_2_pad_1/Pad", "StatefulPartitionedCall/yolov8_detector_1/yolo_v8_head_3_box_2_conv_1/convolution/merged_input", "StatefulPartitionedCall/yolov8_detector_1/yolo_v8_head_3_box_2_bn_1/batchnorm/sub"], "device": "/device:CPU:0", "attr": {"num_host_args": {"i": "0"}, "strides": {"list": {"i": ["1", "1", "1", "1"]}}, "use_cudnn_on_gpu": {"b": true}, "data_format": {"s": "TkhXQw=="}, "dilations": {"list": {"i": ["1", "1", "1", "1"]}}, "num_args": {"i": "1"}, "fused_ops": {"list": {"s": ["Qmlhc0FkZA=="]}}, "TArgs": {"list": {"type": ["DT_FLOAT"]}}, "explicit_paddings": {"list": {}}, "epsilon": {"f": 0.0}, "padding": {"s": "VkFMSUQ="}, "T": {"type": "DT_FLOAT"}, "leakyrelu_alpha": {"f": 0.2}, "filter_format": {"s": "SFdJTw=="}}}, {"name": "StatefulPartitionedCall/yolov8_detector_1/yolo_v8_head_3_class_2_bn_1/batchnorm/add_1", "op": "_FusedConv2D", "input": ["StatefulPartitionedCall/yolov8_detector_1/yolo_v8_head_3_class_2_pad_1/Pad", "StatefulPartitionedCall/yolov8_detector_1/yolo_v8_head_3_class_2_conv_1/convolution/merged_input", "StatefulPartitionedCall/yolov8_detector_1/yolo_v8_head_3_class_2_bn_1/batchnorm/sub"], "device": "/device:CPU:0", "attr": {"dilations": {"list": {"i": ["1", "1", "1", "1"]}}, "strides": {"list": {"i": ["1", "1", "1", "1"]}}, "use_cudnn_on_gpu": {"b": true}, "data_format": {"s": "TkhXQw=="}, "num_host_args": {"i": "0"}, "filter_format": {"s": "SFdJTw=="}, "fused_ops": {"list": {"s": ["Qmlhc0FkZA=="]}}, "TArgs": {"list": {"type": ["DT_FLOAT"]}}, "explicit_paddings": {"list": {}}, "epsilon": {"f": 0.0}, "padding": {"s": "VkFMSUQ="}, "T": {"type": "DT_FLOAT"}, "leakyrelu_alpha": {"f": 0.2}, "num_args": {"i": "1"}}}, {"name": "StatefulPartitionedCall/yolov8_detector_1/yolo_v8_head_3_box_2_1/Sigmoid", "op": "Sigmoid", "input": ["StatefulPartitionedCall/yolov8_detector_1/yolo_v8_head_3_box_2_bn_1/batchnorm/add_1"], "attr": {"T": {"type": "DT_FLOAT"}}}, {"name": "StatefulPartitionedCall/yolov8_detector_1/yolo_v8_head_3_class_2_1/Sigmoid", "op": "Sigmoid", "input": ["StatefulPartitionedCall/yolov8_detector_1/yolo_v8_head_3_class_2_bn_1/batchnorm/add_1"], "attr": {"T": {"type": "DT_FLOAT"}}}, {"name": "StatefulPartitionedCall/yolov8_detector_1/yolo_v8_head_3_box_2_1/mul_1", "op": "Mul", "input": ["StatefulPartitionedCall/yolov8_detector_1/yolo_v8_head_3_box_2_bn_1/batchnorm/add_1", "StatefulPartitionedCall/yolov8_detector_1/yolo_v8_head_3_box_2_1/Sigmoid"], "attr": {"T": {"type": "DT_FLOAT"}}}, {"name": "StatefulPartitionedCall/yolov8_detector_1/yolo_v8_head_3_class_2_1/mul_1", "op": "Mul", "input": ["StatefulPartitionedCall/yolov8_detector_1/yolo_v8_head_3_class_2_bn_1/batchnorm/add_1", "StatefulPartitionedCall/yolov8_detector_1/yolo_v8_head_3_class_2_1/Sigmoid"], "attr": {"T": {"type": "DT_FLOAT"}}}, {"name": "StatefulPartitionedCall/yolov8_detector_1/yolo_v8_head_3_box_3_conv_1/BiasAdd", "op": "_FusedConv2D", "input": ["StatefulPartitionedCall/yolov8_detector_1/yolo_v8_head_3_box_2_1/mul_1", "StatefulPartitionedCall/yolov8_detector_1/yolo_v8_head_3_box_3_conv_1/convolution/ReadVariableOp", "StatefulPartitionedCall/yolov8_detector_1/yolo_v8_head_3_box_3_conv_1/Squeeze"], "device": "/device:CPU:0", "attr": {"dilations": {"list": {"i": ["1", "1", "1", "1"]}}, "strides": {"list": {"i": ["1", "1", "1", "1"]}}, "use_cudnn_on_gpu": {"b": true}, "padding": {"s": "VkFMSUQ="}, "num_host_args": {"i": "0"}, "num_args": {"i": "1"}, "fused_ops": {"list": {"s": ["Qmlhc0FkZA=="]}}, "TArgs": {"list": {"type": ["DT_FLOAT"]}}, "explicit_paddings": {"list": {}}, "epsilon": {"f": 0.0}, "data_format": {"s": "TkhXQw=="}, "T": {"type": "DT_FLOAT"}, "leakyrelu_alpha": {"f": 0.2}, "filter_format": {"s": "SFdJTw=="}}}, {"name": "StatefulPartitionedCall/yolov8_detector_1/yolo_v8_head_3_class_3_conv_1/Add", "op": "_FusedConv2D", "input": ["StatefulPartitionedCall/yolov8_detector_1/yolo_v8_head_3_class_2_1/mul_1", "StatefulPartitionedCall/yolov8_detector_1/yolo_v8_head_3_class_3_conv_1/convolution/ReadVariableOp", "StatefulPartitionedCall/yolov8_detector_1/yolo_v8_head_3_class_3_conv_1/Reshape"], "device": "/device:CPU:0", "attr": {"num_host_args": {"i": "0"}, "strides": {"list": {"i": ["1", "1", "1", "1"]}}, "use_cudnn_on_gpu": {"b": true}, "data_format": {"s": "TkhXQw=="}, "dilations": {"list": {"i": ["1", "1", "1", "1"]}}, "filter_format": {"s": "SFdJTw=="}, "fused_ops": {"list": {"s": ["Qmlhc0FkZA=="]}}, "TArgs": {"list": {"type": ["DT_FLOAT"]}}, "explicit_paddings": {"list": {}}, "epsilon": {"f": 0.0}, "padding": {"s": "VkFMSUQ="}, "T": {"type": "DT_FLOAT"}, "leakyrelu_alpha": {"f": 0.2}, "num_args": {"i": "1"}}}, {"name": "StatefulPartitionedCall/yolov8_detector_1/yolo_v8_head_3_classifier_1/Sigmoid", "op": "Sigmoid", "input": ["StatefulPartitionedCall/yolov8_detector_1/yolo_v8_head_3_class_3_conv_1/Add"], "attr": {"T": {"type": "DT_FLOAT"}}}, {"name": "StatefulPartitionedCall/yolov8_detector_1/concat_8", "op": "ConcatV2", "input": ["StatefulPartitionedCall/yolov8_detector_1/yolo_v8_head_3_box_3_conv_1/BiasAdd", "StatefulPartitionedCall/yolov8_detector_1/yolo_v8_head_3_classifier_1/Sigmoid", "StatefulPartitionedCall/yolov8_detector_1/concat_8/axis"], "attr": {"Tidx": {"type": "DT_INT32"}, "N": {"i": "2"}, "T": {"type": "DT_FLOAT"}}}, {"name": "StatefulPartitionedCall/yolov8_detector_1/yolo_v8_head_3_output_reshape_1/Reshape", "op": "Reshape", "input": ["StatefulPartitionedCall/yolov8_detector_1/concat_8", "StatefulPartitionedCall/yolov8_detector_1/yolo_v8_head_3_output_reshape_1/Reshape/shape"], "attr": {"Tshape": {"type": "DT_INT32"}, "T": {"type": "DT_FLOAT"}}}, {"name": "StatefulPartitionedCall/yolov8_detector_1/concat_11", "op": "ConcatV2", "input": ["StatefulPartitionedCall/yolov8_detector_1/yolo_v8_head_1_output_reshape_1/Reshape", "StatefulPartitionedCall/yolov8_detector_1/yolo_v8_head_2_output_reshape_1/Reshape", "StatefulPartitionedCall/yolov8_detector_1/yolo_v8_head_3_output_reshape_1/Reshape", "StatefulPartitionedCall/yolov8_detector_1/concat_11/axis"], "attr": {"Tidx": {"type": "DT_INT32"}, "N": {"i": "3"}, "T": {"type": "DT_FLOAT"}}}, {"name": "StatefulPartitionedCall/yolov8_detector_1/strided_slice_1", "op": "StridedSlice", "input": ["StatefulPartitionedCall/yolov8_detector_1/concat_11", "StatefulPartitionedCall/yolov8_detector_1/strided_slice_1/stack", "StatefulPartitionedCall/yolov8_detector_1/strided_slice_1/stack_1", "StatefulPartitionedCall/yolov8_detector_1/strided_slice_1/stack_2"], "attr": {"begin_mask": {"i": "7"}, "end_mask": {"i": "3"}, "ellipsis_mask": {"i": "0"}, "Index": {"type": "DT_INT32"}, "T": {"type": "DT_FLOAT"}, "shrink_axis_mask": {"i": "0"}, "new_axis_mask": {"i": "0"}}}, {"name": "StatefulPartitionedCall/yolov8_detector_1/strided_slice", "op": "StridedSlice", "input": ["StatefulPartitionedCall/yolov8_detector_1/concat_11", "StatefulPartitionedCall/yolov8_detector_1/strided_slice/stack", "StatefulPartitionedCall/yolov8_detector_1/strided_slice/stack_1", "StatefulPartitionedCall/yolov8_detector_1/strided_slice/stack_2"], "attr": {"begin_mask": {"i": "3"}, "shrink_axis_mask": {"i": "0"}, "ellipsis_mask": {"i": "0"}, "Index": {"type": "DT_INT32"}, "T": {"type": "DT_FLOAT"}, "end_mask": {"i": "7"}, "new_axis_mask": {"i": "0"}}}, {"name": "Identity", "op": "Identity", "input": ["StatefulPartitionedCall/yolov8_detector_1/strided_slice_1"], "attr": {"T": {"type": "DT_FLOAT"}}}, {"name": "Identity_1", "op": "Identity", "input": ["StatefulPartitionedCall/yolov8_detector_1/strided_slice"], "attr": {"T": {"type": "DT_FLOAT"}}}], "library": {}, "versions": {"producer": 2129}}, "weightsManifest": [{"paths": ["group1-shard1of13.bin", "group1-shard2of13.bin", "group1-shard3of13.bin", "group1-shard4of13.bin", "group1-shard5of13.bin", "group1-shard6of13.bin", "group1-shard7of13.bin", "group1-shard8of13.bin", "group1-shard9of13.bin", "group1-shard10of13.bin", "group1-shard11of13.bin", "group1-shard12of13.bin", "group1-shard13of13.bin"], "weights": [{"name": "StatefulPartitionedCall/yolov8_detector_1/strided_slice_1/stack", "shape": [3], "dtype": "int32"}, {"name": "StatefulPartitionedCall/yolov8_detector_1/strided_slice_1/stack_1", "shape": [3], "dtype": "int32"}, {"name": "StatefulPartitionedCall/yolov8_detector_1/strided_slice_1/stack_2", "shape": [3], "dtype": "int32"}, {"name": "StatefulPartitionedCall/yolov8_detector_1/yolo_v8_head_1_box_1_pad_1/Const", "shape": [4, 2], "dtype": "int32"}, {"name": "StatefulPartitionedCall/yolov8_detector_1/yolo_v8_head_1_box_1_conv_1/convolution/merged_input", "shape": [3, 3, 128, 64], "dtype": "float32"}, {"name": "StatefulPartitionedCall/yolov8_detector_1/yolo_v8_head_1_box_1_bn_1/batchnorm/sub", "shape": [64], "dtype": "float32"}, {"name": "StatefulPartitionedCall/yolov8_detector_1/yolo_v8_head_1_box_2_pad_1/Const", "shape": [4, 2], "dtype": "int32"}, {"name": "StatefulPartitionedCall/yolov8_detector_1/yolo_v8_head_1_box_2_conv_1/convolution/merged_input", "shape": [3, 3, 64, 64], "dtype": "float32"}, {"name": "StatefulPartitionedCall/yolov8_detector_1/yolo_v8_head_1_box_2_bn_1/batchnorm/sub", "shape": [64], "dtype": "float32"}, {"name": "StatefulPartitionedCall/yolov8_detector_1/yolo_v8_head_1_box_3_conv_1/convolution/ReadVariableOp", "shape": [1, 1, 64, 64], "dtype": "float32"}, {"name": "StatefulPartitionedCall/yolov8_detector_1/yolo_v8_head_1_box_3_conv_1/Squeeze", "shape": [64], "dtype": "float32"}, {"name": "StatefulPartitionedCall/yolov8_detector_1/yolo_v8_head_1_class_1_pad_1/Const", "shape": [4, 2], "dtype": "int32"}, {"name": "StatefulPartitionedCall/yolov8_detector_1/yolo_v8_head_1_class_1_conv_1/convolution/merged_input", "shape": [3, 3, 128, 128], "dtype": "float32"}, {"name": "StatefulPartitionedCall/yolov8_detector_1/yolo_v8_head_1_class_1_bn_1/batchnorm/sub", "shape": [128], "dtype": "float32"}, {"name": "StatefulPartitionedCall/yolov8_detector_1/yolo_v8_head_1_class_2_pad_1/Const", "shape": [4, 2], "dtype": "int32"}, {"name": "StatefulPartitionedCall/yolov8_detector_1/yolo_v8_head_1_class_2_conv_1/convolution/merged_input", "shape": [3, 3, 128, 128], "dtype": "float32"}, {"name": "StatefulPartitionedCall/yolov8_detector_1/yolo_v8_head_1_class_2_bn_1/batchnorm/sub", "shape": [128], "dtype": "float32"}, {"name": "StatefulPartitionedCall/yolov8_detector_1/yolo_v8_head_1_class_3_conv_1/convolution/ReadVariableOp", "shape": [1, 1, 128, 1], "dtype": "float32"}, {"name": "StatefulPartitionedCall/yolov8_detector_1/yolo_v8_head_1_class_3_conv_1/Reshape", "shape": [1, 1, 1, 1], "dtype": "float32"}, {"name": "StatefulPartitionedCall/yolov8_detector_1/concat_10/axis", "shape": [], "dtype": "int32"}, {"name": "StatefulPartitionedCall/yolov8_detector_1/yolo_v8_head_1_output_reshape_1/Reshape/shape", "shape": [3], "dtype": "int32"}, {"name": "StatefulPartitionedCall/yolov8_detector_1/yolo_v8_head_2_box_1_pad_1/Const", "shape": [4, 2], "dtype": "int32"}, {"name": "StatefulPartitionedCall/yolov8_detector_1/yolo_v8_head_2_box_1_conv_1/convolution/merged_input", "shape": [3, 3, 256, 64], "dtype": "float32"}, {"name": "StatefulPartitionedCall/yolov8_detector_1/yolo_v8_head_2_box_1_bn_1/batchnorm/sub", "shape": [64], "dtype": "float32"}, {"name": "StatefulPartitionedCall/yolov8_detector_1/yolo_v8_head_2_box_2_pad_1/Const", "shape": [4, 2], "dtype": "int32"}, {"name": "StatefulPartitionedCall/yolov8_detector_1/yolo_v8_head_2_box_2_conv_1/convolution/merged_input", "shape": [3, 3, 64, 64], "dtype": "float32"}, {"name": "StatefulPartitionedCall/yolov8_detector_1/yolo_v8_head_2_box_2_bn_1/batchnorm/sub", "shape": [64], "dtype": "float32"}, {"name": "StatefulPartitionedCall/yolov8_detector_1/yolo_v8_head_2_box_3_conv_1/convolution/ReadVariableOp", "shape": [1, 1, 64, 64], "dtype": "float32"}, {"name": "StatefulPartitionedCall/yolov8_detector_1/yolo_v8_head_2_box_3_conv_1/Squeeze", "shape": [64], "dtype": "float32"}, {"name": "StatefulPartitionedCall/yolov8_detector_1/yolo_v8_head_2_class_1_pad_1/Const", "shape": [4, 2], "dtype": "int32"}, {"name": "StatefulPartitionedCall/yolov8_detector_1/yolo_v8_head_2_class_1_conv_1/convolution/merged_input", "shape": [3, 3, 256, 128], "dtype": "float32"}, {"name": "StatefulPartitionedCall/yolov8_detector_1/yolo_v8_head_2_class_1_bn_1/batchnorm/sub", "shape": [128], "dtype": "float32"}, {"name": "StatefulPartitionedCall/yolov8_detector_1/yolo_v8_head_2_class_2_pad_1/Const", "shape": [4, 2], "dtype": "int32"}, {"name": "StatefulPartitionedCall/yolov8_detector_1/yolo_v8_head_2_class_2_conv_1/convolution/merged_input", "shape": [3, 3, 128, 128], "dtype": "float32"}, {"name": "StatefulPartitionedCall/yolov8_detector_1/yolo_v8_head_2_class_2_bn_1/batchnorm/sub", "shape": [128], "dtype": "float32"}, {"name": "StatefulPartitionedCall/yolov8_detector_1/yolo_v8_head_2_class_3_conv_1/convolution/ReadVariableOp", "shape": [1, 1, 128, 1], "dtype": "float32"}, {"name": "StatefulPartitionedCall/yolov8_detector_1/yolo_v8_head_2_class_3_conv_1/Reshape", "shape": [1, 1, 1, 1], "dtype": "float32"}, {"name": "StatefulPartitionedCall/yolov8_detector_1/concat_9/axis", "shape": [], "dtype": "int32"}, {"name": "StatefulPartitionedCall/yolov8_detector_1/yolo_v8_head_2_output_reshape_1/Reshape/shape", "shape": [3], "dtype": "int32"}, {"name": "StatefulPartitionedCall/yolov8_detector_1/yolo_v8_head_3_box_1_pad_1/Const", "shape": [4, 2], "dtype": "int32"}, {"name": "StatefulPartitionedCall/yolov8_detector_1/yolo_v8_head_3_box_1_conv_1/convolution/merged_input", "shape": [3, 3, 512, 64], "dtype": "float32"}, {"name": "StatefulPartitionedCall/yolov8_detector_1/yolo_v8_head_3_box_1_bn_1/batchnorm/sub", "shape": [64], "dtype": "float32"}, {"name": "StatefulPartitionedCall/yolov8_detector_1/yolo_v8_head_3_box_2_pad_1/Const", "shape": [4, 2], "dtype": "int32"}, {"name": "StatefulPartitionedCall/yolov8_detector_1/yolo_v8_head_3_box_2_conv_1/convolution/merged_input", "shape": [3, 3, 64, 64], "dtype": "float32"}, {"name": "StatefulPartitionedCall/yolov8_detector_1/yolo_v8_head_3_box_2_bn_1/batchnorm/sub", "shape": [64], "dtype": "float32"}, {"name": "StatefulPartitionedCall/yolov8_detector_1/yolo_v8_head_3_box_3_conv_1/convolution/ReadVariableOp", "shape": [1, 1, 64, 64], "dtype": "float32"}, {"name": "StatefulPartitionedCall/yolov8_detector_1/yolo_v8_head_3_box_3_conv_1/Squeeze", "shape": [64], "dtype": "float32"}, {"name": "StatefulPartitionedCall/yolov8_detector_1/split_3/split_dim", "shape": [], "dtype": "int32"}, {"name": "StatefulPartitionedCall/yolov8_detector_1/split_2/split_dim", "shape": [], "dtype": "int32"}, {"name": "StatefulPartitionedCall/yolov8_detector_1/split_1/split_dim", "shape": [], "dtype": "int32"}, {"name": "StatefulPartitionedCall/yolov8_detector_1/Repeat_2/ExpandDims/dim", "shape": [], "dtype": "int32"}, {"name": "StatefulPartitionedCall/yolov8_detector_1/Repeat_2/Tile/multiples", "shape": [5], "dtype": "int32"}, {"name": "StatefulPartitionedCall/yolov8_detector_1/Repeat_2/concat", "shape": [4], "dtype": "int32"}, {"name": "StatefulPartitionedCall/yolov8_detector_1/Repeat_3/ExpandDims/dim", "shape": [], "dtype": "int32"}, {"name": "StatefulPartitionedCall/yolov8_detector_1/Repeat_3/Tile/multiples", "shape": [5], "dtype": "int32"}, {"name": "StatefulPartitionedCall/yolov8_detector_1/Repeat_3/concat", "shape": [4], "dtype": "int32"}, {"name": "StatefulPartitionedCall/yolov8_detector_1/concat_2/axis", "shape": [], "dtype": "int32"}, {"name": "StatefulPartitionedCall/yolov8_detector_1/pa_fpn_p3p4p5_pre_conv_1/convolution/merged_input", "shape": [1, 1, 384, 128], "dtype": "float32"}, {"name": "StatefulPartitionedCall/yolov8_detector_1/pa_fpn_p3p4p5_pre_bn_1/batchnorm/sub", "shape": [128], "dtype": "float32"}, {"name": "StatefulPartitionedCall/yolov8_detector_1/pa_fpn_p3p4p5_pre_0_1_pad_1/Const", "shape": [4, 2], "dtype": "int32"}, {"name": "StatefulPartitionedCall/yolov8_detector_1/pa_fpn_p3p4p5_pre_0_1_conv_1/convolution/merged_input", "shape": [3, 3, 64, 64], "dtype": "float32"}, {"name": "StatefulPartitionedCall/yolov8_detector_1/pa_fpn_p3p4p5_pre_0_1_bn_1/batchnorm/sub", "shape": [64], "dtype": "float32"}, {"name": "StatefulPartitionedCall/yolov8_detector_1/pa_fpn_p3p4p5_pre_0_2_pad_1/Const", "shape": [4, 2], "dtype": "int32"}, {"name": "StatefulPartitionedCall/yolov8_detector_1/pa_fpn_p3p4p5_pre_0_2_conv_1/convolution/merged_input", "shape": [3, 3, 64, 64], "dtype": "float32"}, {"name": "StatefulPartitionedCall/yolov8_detector_1/pa_fpn_p3p4p5_pre_0_2_bn_1/batchnorm/sub", "shape": [64], "dtype": "float32"}, {"name": "StatefulPartitionedCall/yolov8_detector_1/concat_3/axis", "shape": [], "dtype": "int32"}, {"name": "StatefulPartitionedCall/yolov8_detector_1/pa_fpn_p3p4p5_output_conv_1/convolution/merged_input", "shape": [1, 1, 192, 128], "dtype": "float32"}, {"name": "StatefulPartitionedCall/yolov8_detector_1/pa_fpn_p3p4p5_output_bn_1/batchnorm/sub", "shape": [128], "dtype": "float32"}, {"name": "StatefulPartitionedCall/yolov8_detector_1/pa_fpn_p3p4p5_downsample1_pad_1/Const", "shape": [4, 2], "dtype": "int32"}, {"name": "StatefulPartitionedCall/yolov8_detector_1/pa_fpn_p3p4p5_downsample1_conv_1/convolution/merged_input", "shape": [3, 3, 128, 128], "dtype": "float32"}, {"name": "StatefulPartitionedCall/yolov8_detector_1/pa_fpn_p3p4p5_downsample1_bn_1/batchnorm/sub", "shape": [128], "dtype": "float32"}, {"name": "StatefulPartitionedCall/yolov8_detector_1/split/split_dim", "shape": [], "dtype": "int32"}, {"name": "StatefulPartitionedCall/yolov8_detector_1/Repeat/ExpandDims/dim", "shape": [], "dtype": "int32"}, {"name": "StatefulPartitionedCall/yolov8_detector_1/Repeat/Tile/multiples", "shape": [5], "dtype": "int32"}, {"name": "StatefulPartitionedCall/yolov8_detector_1/Repeat/concat", "shape": [4], "dtype": "int32"}, {"name": "StatefulPartitionedCall/yolov8_detector_1/Repeat_1/ExpandDims/dim", "shape": [], "dtype": "int32"}, {"name": "StatefulPartitionedCall/yolov8_detector_1/Repeat_1/Tile/multiples", "shape": [5], "dtype": "int32"}, {"name": "StatefulPartitionedCall/yolov8_detector_1/Repeat_1/concat", "shape": [4], "dtype": "int32"}, {"name": "StatefulPartitionedCall/yolov8_detector_1/concat/axis", "shape": [], "dtype": "int32"}, {"name": "StatefulPartitionedCall/yolov8_detector_1/pa_fpn_p4p5_pre_conv_1/convolution/merged_input", "shape": [1, 1, 768, 256], "dtype": "float32"}, {"name": "StatefulPartitionedCall/yolov8_detector_1/pa_fpn_p4p5_pre_bn_1/batchnorm/sub", "shape": [256], "dtype": "float32"}, {"name": "StatefulPartitionedCall/yolov8_detector_1/pa_fpn_p4p5_pre_0_1_pad_1/Const", "shape": [4, 2], "dtype": "int32"}, {"name": "StatefulPartitionedCall/yolov8_detector_1/pa_fpn_p4p5_pre_0_1_conv_1/convolution/merged_input", "shape": [3, 3, 128, 128], "dtype": "float32"}, {"name": "StatefulPartitionedCall/yolov8_detector_1/pa_fpn_p4p5_pre_0_1_bn_1/batchnorm/sub", "shape": [128], "dtype": "float32"}, {"name": "StatefulPartitionedCall/yolov8_detector_1/pa_fpn_p4p5_pre_0_2_pad_1/Const", "shape": [4, 2], "dtype": "int32"}, {"name": "StatefulPartitionedCall/yolov8_detector_1/pa_fpn_p4p5_pre_0_2_conv_1/convolution/merged_input", "shape": [3, 3, 128, 128], "dtype": "float32"}, {"name": "StatefulPartitionedCall/yolov8_detector_1/pa_fpn_p4p5_pre_0_2_bn_1/batchnorm/sub", "shape": [128], "dtype": "float32"}, {"name": "StatefulPartitionedCall/yolov8_detector_1/concat_1/axis", "shape": [], "dtype": "int32"}, {"name": "StatefulPartitionedCall/yolov8_detector_1/pa_fpn_p4p5_output_conv_1/convolution/merged_input", "shape": [1, 1, 384, 256], "dtype": "float32"}, {"name": "StatefulPartitionedCall/yolov8_detector_1/pa_fpn_p4p5_output_bn_1/batchnorm/sub", "shape": [256], "dtype": "float32"}, {"name": "StatefulPartitionedCall/yolov8_detector_1/concat_4/axis", "shape": [], "dtype": "int32"}, {"name": "StatefulPartitionedCall/yolov8_detector_1/pa_fpn_p3p4p5_downsample1_block_pre_conv_1/convolution/merged_input", "shape": [1, 1, 384, 256], "dtype": "float32"}, {"name": "StatefulPartitionedCall/yolov8_detector_1/pa_fpn_p3p4p5_downsample1_block_pre_bn_1/batchnorm/sub", "shape": [256], "dtype": "float32"}, {"name": "StatefulPartitionedCall/yolov8_detector_1/pa_fpn_p3p4p5_downsample1_block_pre_0_1_pad_1/Const", "shape": [4, 2], "dtype": "int32"}, {"name": "StatefulPartitionedCall/yolov8_detector_1/pa_fpn_p3p4p5_downsample1_block_pre_0_1_conv_1/convolution/merged_input", "shape": [3, 3, 128, 128], "dtype": "float32"}, {"name": "StatefulPartitionedCall/yolov8_detector_1/pa_fpn_p3p4p5_downsample1_block_pre_0_1_bn_1/batchnorm/sub", "shape": [128], "dtype": "float32"}, {"name": "StatefulPartitionedCall/yolov8_detector_1/pa_fpn_p3p4p5_downsample1_block_pre_0_2_pad_1/Const", "shape": [4, 2], "dtype": "int32"}, {"name": "StatefulPartitionedCall/yolov8_detector_1/pa_fpn_p3p4p5_downsample1_block_pre_0_2_conv_1/convolution/merged_input", "shape": [3, 3, 128, 128], "dtype": "float32"}, {"name": "StatefulPartitionedCall/yolov8_detector_1/pa_fpn_p3p4p5_downsample1_block_pre_0_2_bn_1/batchnorm/sub", "shape": [128], "dtype": "float32"}, {"name": "StatefulPartitionedCall/yolov8_detector_1/pa_fpn_p3p4p5_downsample1_block_pre_1_1_pad_1/Const", "shape": [4, 2], "dtype": "int32"}, {"name": "StatefulPartitionedCall/yolov8_detector_1/pa_fpn_p3p4p5_downsample1_block_pre_1_1_conv_1/convolution/merged_input", "shape": [3, 3, 128, 128], "dtype": "float32"}, {"name": "StatefulPartitionedCall/yolov8_detector_1/pa_fpn_p3p4p5_downsample1_block_pre_1_1_bn_1/batchnorm/sub", "shape": [128], "dtype": "float32"}, {"name": "StatefulPartitionedCall/yolov8_detector_1/pa_fpn_p3p4p5_downsample1_block_pre_1_2_pad_1/Const", "shape": [4, 2], "dtype": "int32"}, {"name": "StatefulPartitionedCall/yolov8_detector_1/pa_fpn_p3p4p5_downsample1_block_pre_1_2_conv_1/convolution/merged_input", "shape": [3, 3, 128, 128], "dtype": "float32"}, {"name": "StatefulPartitionedCall/yolov8_detector_1/pa_fpn_p3p4p5_downsample1_block_pre_1_2_bn_1/batchnorm/sub", "shape": [128], "dtype": "float32"}, {"name": "StatefulPartitionedCall/yolov8_detector_1/concat_5/axis", "shape": [], "dtype": "int32"}, {"name": "StatefulPartitionedCall/yolov8_detector_1/pa_fpn_p3p4p5_downsample1_block_output_conv_1/convolution/merged_input", "shape": [1, 1, 512, 256], "dtype": "float32"}, {"name": "StatefulPartitionedCall/yolov8_detector_1/pa_fpn_p3p4p5_downsample1_block_output_bn_1/batchnorm/sub", "shape": [256], "dtype": "float32"}, {"name": "StatefulPartitionedCall/yolov8_detector_1/pa_fpn_p3p4p5_downsample2_pad_1/Const", "shape": [4, 2], "dtype": "int32"}, {"name": "StatefulPartitionedCall/yolov8_detector_1/pa_fpn_p3p4p5_downsample2_conv_1/convolution/merged_input", "shape": [3, 3, 256, 256], "dtype": "float32"}, {"name": "StatefulPartitionedCall/yolov8_detector_1/pa_fpn_p3p4p5_downsample2_bn_1/batchnorm/sub", "shape": [256], "dtype": "float32"}, {"name": "StatefulPartitionedCall/yolov8_detector_1/functional_1/split_3/split_dim", "shape": [], "dtype": "int32"}, {"name": "StatefulPartitionedCall/yolov8_detector_1/functional_1/split_2/split_dim", "shape": [], "dtype": "int32"}, {"name": "StatefulPartitionedCall/yolov8_detector_1/functional_1/split_1/split_dim", "shape": [], "dtype": "int32"}, {"name": "StatefulPartitionedCall/yolov8_detector_1/functional_1/split/split_dim", "shape": [], "dtype": "int32"}, {"name": "StatefulPartitionedCall/yolov8_detector_1/functional_1/rescaling_1/Cast/x", "shape": [], "dtype": "float32"}, {"name": "StatefulPartitionedCall/yolov8_detector_1/functional_1/rescaling_1/Cast_1/x", "shape": [], "dtype": "float32"}, {"name": "StatefulPartitionedCall/yolov8_detector_1/functional_1/stem_1_pad_1/Const", "shape": [4, 2], "dtype": "int32"}, {"name": "StatefulPartitionedCall/yolov8_detector_1/functional_1/stem_1_conv_1/convolution/merged_input", "shape": [3, 3, 3, 32], "dtype": "float32"}, {"name": "StatefulPartitionedCall/yolov8_detector_1/functional_1/stem_1_bn_1/batchnorm/sub", "shape": [32], "dtype": "float32"}, {"name": "StatefulPartitionedCall/yolov8_detector_1/functional_1/stem_2_pad_1/Const", "shape": [4, 2], "dtype": "int32"}, {"name": "StatefulPartitionedCall/yolov8_detector_1/functional_1/stem_2_conv_1/convolution/merged_input", "shape": [3, 3, 32, 64], "dtype": "float32"}, {"name": "StatefulPartitionedCall/yolov8_detector_1/functional_1/stem_2_bn_1/batchnorm/sub", "shape": [64], "dtype": "float32"}, {"name": "StatefulPartitionedCall/yolov8_detector_1/functional_1/stack1_c2f_pre_conv_1/convolution/merged_input", "shape": [1, 1, 64, 64], "dtype": "float32"}, {"name": "StatefulPartitionedCall/yolov8_detector_1/functional_1/stack1_c2f_pre_bn_1/batchnorm/sub", "shape": [64], "dtype": "float32"}, {"name": "StatefulPartitionedCall/yolov8_detector_1/functional_1/stack1_c2f_pre_0_1_pad_1/Const", "shape": [4, 2], "dtype": "int32"}, {"name": "StatefulPartitionedCall/yolov8_detector_1/functional_1/stack1_c2f_pre_0_1_conv_1/convolution/merged_input", "shape": [3, 3, 32, 32], "dtype": "float32"}, {"name": "StatefulPartitionedCall/yolov8_detector_1/functional_1/stack1_c2f_pre_0_1_bn_1/batchnorm/sub", "shape": [32], "dtype": "float32"}, {"name": "StatefulPartitionedCall/yolov8_detector_1/functional_1/stack1_c2f_pre_0_2_pad_1/Const", "shape": [4, 2], "dtype": "int32"}, {"name": "StatefulPartitionedCall/yolov8_detector_1/functional_1/stack1_c2f_pre_0_2_conv_1/convolution/merged_input", "shape": [3, 3, 32, 32], "dtype": "float32"}, {"name": "StatefulPartitionedCall/yolov8_detector_1/functional_1/stack1_c2f_pre_0_2_bn_1/batchnorm/sub", "shape": [32], "dtype": "float32"}, {"name": "StatefulPartitionedCall/yolov8_detector_1/functional_1/concat/axis", "shape": [], "dtype": "int32"}, {"name": "StatefulPartitionedCall/yolov8_detector_1/functional_1/stack1_c2f_output_conv_1/convolution/merged_input", "shape": [1, 1, 96, 64], "dtype": "float32"}, {"name": "StatefulPartitionedCall/yolov8_detector_1/functional_1/stack1_c2f_output_bn_1/batchnorm/sub", "shape": [64], "dtype": "float32"}, {"name": "StatefulPartitionedCall/yolov8_detector_1/functional_1/stack2_downsample_pad_1/Const", "shape": [4, 2], "dtype": "int32"}, {"name": "StatefulPartitionedCall/yolov8_detector_1/functional_1/stack2_downsample_conv_1/convolution/merged_input", "shape": [3, 3, 64, 128], "dtype": "float32"}, {"name": "StatefulPartitionedCall/yolov8_detector_1/functional_1/stack2_downsample_bn_1/batchnorm/sub", "shape": [128], "dtype": "float32"}, {"name": "StatefulPartitionedCall/yolov8_detector_1/functional_1/stack2_c2f_pre_conv_1/convolution/merged_input", "shape": [1, 1, 128, 128], "dtype": "float32"}, {"name": "StatefulPartitionedCall/yolov8_detector_1/functional_1/stack2_c2f_pre_bn_1/batchnorm/sub", "shape": [128], "dtype": "float32"}, {"name": "StatefulPartitionedCall/yolov8_detector_1/functional_1/stack2_c2f_pre_0_1_pad_1/Const", "shape": [4, 2], "dtype": "int32"}, {"name": "StatefulPartitionedCall/yolov8_detector_1/functional_1/stack2_c2f_pre_0_1_conv_1/convolution/merged_input", "shape": [3, 3, 64, 64], "dtype": "float32"}, {"name": "StatefulPartitionedCall/yolov8_detector_1/functional_1/stack2_c2f_pre_0_1_bn_1/batchnorm/sub", "shape": [64], "dtype": "float32"}, {"name": "StatefulPartitionedCall/yolov8_detector_1/functional_1/stack2_c2f_pre_0_2_pad_1/Const", "shape": [4, 2], "dtype": "int32"}, {"name": "StatefulPartitionedCall/yolov8_detector_1/functional_1/stack2_c2f_pre_0_2_conv_1/convolution/merged_input", "shape": [3, 3, 64, 64], "dtype": "float32"}, {"name": "StatefulPartitionedCall/yolov8_detector_1/functional_1/stack2_c2f_pre_0_2_bn_1/batchnorm/sub", "shape": [64], "dtype": "float32"}, {"name": "StatefulPartitionedCall/yolov8_detector_1/functional_1/stack2_c2f_pre_1_1_pad_1/Const", "shape": [4, 2], "dtype": "int32"}, {"name": "StatefulPartitionedCall/yolov8_detector_1/functional_1/stack2_c2f_pre_1_1_conv_1/convolution/merged_input", "shape": [3, 3, 64, 64], "dtype": "float32"}, {"name": "StatefulPartitionedCall/yolov8_detector_1/functional_1/stack2_c2f_pre_1_1_bn_1/batchnorm/sub", "shape": [64], "dtype": "float32"}, {"name": "StatefulPartitionedCall/yolov8_detector_1/functional_1/stack2_c2f_pre_1_2_pad_1/Const", "shape": [4, 2], "dtype": "int32"}, {"name": "StatefulPartitionedCall/yolov8_detector_1/functional_1/stack2_c2f_pre_1_2_conv_1/convolution/merged_input", "shape": [3, 3, 64, 64], "dtype": "float32"}, {"name": "StatefulPartitionedCall/yolov8_detector_1/functional_1/stack2_c2f_pre_1_2_bn_1/batchnorm/sub", "shape": [64], "dtype": "float32"}, {"name": "StatefulPartitionedCall/yolov8_detector_1/functional_1/concat_1/axis", "shape": [], "dtype": "int32"}, {"name": "StatefulPartitionedCall/yolov8_detector_1/functional_1/stack2_c2f_output_conv_1/convolution/merged_input", "shape": [1, 1, 256, 128], "dtype": "float32"}, {"name": "StatefulPartitionedCall/yolov8_detector_1/functional_1/stack2_c2f_output_bn_1/batchnorm/sub", "shape": [128], "dtype": "float32"}, {"name": "StatefulPartitionedCall/yolov8_detector_1/functional_1/stack3_downsample_pad_1/Const", "shape": [4, 2], "dtype": "int32"}, {"name": "StatefulPartitionedCall/yolov8_detector_1/functional_1/stack3_downsample_conv_1/convolution/merged_input", "shape": [3, 3, 128, 256], "dtype": "float32"}, {"name": "StatefulPartitionedCall/yolov8_detector_1/functional_1/stack3_downsample_bn_1/batchnorm/sub", "shape": [256], "dtype": "float32"}, {"name": "StatefulPartitionedCall/yolov8_detector_1/functional_1/stack3_c2f_pre_conv_1/convolution/merged_input", "shape": [1, 1, 256, 256], "dtype": "float32"}, {"name": "StatefulPartitionedCall/yolov8_detector_1/functional_1/stack3_c2f_pre_bn_1/batchnorm/sub", "shape": [256], "dtype": "float32"}, {"name": "StatefulPartitionedCall/yolov8_detector_1/functional_1/stack3_c2f_pre_0_1_pad_1/Const", "shape": [4, 2], "dtype": "int32"}, {"name": "StatefulPartitionedCall/yolov8_detector_1/functional_1/stack3_c2f_pre_0_1_conv_1/convolution/merged_input", "shape": [3, 3, 128, 128], "dtype": "float32"}, {"name": "StatefulPartitionedCall/yolov8_detector_1/functional_1/stack3_c2f_pre_0_1_bn_1/batchnorm/sub", "shape": [128], "dtype": "float32"}, {"name": "StatefulPartitionedCall/yolov8_detector_1/functional_1/stack3_c2f_pre_0_2_pad_1/Const", "shape": [4, 2], "dtype": "int32"}, {"name": "StatefulPartitionedCall/yolov8_detector_1/functional_1/stack3_c2f_pre_0_2_conv_1/convolution/merged_input", "shape": [3, 3, 128, 128], "dtype": "float32"}, {"name": "StatefulPartitionedCall/yolov8_detector_1/functional_1/stack3_c2f_pre_0_2_bn_1/batchnorm/sub", "shape": [128], "dtype": "float32"}, {"name": "StatefulPartitionedCall/yolov8_detector_1/functional_1/stack3_c2f_pre_1_1_pad_1/Const", "shape": [4, 2], "dtype": "int32"}, {"name": "StatefulPartitionedCall/yolov8_detector_1/functional_1/stack3_c2f_pre_1_1_conv_1/convolution/merged_input", "shape": [3, 3, 128, 128], "dtype": "float32"}, {"name": "StatefulPartitionedCall/yolov8_detector_1/functional_1/stack3_c2f_pre_1_1_bn_1/batchnorm/sub", "shape": [128], "dtype": "float32"}, {"name": "StatefulPartitionedCall/yolov8_detector_1/functional_1/stack3_c2f_pre_1_2_pad_1/Const", "shape": [4, 2], "dtype": "int32"}, {"name": "StatefulPartitionedCall/yolov8_detector_1/functional_1/stack3_c2f_pre_1_2_conv_1/convolution/merged_input", "shape": [3, 3, 128, 128], "dtype": "float32"}, {"name": "StatefulPartitionedCall/yolov8_detector_1/functional_1/stack3_c2f_pre_1_2_bn_1/batchnorm/sub", "shape": [128], "dtype": "float32"}, {"name": "StatefulPartitionedCall/yolov8_detector_1/functional_1/concat_2/axis", "shape": [], "dtype": "int32"}, {"name": "StatefulPartitionedCall/yolov8_detector_1/functional_1/stack3_c2f_output_conv_1/convolution/merged_input", "shape": [1, 1, 512, 256], "dtype": "float32"}, {"name": "StatefulPartitionedCall/yolov8_detector_1/functional_1/stack3_c2f_output_bn_1/batchnorm/sub", "shape": [256], "dtype": "float32"}, {"name": "StatefulPartitionedCall/yolov8_detector_1/functional_1/stack4_downsample_pad_1/Const", "shape": [4, 2], "dtype": "int32"}, {"name": "StatefulPartitionedCall/yolov8_detector_1/functional_1/stack4_downsample_conv_1/convolution/merged_input", "shape": [3, 3, 256, 512], "dtype": "float32"}, {"name": "StatefulPartitionedCall/yolov8_detector_1/functional_1/stack4_downsample_bn_1/batchnorm/sub", "shape": [512], "dtype": "float32"}, {"name": "StatefulPartitionedCall/yolov8_detector_1/functional_1/stack4_c2f_pre_conv_1/convolution/merged_input", "shape": [1, 1, 512, 512], "dtype": "float32"}, {"name": "StatefulPartitionedCall/yolov8_detector_1/functional_1/stack4_c2f_pre_bn_1/batchnorm/sub", "shape": [512], "dtype": "float32"}, {"name": "StatefulPartitionedCall/yolov8_detector_1/functional_1/stack4_c2f_pre_0_1_pad_1/Const", "shape": [4, 2], "dtype": "int32"}, {"name": "StatefulPartitionedCall/yolov8_detector_1/functional_1/stack4_c2f_pre_0_1_conv_1/convolution/merged_input", "shape": [3, 3, 256, 256], "dtype": "float32"}, {"name": "StatefulPartitionedCall/yolov8_detector_1/functional_1/stack4_c2f_pre_0_1_bn_1/batchnorm/sub", "shape": [256], "dtype": "float32"}, {"name": "StatefulPartitionedCall/yolov8_detector_1/functional_1/stack4_c2f_pre_0_2_pad_1/Const", "shape": [4, 2], "dtype": "int32"}, {"name": "StatefulPartitionedCall/yolov8_detector_1/functional_1/stack4_c2f_pre_0_2_conv_1/convolution/merged_input", "shape": [3, 3, 256, 256], "dtype": "float32"}, {"name": "StatefulPartitionedCall/yolov8_detector_1/functional_1/stack4_c2f_pre_0_2_bn_1/batchnorm/sub", "shape": [256], "dtype": "float32"}, {"name": "StatefulPartitionedCall/yolov8_detector_1/functional_1/concat_3/axis", "shape": [], "dtype": "int32"}, {"name": "StatefulPartitionedCall/yolov8_detector_1/functional_1/stack4_c2f_output_conv_1/convolution/merged_input", "shape": [1, 1, 768, 512], "dtype": "float32"}, {"name": "StatefulPartitionedCall/yolov8_detector_1/functional_1/stack4_c2f_output_bn_1/batchnorm/sub", "shape": [512], "dtype": "float32"}, {"name": "StatefulPartitionedCall/yolov8_detector_1/functional_1/stack4_spp_fast_pre_conv_1/convolution/merged_input", "shape": [1, 1, 512, 256], "dtype": "float32"}, {"name": "StatefulPartitionedCall/yolov8_detector_1/functional_1/stack4_spp_fast_pre_bn_1/batchnorm/sub", "shape": [256], "dtype": "float32"}, {"name": "StatefulPartitionedCall/yolov8_detector_1/functional_1/concat_4/axis", "shape": [], "dtype": "int32"}, {"name": "StatefulPartitionedCall/yolov8_detector_1/functional_1/stack4_spp_fast_output_conv_1/convolution/merged_input", "shape": [1, 1, 1024, 512], "dtype": "float32"}, {"name": "StatefulPartitionedCall/yolov8_detector_1/functional_1/stack4_spp_fast_output_bn_1/batchnorm/sub", "shape": [512], "dtype": "float32"}, {"name": "StatefulPartitionedCall/yolov8_detector_1/concat_6/axis", "shape": [], "dtype": "int32"}, {"name": "StatefulPartitionedCall/yolov8_detector_1/pa_fpn_p3p4p5_downsample2_block_pre_conv_1/convolution/merged_input", "shape": [1, 1, 768, 512], "dtype": "float32"}, {"name": "StatefulPartitionedCall/yolov8_detector_1/pa_fpn_p3p4p5_downsample2_block_pre_bn_1/batchnorm/sub", "shape": [512], "dtype": "float32"}, {"name": "StatefulPartitionedCall/yolov8_detector_1/pa_fpn_p3p4p5_downsample2_block_pre_0_1_pad_1/Const", "shape": [4, 2], "dtype": "int32"}, {"name": "StatefulPartitionedCall/yolov8_detector_1/pa_fpn_p3p4p5_downsample2_block_pre_0_1_conv_1/convolution/merged_input", "shape": [3, 3, 256, 256], "dtype": "float32"}, {"name": "StatefulPartitionedCall/yolov8_detector_1/pa_fpn_p3p4p5_downsample2_block_pre_0_1_bn_1/batchnorm/sub", "shape": [256], "dtype": "float32"}, {"name": "StatefulPartitionedCall/yolov8_detector_1/pa_fpn_p3p4p5_downsample2_block_pre_0_2_pad_1/Const", "shape": [4, 2], "dtype": "int32"}, {"name": "StatefulPartitionedCall/yolov8_detector_1/pa_fpn_p3p4p5_downsample2_block_pre_0_2_conv_1/convolution/merged_input", "shape": [3, 3, 256, 256], "dtype": "float32"}, {"name": "StatefulPartitionedCall/yolov8_detector_1/pa_fpn_p3p4p5_downsample2_block_pre_0_2_bn_1/batchnorm/sub", "shape": [256], "dtype": "float32"}, {"name": "StatefulPartitionedCall/yolov8_detector_1/pa_fpn_p3p4p5_downsample2_block_pre_1_1_pad_1/Const", "shape": [4, 2], "dtype": "int32"}, {"name": "StatefulPartitionedCall/yolov8_detector_1/pa_fpn_p3p4p5_downsample2_block_pre_1_1_conv_1/convolution/merged_input", "shape": [3, 3, 256, 256], "dtype": "float32"}, {"name": "StatefulPartitionedCall/yolov8_detector_1/pa_fpn_p3p4p5_downsample2_block_pre_1_1_bn_1/batchnorm/sub", "shape": [256], "dtype": "float32"}, {"name": "StatefulPartitionedCall/yolov8_detector_1/pa_fpn_p3p4p5_downsample2_block_pre_1_2_pad_1/Const", "shape": [4, 2], "dtype": "int32"}, {"name": "StatefulPartitionedCall/yolov8_detector_1/pa_fpn_p3p4p5_downsample2_block_pre_1_2_conv_1/convolution/merged_input", "shape": [3, 3, 256, 256], "dtype": "float32"}, {"name": "StatefulPartitionedCall/yolov8_detector_1/pa_fpn_p3p4p5_downsample2_block_pre_1_2_bn_1/batchnorm/sub", "shape": [256], "dtype": "float32"}, {"name": "StatefulPartitionedCall/yolov8_detector_1/concat_7/axis", "shape": [], "dtype": "int32"}, {"name": "StatefulPartitionedCall/yolov8_detector_1/pa_fpn_p3p4p5_downsample2_block_output_conv_1/convolution/merged_input", "shape": [1, 1, 1024, 512], "dtype": "float32"}, {"name": "StatefulPartitionedCall/yolov8_detector_1/pa_fpn_p3p4p5_downsample2_block_output_bn_1/batchnorm/sub", "shape": [512], "dtype": "float32"}, {"name": "StatefulPartitionedCall/yolov8_detector_1/yolo_v8_head_3_class_1_pad_1/Const", "shape": [4, 2], "dtype": "int32"}, {"name": "StatefulPartitionedCall/yolov8_detector_1/yolo_v8_head_3_class_1_conv_1/convolution/merged_input", "shape": [3, 3, 512, 128], "dtype": "float32"}, {"name": "StatefulPartitionedCall/yolov8_detector_1/yolo_v8_head_3_class_1_bn_1/batchnorm/sub", "shape": [128], "dtype": "float32"}, {"name": "StatefulPartitionedCall/yolov8_detector_1/yolo_v8_head_3_class_2_pad_1/Const", "shape": [4, 2], "dtype": "int32"}, {"name": "StatefulPartitionedCall/yolov8_detector_1/yolo_v8_head_3_class_2_conv_1/convolution/merged_input", "shape": [3, 3, 128, 128], "dtype": "float32"}, {"name": "StatefulPartitionedCall/yolov8_detector_1/yolo_v8_head_3_class_2_bn_1/batchnorm/sub", "shape": [128], "dtype": "float32"}, {"name": "StatefulPartitionedCall/yolov8_detector_1/yolo_v8_head_3_class_3_conv_1/convolution/ReadVariableOp", "shape": [1, 1, 128, 1], "dtype": "float32"}, {"name": "StatefulPartitionedCall/yolov8_detector_1/yolo_v8_head_3_class_3_conv_1/Reshape", "shape": [1, 1, 1, 1], "dtype": "float32"}, {"name": "StatefulPartitionedCall/yolov8_detector_1/concat_8/axis", "shape": [], "dtype": "int32"}, {"name": "StatefulPartitionedCall/yolov8_detector_1/yolo_v8_head_3_output_reshape_1/Reshape/shape", "shape": [3], "dtype": "int32"}, {"name": "StatefulPartitionedCall/yolov8_detector_1/concat_11/axis", "shape": [], "dtype": "int32"}, {"name": "StatefulPartitionedCall/yolov8_detector_1/strided_slice/stack", "shape": [3], "dtype": "int32"}, {"name": "StatefulPartitionedCall/yolov8_detector_1/strided_slice/stack_1", "shape": [3], "dtype": "int32"}, {"name": "StatefulPartitionedCall/yolov8_detector_1/strided_slice/stack_2", "shape": [3], "dtype": "int32"}]}]}